conv_nn/model_saves/cnn_(256, 256)_8.pth (torch, 763352 bytes, 31 tensors)

encoder.0.weight f4 [32, 6, 3, 3]
00000000: 19be ebbd 47a1 4b3d 4e85 c03d a9ab 6a3d
00000010: 5618 b33d 825d 23be e9a6 02be 9767 7c3d
00000020: cb55 593c 3e3f 103d f080 aebc d733 5ebd
00000030: 9758 5abd d6fa cebd 5907 f63d 504e 4c3d
00000040: 22bf 773b 3bb7 ba3d 1e5f c1bd 34d5 9ebc
00000050: 17ec 8dbd 32df 0b3e f261 c23d cb3b f8bc
00000060: a249 7b3d 09ab aa3d 3454 d23d 9031 23bd
00000070: eda2 bd3d 51dd b0bc 185c 693c 891d 99bc
00000080: 70ff d6bd d5f7 12bc 65a6 c4bd 3f6a 4b3d
00000090: 9588 dc3d cd94 7bbd 2963 d3bc 971b 64bd
000000a0: 13c0 933e 026c 273e 7b3d 93bc 9587 893d
000000b0: e8cc f63c 5407 aabd 47b2 9bbd 6556 5a3c
000000c0: 6b66 c63c 2da5 033e ff9a c2bd bf11 f6bd
000000d0: e4ee 253d fe7d 2a3c 2057 f73d c82a d1bd
000000e0: 5669 dfbc 62d5 bb3d b909 6e3c a80f 78be
000000f0: 530d 57bd ed04 94bd 9bd2 263d 9e7a 07be
00000100: 282a 553d f1df 743c 7fde c6bd f580 fe3d
00000110: ad78 f33d b0d9 943d 843f 153c ea5f 01bd
00000120: 3aa1 2dbd 5a77 35be 973a 133e 7f0a 8f3d
00000130: 80bc 543c 5844 cabd de00 a4bd 916b ba3c
00000140: c7d2 9cbc 291e 863d 4fa2 3abe f045 f23c
00000150: 4259 2d3b 1ac3 6c3d 8747 6d3c d33f 943d
00000160: 89e0 3dbd bfd0 98bc 7bb2 84bd 6475 cfbc
00000170: 0613 f4bc 117a 06bd 3632 4f3c 1e5e 293e
00000180: 1c30 843d 44a7 5b3d 90fd 46bc acda f73c
00000190: 8c58 23bd 57c3 9bb9 5a61 eb3d fad5 13bc
000001a0: 9837 8abe db1e d33d 5d2e 5bbd 3ac1 733d
000001b0: 8187 26bc 6883 683c 42fe 633d 34c8 5e3d
000001c0: 2f33 3b3e 821c 01be 4717 fd3c 588c 8bbd
000001d0: 64f2 56bd 9e06 9a3d 2057 99bc 7f45 b5bd
000001e0: b5e5 13be 983f e8bc ab0b 783c a39f 2d3c
000001f0: 1897 593c f82a 983d 4185 f4bd b149 ffbd
00000200: d1b5 373e 4832 7bb9 c3ab dbbd f309 e03d
00000210: 0f96 273e 0bfb b5bd 682d c3bd 6bb9 b53b
00000220: acb7 9bbd de8f e43b 7eab b23d 8282 453e
00000230: c705 ab3c 5ec2 d0bd 79e9 203c a9be c7bc
00000240: a92a 843d e16b 95bc d7d3 06be f021 3cbe
00000250: 156b ce3c e7b3 63bd 9552 1b3c 8948 5abd
00000260: 05ac ae3d 44c0 be3c d678 27bd a5ec 98bd
00000270: 9efa 963b bb0f 483e 6d3d bd3d d145 923a
00000280: 5138 e7bd c831 6fbd 3582 8b3c 2cf5 5cbd
00000290: bf5e 323d 7897 f43d 463f 6a3e b460 47be
000002a0: 4343 e43c 1ea4 b2bd 3744 7b3d 5f2e ddbc
000002b0: 448d 8f3c 54e9 343d c241 0ebc d358 c6bd
000002c0: 62ab f0bc 9386 5a3c 579e 8bbd 1d87 513c
000002d0: c4b6 b93b 7d26 093d fc5d c9bb ed09 e5bd
000002e0: 8641 7f3e 7002 7d3d 11dd 9c3d 8933 eb3b
000002f0: 8f6a 163e 8a13 6abd ad3d 0dbe 9283 c3bc
00000300: 25ea e73c 72da 5abc f904 0ebd 12f0 5bbd
00000310: 9233 c6bd 76b8 6d3c 97ba 803d 1635 61bd
00000320: a31d aa3d dba9 c2bc 80f1 2b3d d5d9 773d
00000330: 9ae5 62bc 6924 11be 2841 b43d 3d2c 563c
00000340: 86a1 a3bc d1b0 49bd c244 0c3e efcf 833e
00000350: 8a15 87bd d00e 19bd 8fbb 38bc bf07 6dbd
00000360: ff04 933d 72cb 02be 1a81 25bd 437d 5b3d
00000370: 66e4 edbd 7585 1c3e 3258 cabd 0cb3 4c3e
00000380: 68fa 9ebd d4a9 64bc f510 deba 13e6 113d
00000390: 9ec8 123d 5f88 a33b 7b2e f6bd ddc6 92bc
000003a0: 5d3a 86bd 5ad3 b83c d096 56bc 26c5 273d
000003b0: 66af 9bbd e167 85be b552 2d3e 45f2 e33d
000003c0: 57fe 92bd 270f db3d 50a5 afbd fe1e f9bd
000003d0: d7ee 65bc 774b e1bc 24c4 673d 144c 033e
000003e0: 6949 6f3c 1866 2abd c838 cd3d 10ea d7bc
000003f0: 33c4 fa3b 5198 9abd ff54 21bd fb2f 1dbc
-0.115108676 0.049714353 0.09400426 0.057292614 0.08744876 -0.15953639 -0.12758984 0.06162223
0.013265084 0.035216562 -0.021301717 -0.054248657 -0.053307142 -0.10106437 0.1201312 0.049879372
0.0037803133 0.0911698 -0.0944197 -0.019388773 -0.06929796 0.13659361 0.09491338 -0.030301949
0.06134952 0.083334036 0.10269967 -0.03984219 0.09259591 -0.021589907 0.014243148 -0.018690841
-0.104979396 -0.008970221 -0.0960205 0.04966187 0.107682385 -0.061421204 -0.02580412 -0.055690374
0.28857478 0.16349795 -0.017973652 0.06715313 0.030127004 -0.08302179 -0.07602363 0.013326262
0.024218759 0.12855978 -0.095022194 -0.120151035 0.040511027 0.010406015 0.12077165 -0.10213238
-0.027271908 0.09171559 0.014528685 -0.24224722 -0.05250294 -0.07227502 0.040728193 -0.13230368
0.052042156 0.01494597 -0.097104065 0.1242694 0.118882515 0.07268083 0.009109382 -0.03158561
-0.042390086 -0.1772131 0.14377819 0.06984424 0.012984395 -0.09876317 -0.08007978 0.02275637
-0.019143475 0.06548721 -0.18225978 0.029574364 0.0026450907 0.05780325 0.0144823855 0.07238736
-0.04635671 -0.018654225 -0.06479355 -0.02532453 -0.029794227 -0.032831255 0.012646249 0.16539809
0.06454489 0.053626314 -0.012145415 0.030255638 -0.039879367 -0.00029709443 0.11493178 -0.009023184
-0.2699554 0.103086196 -0.053511012 0.059510447 -0.010164143 0.014191486 0.0556624 0.054390147
0.18281244 -0.12608531 0.030894889 -0.06813878 -0.052477255 0.075207934 -0.018718302 -0.08851146
-0.14443095 -0.028350636 0.015139501 0.010597142 0.013280652 0.07430071 -0.11939479 -0.124652274
0.17940451 -0.00023955957 -0.1072612 0.10939398 0.16365837 -0.08885773 -0.09530145 0.005545785
-0.07603392 0.006975158 0.08724116 0.19288066 0.020876778 -0.101933226 0.009821289 -0.024382906
0.06453449 -0.018239917 -0.13166748 -0.18372321 0.025197545 -0.05559149 0.009480138 -0.05329183
0.08528904 0.023285039 -0.040886723 -0.07467011 0.0046075126 0.1953725 0.09240232 0.0011159723
-0.112900384 -0.058397084 0.017029861 -0.05394475 0.04354739 0.11942953 0.228757 -0.19470483
0.027864104 -0.08722709 0.06134435 -0.02699965 0.017523415 0.04416783 -0.00868267 -0.096849106
-0.029378597 0.013337749 -0.0681731 0.012788561 0.0056675393 0.03348397 -0.006145237 -0.11183534
0.24927339 0.061769903 0.076593526 0.0071777743 0.14689086 -0.05714754 -0.13793059 -0.023866449
0.028309891 -0.0133577455 -0.03467271 -0.053695746 -0.09677805 0.014509311 0.06285589 -0.054982267
0.08306434 -0.023762634 0.04197836 0.060510475 -0.013848687 -0.14174046 0.0880149 0.013072071
-0.019974481 -0.04924089 0.13698104 0.25744578 -0.06595905 -0.037367642 -0.011275186 -0.057868715
0.07178687 -0.1277292 -0.040406324 0.053586256 -0.11615829 0.15285285 -0.09880103 0.19990176
-0.07762605 -0.013956506 -0.001694231 0.035619806 0.035835855 0.004990622 -0.12020584 -0.017917091
-0.06554101 0.022561718 -0.01309748 0.0409595 -0.07601814 -0.26055816 0.16926081 0.111301936
-0.07177418 0.106962495 -0.08576453 -0.121641144 -0.014033995 -0.027501805 0.05658354 0.1282199
0.014604905 -0.04160127 0.10020596 -0.026356727 0.0076527833 -0.07548583 -0.0393877 -0.009593959

encoder.0.bias f4 [32]
00000000: 18ac 57b4 2361 d8b5 f2d1 5a36 5251 1db6
00000010: 4105 f2b5 b187 0db6 174e 0737 0385 8b35
00000020: a6e8 7735 2f6a 8f35 8467 40b5 4677 8fb4
00000030: b809 95b6 93d5 b7b6 301a 5e36 772b d135
00000040: dfd9 b9b5 ec1c 16b5 f0a8 68b5 7c3b cc35
00000050: ae43 b337 30e0 9e35 0c4c 2736 07ef d6b5
00000060: 6712 4d35 8111 03b7 5637 0336 06fd b635
00000070: 5511 adb5 b38d fd35 251b c3b3 2cdc 2436
-2.0086043e-07 -1.6121525e-06 3.2606736e-06 -2.3442158e-06 -1.8031934e-06 -2.108962e-06 8.064809e-06 1.0395019e-06
9.235322e-07 1.0685234e-06 -7.167621e-07 -2.6722608e-07 -4.4416774e-06 -5.4786883e-06 3.309582e-06 1.5584363e-06
-1.3846983e-06 -5.592144e-07 -8.667257e-07 1.5216497e-06 2.1369979e-05 1.1837164e-06 2.4929204e-06 -1.6013809e-06
7.639523e-07 -7.812284e-06 1.955273e-06 1.3633696e-06 -1.2894549e-06 1.8891209e-06 -9.085333e-08 2.4566061e-06

encoder.1.weight f4 [32]
00000000: 27de 5f3f cf41 5a3f ece7 4b3f e8d2 583f
00000010: 6be4 563f 52de 873f 2839 553f f5ed 513f
00000020: 5cd6 653f c4ab 683f 0249 3f3f 8ead 6f3f
00000030: 2427 7c3f e7c0 4b3f c46d 4d3f c66e 4d3f
00000040: c630 4b3f 4cf5 5e3f 83f0 583f 4f80 633f
00000050: 1f31 6d3f 1459 783f 7aba 543f d032 483f
00000060: 1860 603f 25f9 503f 0da2 483f 5c11 703f
00000070: 0007 4a3f 2c2e 5f3f 6f8d 563f 7564 503f
0.8744835 0.85256666 0.7965076 0.8469682 0.8394229 1.0614722 0.8329034 0.8200372
0.8978021 0.90887094 0.74720776 0.936242 0.98497224 0.7959122 0.80245614 0.8024715
0.793713 0.87093043 0.8474199 0.8886766 0.9265308 0.9701092 0.8309704 0.78202534
0.8764663 0.81630164 0.7837227 0.9377649 0.7891693 0.8717983 0.8380956 0.81403285

encoder.1.bias f4 [32]
00000000: 6a89 eebe c300 cfbe cc8a c0be ae7b ebbe
00000010: c904 e4be b631 49be e69f edbe 443f d5be
00000020: 4604 acbe eeed 3abe 07ef a2be 3793 80be
00000030: 9c61 dfbe 15fa fdbe aecb 9cbe ee83 87be
00000040: 8c37 abbe 8ce2 e5be 4717 9ebe 6499 1abe
00000050: bc21 b8be 6ae8 29be f70f 7dbe 5f2c f5be
00000060: 254e bdbe 3578 0ebf 918c 00bf 98d3 04bf
00000070: 0046 f7be e94c 9cbe a5ad bcbe 5120 efbe
-0.46589214 -0.4043027 -0.37605894 -0.45992798 -0.445349 -0.1964787 -0.46411055 -0.4164983
-0.3359701 -0.18254825 -0.31822988 -0.25112316 -0.43629158 -0.4960486 -0.30624145 -0.26467842
-0.33440816 -0.44899404 -0.30877134 -0.15097576 -0.35963237 -0.16592565 -0.24713121 -0.47885415
-0.36973682 -0.5565217 -0.5021449 -0.51885366 -0.48295593 -0.30527428 -0.3685123 -0.46704343

encoder.1.running_mean f4 [32]
00000000: 5d59 493b 7153 c93a ea27 c6ba 8015 39bb
00000010: f578 093b 37dd 883c 878a bdbb 89a9 753b
00000020: 1c0d c4ba f3e0 153b ccbf 36bb b4c1 373c
00000030: 0522 a0bb 7ec5 cbbb 6320 17bb 8ec0 ef39
00000040: 2fc5 943b 3b71 dabb b6b0 0d3b ac9c 503a
00000050: 7393 80bb e581 8c3c 89d1 30ba db7a 8fba
00000060: a522 15bc 0f1c c3b9 d2a3 93bb f76c 56bc
00000070: 42ca f8ba 16c6 0ebb eb2b be3b 0583 2abb
0.003072343 0.001535995 -0.0015118096 -0.0028241575 0.0020976637 0.016707046 -0.005784336 0.0037485084
-0.001495752 0.0022869676 -0.0027885316 0.011215616 -0.004886868 -0.0062186113 -0.0023060075 0.00045729097
0.0045401077 -0.00666633 0.002162022 0.0007957916 -0.0039238273 0.017151782 -0.00067450904 -0.0010946648
-0.009102498 -0.00037214204 -0.004505613 -0.013087503 -0.0018981176 -0.002178555 0.0058035753 -0.0026018035

encoder.1.running_var f4 [32]
00000000: f38f 6c3e 8d93 3e3e 6b86 be3d 6321 bd3e
00000010: a9f0 9b3d 0a7d 003f 19df d83d 4475 cf3d
00000020: 9690 313e b2c9 953d 0109 b03d 6205 833e
00000030: 8670 3d3e 5013 8b3d 7d9c 0e3e 4610 503d
00000040: 682b 723d f34b e93d 021d ea3d 3c8c 753d
00000050: 5adf c83d 3667 653e 0965 863d c428 453d
00000060: 2b2d 2b3e 81fe f83d 7150 143e b6d8 4c3e
00000070: 6afb 083e adc9 103e f385 e73d d7c0 323e
0.23101787 0.18610974 0.09302982 0.36939535 0.07614262 0.50190794 0.105894275 0.101297885
0.17340311 0.07313861 0.08595467 0.25590044 0.18499956 0.06790793 0.13926883 0.05079677
0.059123427 0.11391439 0.11431314 0.05994819 0.09808226 0.22402653 0.0656224 0.04813458
0.16716449 0.12157918 0.14483811 0.20004544 0.13377157 0.14139433 0.11304846 0.17456375

encoder.4.weight f4 [64, 32, 3, 3]
00000000: 0d15 673b 09d0 713d 07f7 893d cd8d c13d
00000010: df28 50bc 70bf 7bbc b588 663c 232d e7bd
00000020: aa35 9bbd 2130 b3bd ebb2 3fbd 0466 9b3b
00000030: daee 98bd 6693 793c 97ae 343c 6c65 72bd
00000040: e19f 09bd 8047 7bba 91bc 833c 1719 413c
00000050: 4b45 cf3a b3c8 adbb 28e9 b83b 400f 24bd
00000060: 337f 6dbc 2fca babd f46f 3cbd 4c92 34bd
00000070: 3cd4 0c3c 2c5b 953d a97a 44bc 8c85 2f3c
00000080: 51be 0e3d 8782 03bd e46e 50bd 576e c83c
00000090: 83f1 053c 46f8 dabc a956 02bb 8a4a 71bd
000000a0: d6c1 adbd d7cf 07bd cc39 e3bb b7b7 783d
000000b0: 3dbb abbd c9e1 09bc 5407 753d b9ad 843a
000000c0: 613f 8fbd b864 13bd afb8 41bd c902 273c
000000d0: f14e 043d cd54 b5bc fd84 7d3d f2e1 713d
000000e0: e808 893d 0dd9 473c aa33 a43c 542c 263d
000000f0: 59fb 7ebc 0947 45bd cace 0dbc b8a0 92bd
00000100: 1cd2 83bd 7455 a23c 6f2e 1e3d a6fb 853c
00000110: d162 d9bc c66f 9839 336b 3f3d 43a6 ffbc
00000120: fcf5 97bd d04f 8bbd 21ea 313d 5499 b7bd
00000130: 89ff aebc 5e3f 47bd 86ae bdbd 7327 223d
00000140: 226f 64bc 686e cbbc f8b9 01bc 117c a1ba
00000150: fa18 b1bd 443e 9f3c 8d00 adbc 672d e8bc
00000160: 51ed 183d 7867 fb3c ac3c 683c 531f 92bb
00000170: 4f16 8fbc 9373 93bb 2e8e b5bd 6a28 f73c
00000180: e834 22bd 6a80 5cbd 5676 4abd 3710 94bc
00000190: 9593 75bc 460e 0a3d 6120 6abd ef36 3dbd
000001a0: ccd3 aebc 0012 c7bd 1394 bebd 5d62 63bd
000001b0: 808c 673d 2ce6 b63d 0b2e 25bc 19ff a33c
000001c0: 14db c2b9 b2b0 d1bd 49f6 2b3d 993f 5d3d
000001d0: 3378 e5bd 1504 0a3c bb93 0c3d b414 c23c
000001e0: 7bf9 083d 7a1d 08bd 1083 32bc 8173 95bd
000001f0: 076c 0bbd ce39 b73c 1f42 6c3d 8371 d83c
00000200: 4e9d 0ebd bd26 cb3c f9cb 833d 9dc6 773c
00000210: accb 933c 8018 3bbc a247 863c 5a77 9bbc
00000220: 65ef 83bc 0390 063d e7ba d3bd 5e05 66bd
00000230: 158b 35bd d251 e4bd 9bf5 f5bc 473f 9ebd
00000240: 8e16 0f3a 3556 533d bd75 a6bb dec7 f3bd
00000250: 8298 79bd f12c 083d 21fa 17bd e6ba b9bd
00000260: 71c1 5fbd c9e6 573d 1661 9e3d 39a8 053c
00000270: c959 b93d 395e 143d 5db9 3a3c c0d7 06be
00000280: 9d3d aa3b 9aac 753c 2ae1 3d3c 9a20 5e3c
00000290: 2a3c 05bd 429c fe39 2f6b 443d be99 33bc
000002a0: cf17 6e3b e562 093d 3e67 81bb 9b6e 04bc
000002b0: e6fa 16bb 711e 313c 7e00 a03c d141 03bd
000002c0: d47f bbbc 0b1d 1bbc fdc6 963d 8db9 9338
000002d0: 917b 6c3d 70b9 d23c 01d2 283d ffb8 15bc
000002e0: 5b74 123d 7864 9c3c 02c9 c8bc cfc0 473d
000002f0: b251 3839 7a38 af3c ff80 0a3d 4166 513d
00000300: 93f3 cebc 6275 8ab8 6796 0c3d 0c18 50bd
00000310: c314 91bd b1db 95bc ebd5 acbc e281 90bc
00000320: e8ce 573c 522d 563c 9c21 d93c c4ec 9abd
00000330: 081b 483b 1d66 1fbd e398 b4bc 848e 44bd
00000340: 2a08 423d f21f 893c 46a1 9fbc 465a cd3c
00000350: 4691 073d df09 6fbd 5e6d e0bc 0eac 2ebd
00000360: 4941 423d a3bf ae3c 3291 ebba 2d15 b3bb
00000370: 635d c93c 112a 5fbb a4f9 73bc dfbb a73c
00000380: 08eb 1f3c 3436 643d 0236 0e3d 3bf4 923c
00000390: 2d24 7f3c 4634 d1bc 988c a5bd 6ff5 9cbd
000003a0: 90de 28bd aa72 813c aecf be3c f653 b33c
000003b0: 704f 923d 0a59 8f3c 9265 27bc 50c9 503d
000003c0: fe6d 18be 5a34 97bc 7449 a3bc 62d3 1fbd
000003d0: 66c2 c8bd da69 1dbe ee4f 95bd b9cb 20bd
000003e0: 40c8 5dbc 5012 74bb 9c32 22bc 5941 623c
000003f0: 5b08 933c 3880 873c 67b4 d43c 188e 863c
0.003526035 0.05903629 0.0673657 0.094508745 -0.012705057 -0.0153654665 0.014070679 -0.11287906
-0.07578595 -0.08749414 -0.04680149 0.004742386 -0.07467432 0.015232896 0.011027954 -0.059178755
-0.033599738 -0.00095855445 0.016081126 0.011785767 0.0015813498 -0.005303466 0.0056430288 -0.040053606
-0.014495659 -0.09120595 -0.046005204 -0.044084832 0.0085955225 0.0729278 -0.011992135 0.010712992
0.03484947 -0.032106902 -0.050887004 0.024466677 0.008175257 -0.026729714 -0.001988808 -0.058908977
-0.08484237 -0.033157196 -0.00693438 0.06072208 -0.08385322 -0.008415648 0.05982144 0.0010122574
-0.069945104 -0.035984725 -0.04729527 0.010193535 0.032301847 -0.022135163 0.061894406 0.05905337
0.06691152 0.012197745 0.020044167 0.04056962 -0.015562856 -0.048163448 -0.008655259 -0.07159561
-0.064365596 0.019816138 0.0386185 0.016355347 -0.026536377 0.00029074977 0.046733093 -0.03120721
-0.07419965 -0.068023324 0.043436173 -0.08964792 -0.021362083 -0.048644416 -0.09261803 0.039588403
-0.013942512 -0.02483292 -0.007917874 -0.00123203 -0.08647342 0.01943887 -0.021118427 -0.028341962
0.037335698 0.030688986 0.014174622 -0.0044593005 -0.017466692 -0.0044998615 -0.08865009 0.030170638
-0.039601237 -0.053833403 -0.04942926 -0.018074138 -0.0149888 0.03370502 -0.057159785 -0.046194967
-0.021341227 -0.0972023 -0.09305587 -0.05551373 0.056530476 0.089306206 -0.010081778 0.020019101
-0.0003716579 -0.1023878 0.041982923 0.05401573 -0.11204567 0.008423825 0.034320574 0.023691513
0.033441048 -0.033231236 -0.010895506 -0.07297421 -0.03403857 0.02236643 0.057680245 0.026421314
-0.034817986 0.024798745 0.06435389 0.015123037 0.018041454 -0.0114194155 0.016391579 -0.01897781
-0.016105363 0.032852184 -0.10338383 -0.056157462 -0.044322092 -0.111484185 -0.03002434 -0.07726913
0.0005458378 0.051595885 -0.0050799535 -0.11903356 -0.06093646 0.033245984 -0.037103776 -0.09068851
-0.05462784 0.05271033 0.077333614 0.008157783 0.09050328 0.03622267 0.011396733 -0.1316824
0.005195333 0.014994765 0.011589328 0.0135575775 -0.03252808 0.00048563076 0.04795378 -0.010961948
0.003633011 0.03354158 -0.003949075 -0.008083011 -0.002303773 0.01081048 0.019531485 -0.03204519
-0.022888102 -0.009467374 0.07362173 7.044068e-05 0.05773503 0.02572319 0.0412159 -0.009138345
0.035755496 0.019090876 -0.02450991 0.04876786 0.00017578041 0.021389235 0.033814427 0.051122908
-0.02526263 -6.602217e-05 0.034323122 -0.050804183 -0.07084038 -0.018293234 -0.021098098 -0.017640058
0.013171889 0.013072329 0.026505284 -0.07564691 0.003053369 -0.038915742 -0.022045558 -0.047987476
0.047371067 0.016738866 -0.01948608 0.02506746 0.033097528 -0.058359023 -0.0273959 -0.042644553
0.047425542 0.021331614 -0.0017972349 -0.005465171 0.024580663 -0.0034052173 -0.014891062 0.020475326
0.009760626 0.055715755 0.034719475 0.017938724 0.01557259 -0.025537621 -0.08083457 -0.07664
-0.041227877 0.015801746 0.023292389 0.021890622 0.07144058 0.017498512 -0.010217087 0.050973237
-0.14885709 -0.01845758 -0.019932486 -0.03901995 -0.098027036 -0.1537241 -0.07290636 -0.039256785
-0.013536513 -0.003724236 -0.0098997615 0.013809525 0.01794832 0.016540632 0.025964929 0.016425177

encoder.4.bias f4 [64]
00000000: a57d a533 11ca 2435 a885 9bb4 7264 a8b5
00000010: 184c aa34 5a77 1e36 b22c 0a36 86a1 a435
00000020: cd13 cab5 097c d134 cab7 c434 7dbe 1937
00000030: 3454 dab6 0118 0036 41c7 9f34 d9a7 03b6
00000040: 1f37 2b35 0464 be36 838b 2eb5 aa90 f1b3
00000050: 5ac9 a535 b892 c834 686d 5fb5 13ab ee35
00000060: 2d28 15b6 6da2 32b6 49ce 8435 7c3a d3b5
00000070: 87ba 4bb4 5bdb ecb5 93e4 5835 d60d bb35
00000080: 01d6 6235 2c2e cbb6 e3c1 8434 16db 80b5
00000090: eca3 7e36 27af c834 1076 c7b5 0794 1ab4
000000a0: 2aa0 2db6 e1a5 b534 c2d6 2f35 ff43 1bb4
000000b0: c390 cd35 19c3 a9b4 1580 7e36 01ed e235
000000c0: c26c 8f36 53b0 d535 f56f 2335 eb00 4f36
000000d0: c289 f3b5 1e48 c233 803e ecb4 2cf4 bbb5
000000e0: fcef 3035 a75b 7f34 9ccd 5cb6 1980 9236
000000f0: 4532 9434 150c 7db5 c1f3 35b5 f984 1335
7.706266e-08 6.1388806e-07 -2.8968248e-07 -1.2546209e-06 3.1720333e-07 2.3613306e-06 2.0589619e-06 1.2265962e-06
-1.5055936e-06 3.901953e-07 3.664157e-07 9.163862e-06 -6.506709e-06 1.9087458e-06 2.9761034e-07 -1.9618221e-06
6.3782676e-07 5.6740846e-06 -6.502307e-07 -1.1248751e-07 1.2352059e-06 3.7359655e-07 -8.323318e-07 1.7782171e-06
-2.2226116e-06 -2.6618611e-06 9.894803e-07 -1.5737746e-06 -1.8973707e-07 -1.7647211e-06 8.079889e-07 1.3936613e-06
8.450298e-07 -6.0552466e-06 2.4727987e-07 -9.600506e-07 3.7944365e-06 3.7380343e-07 -1.4861016e-06 -1.439622e-07
-2.5872237e-06 3.383457e-07 6.5505094e-07 -1.4460237e-07 1.5315821e-06 -3.1620655e-07 3.7923503e-06 1.6907289e-06
4.274393e-06 1.5921054e-06 6.088515e-07 3.0845938e-06 -1.8145004e-06 9.046947e-08 -4.40039e-07 -1.4003649e-06
6.591433e-07 2.3782069e-07 -3.2902235e-06 4.3660516e-06 2.7603724e-07 -9.4267426e-07 -6.7782463e-07 5.495527e-07

encoder.5.weight f4 [64]
00000000: 1b90 533f 367c 353f 403d 413f b842 533f
00000010: 14b0 503f b8cc 4d3f ace6 4d3f 52f1 4a3f
00000020: 35eb 553f 4cf8 4a3f 9164 363f 4d74 473f
00000030: 32ba 4a3f 3f65 583f 3cba 4a3f f08a 553f
00000040: a8c4 433f 2e4c 4f3f ff91 543f 29f6 463f
00000050: be42 553f 8b29 493f dc49 573f 4cea 4f3f
00000060: 86cd 4e3f ab92 4f3f b143 413f 4f7b 6c3f
00000070: 11bb 3b3f 6721 3e3f 6bec 513f 46fa 443f
00000080: 8ef5 4e3f b578 503f 3615 4c3f 9e62 413f
00000090: b24b 453f 2a18 563f 7ade 433f 22ca 483f
000000a0: 1eb4 663f 917d 503f 55e5 3e3f 5eb5 403f
000000b0: 829a 3d3f 2201 553f 16a3 483f 4294 5b3f
000000c0: 19e0 3b3f 4107 553f 9d5f 663f eef4 3d3f
000000d0: eb73 4d3f 7fdb 4e3f 1e0a 403f df25 593f
000000e0: 83d8 623f 82d1 533f 8656 4d3f a768 443f
000000f0: 51ed 353f 016b 463f ca5c 443f 1f7c 4a3f
0.8264176 0.70892656 0.75484085 0.8252368 0.81518674 0.803905 0.804301 0.79274476
0.8356202 0.7928512 0.712472 0.77911836 0.7919036 0.8452949 0.7919042 0.83415127
0.7647195 0.80975616 0.8303527 0.7771936 0.83304965 0.78579015 0.84097075 0.81216884
0.80782354 0.8108317 0.75493914 0.92375654 0.73332316 0.7426972 0.8200137 0.76944387
0.80843437 0.81434184 0.79719865 0.755411 0.77068627 0.8363062 0.7651135 0.7843343
0.90118587 0.814416 0.7456868 0.75276744 0.74063885 0.83204854 0.7837385 0.857731
0.7338882 0.83214194 0.89989644 0.7420186 0.80255 0.80803674 0.7501544 0.8482341
0.8861162 0.8274156 0.8021015 0.76722187 0.7106524 0.77507025 0.76704085 0.79095644

encoder.5.bias f4 [64]
00000000: 27a0 92be 11ac dbbe b639 ecbe da8f dcbe
00000010: e6d8 abbe 2a1c cebe edde d6be 1d4f b4be
00000020: 8c54 93be 199c 98be 4ac6 f0be 2c18 e5be
00000030: a6f6 b5be 85aa 4dbe 0089 c9be 421e a1be
00000040: 1d6d f5be cb5a f0be b2c9 81be 0694 c5be
00000050: c0bd 94be 1257 bdbe 535d b9be e24d bcbe
00000060: 0a64 e6be a0c3 a0be 0577 e4be bc93 cebe
00000070: 9bd6 95be 67e7 bebe c90e a1be 2322 dabe
00000080: 7a32 bdbe 6a8b d8be 7250 d7be 9eea fbbe
00000090: f4fd a2be 7b1e 00bf 4ddd dfbe 6e8a 01bf
000000a0: 88b7 9fbd 925c cdbe c484 d1be ca25 77be
000000b0: 1373 0cbf a7d9 7abe 5e59 cfbe 08ed 44be
000000c0: 07a9 94be b800 88be 0044 bfbe 645b cfbe
000000d0: 7455 dcbe 2086 debe f05c ebbe fc64 ecbe
000000e0: 5c3a 46bd 7846 f4be e7b0 bbbe 5fd9 b6be
000000f0: 6783 b9be f87a debe e28e d9be c8a3 d9be
-0.28637812 -0.42904714 -0.4613778 -0.430785 -0.33563918 -0.40255862 -0.41966954 -0.3521661
-0.28775442 -0.29806593 -0.47026283 -0.44745004 -0.3553974 -0.2008458 -0.39362335 -0.31468397
-0.4793481 -0.4694427 -0.25349194 -0.38589495 -0.29051018 -0.36980492 -0.36204013 -0.3677817
-0.449982 -0.3139925 -0.44622055 -0.40347087 -0.29265293 -0.3728592 -0.31456593 -0.4260417
-0.36952573 -0.42293864 -0.42053562 -0.49202436 -0.31834376 -0.5004651 -0.43723527 -0.5060185
-0.07798678 -0.40109688 -0.40921605 -0.24135509 -0.5486309 -0.2449709 -0.4049787 -0.19231045
-0.29035208 -0.26563048 -0.37356567 -0.40499413 -0.43033946 -0.43461704 -0.45969343 -0.46170795
-0.0483955 -0.47710013 -0.36658403 -0.35712716 -0.36233065 -0.43453193 -0.42491823 -0.42507768

encoder.5.running_mean f4 [64]
00000000: 2d45 fabe f5c1 863d ef58 993e c5c5 00bf
00000010: 0a27 ecbe 8614 1abf a025 2dbf febd 0ebf
00000020: d418 40be dbee fbbe 6a81 dbbe 39c8 05bf
00000030: e90d fbbe 5779 85be d9a0 fbbe 1f28 79be
00000040: 8d0d 1bbf 0794 37bf 3c70 f5be d8d1 1ebf
00000050: 83c9 0bbe e571 0ebf b42f 56bd 62bc 50bf
00000060: 3d7a 0cbf 425d b0be 6e6a 473e e30a afbe
00000070: 01ba aabe 4b75 07bf 1194 13bf c00e 04bf
00000080: ec52 9dbe a947 24bf ae06 c1be e50e a8be
00000090: 776b 17bf baf6 50bf a10a 0dbf 037b 24bf
000000a0: d2f3 25bf 4d30 20bf 53cb 0cbf 56b3 10bf
000000b0: fd95 9bbe a5da fabe c6f7 0fbf c34f b1be
000000c0: bf37 86be 8f82 b8be 19ff b7be e99a adbe
000000d0: 7964 31bf 1fb0 c7be 326d 98be a83d 43bf
000000e0: 7665 0bbf 23d1 23bf cc04 eebe 995b f3be
000000f0: e95f cebe 62cd 0ebf 2c7e 15bf 47e4 06bf
-0.48880902 0.06579963 0.29950663 -0.5030177 -0.46123534 -0.60187566 -0.67635536 -0.55758655
-0.18759471 -0.4920567 -0.42872173 -0.5225864 -0.4903405 -0.26069137 -0.49146155 -0.24331711
-0.6056755 -0.71710247 -0.4793719 -0.62038946 -0.1365109 -0.5564254 -0.052291587 -0.8153745
-0.5487402 -0.3444615 0.19474193 -0.34187993 -0.33345035 -0.5291335 -0.57647806 -0.51585007
-0.30727327 -0.64171845 -0.3770041 -0.32823864 -0.59148353 -0.81626475 -0.55094343 -0.642502
-0.64825165 -0.625737 -0.5499775 -0.56523645 -0.3038787 -0.48994938 -0.5623745 -0.34631166
-0.26214406 -0.36037108 -0.35936812 -0.3390725 -0.69293934 -0.39001557 -0.2977081 -0.76265955
-0.5445169 -0.6399099 -0.46488035 -0.4753082 -0.4030755 -0.5578214 -0.5839565 -0.52692074

encoder.5.running_var f4 [64]
00000000: 3a28 623f 0db3 013f 8d78 563f 132f 6b3f
00000010: 2894 323f 70a6 5b3f c412 593f 98dd 593f
00000020: 0101 553f 620d 533f 225d 2a3f e4c8 2d3f
00000030: 361b 4c3f b7de 4d3f cc75 603f 74eb 4d3f
00000040: fb5e 553f 335d 813f 6c3d 423f b879 683f
00000050: 1fb0 2e3f 3fb7 4d3f 40d8 323f ffb8 993f
00000060: 8f2e 5f3f 1322 4b3f 4cfd 4f3f 7b85 5e3f
00000070: 08ff 493f d497 3a3f c8db 7b3f 50c8 593f
00000080: 9b6b 313f 94b2 663f c174 303f dd6a 2a3f
00000090: 33af 6f3f 1aed 8c3f 42ee 693f 0f0c 853f
000000a0: 3ba5 ee3f b495 543f 712c 893f 7465 653f
000000b0: 706f 483f 77a0 873f f94f 483f 4e64 613f
000000c0: 2864 223f 3aa7 343f 2014 613f 808e 303f
000000d0: d17a 843f 0fee 223f 1c36 3d3f b5de 903f
000000e0: 7b4d 653f 6144 773f aeb1 4a3f 4979 3a3f
000000f0: 538c 2d3f 94de 4b3f c0b8 863f b8f0 633f
0.8834263 0.50663835 0.83777696 0.91868705 0.6975732 0.8580084 0.8479426 0.8510375
0.83204657 0.82442296 0.6654836 0.6788466 0.7972902 0.8041796 0.87679744 0.804374
0.83348054 1.0106567 0.7587497 0.9081073 0.6823749 0.80357736 0.6986122 1.2009581
0.8718042 0.7934887 0.81245875 0.86922425 0.7890477 0.7288792 0.98382235 0.8507128
0.6930482 0.9011624 0.6892815 0.6656931 0.9362671 1.1009858 0.9137918 1.0394305
1.8644174 0.8304093 1.0716687 0.8960793 0.7829504 1.0595845 0.7824703 0.8804368
0.63434076 0.7056767 0.87921333 0.6896744 1.034998 0.636445 0.7391069 1.1317965
0.8957135 0.9658871 0.7917737 0.72841316 0.6779224 0.796365 1.0525131 0.8903918

encoder.8.weight f4 [128, 64, 3, 3]
00000000: 78a6 cb3c 16bc 4b3d cfd3 803d 0159 29bd
00000010: 59e0 c5bc 6776 4cbb 8ab7 8cbd 5edb 863c
00000020: 7b3e 6abd bead 2c3d 7b91 6a3b 89e3 9a3a
00000030: eeb4 80bd a5b2 50bc c6bc edbc 190f d8bd
00000040: 5339 17bd 4c65 41bd 9a2a a03c c648 213d
00000050: feb9 be3c 8a43 4f3d 3db1 043b 39b4 e839
00000060: 6f49 2cbc 1f30 4cbb b9a6 233c 241a b1bd
00000070: 8f30 99bc e639 59bb 5c94 9ebd c5f0 a5bd
00000080: 510c 4fbd fd85 083b dbeb a1bd 85e8 27bd
00000090: 5e2a 60bd dd5c edbc bb80 b13b 7c02 653c
000000a0: 8592 26bd 90f5 efbc 4c81 d6bb 0b4f 3fbd
000000b0: b74b 353d 8b39 20bd 3759 67bd 775e c9bd
000000c0: f577 0cbd 5873 10bd d62d 88bd a4fd 57bd
000000d0: 715d 153d 66ea b7bc abaf 87bd 0dfa 483d
000000e0: a3cd c2ba 4312 96bd a9fe 7b3d faa9 94bc
000000f0: 270b 78bd f589 26bc 08c3 89bd 54f8 28bd
00000100: 9928 01bd 579b 74bd 6918 a03d d861 2a3d
00000110: cbb2 31bb 27c6 413d ec3a 403d 4f2a c43c
00000120: 4b78 44bb eeb8 09bd 710a 31bb 974d 0e3d
00000130: 50c0 7cbc d25d a8bc 74aa 1dbc f28b 6abd
00000140: f665 c43c 03bd 8d3c aab9 873d c99b 823d
00000150: 1e8c 31bc 684e 0e3d eb60 233c 662e 55bc
00000160: 9916 0cbd 1d9d 1e3d e6e0 04bd 004b 3abd
00000170: 4519 9f3d aef6 98bc 9873 5ebd 9623 0dbb
00000180: 6337 a03d bf32 65bd 999a 953d 7526 debb
00000190: 7756 a6bc 61d3 40bd 9bbd 84bd 9b9a 143d
000001a0: 08dc 8d3c 158a b4bd adaf 953c a89b 63bd
000001b0: 3c21 bcbc 8eaa 11bd ffe7 9a3c a92c 93bd
000001c0: bd00 32bc 01f3 f4bc 7b9f 48bd cb24 3ebd
000001d0: 2b8c 00bd de46 bbbc 127d 1b3d 32fd 38bd
000001e0: 3016 9d3c 95cc af3b 1283 fd3c 9881 72bc
000001f0: e2b9 e03c 141e 2dbd da34 32bc 8dc8 633d
00000200: fbf0 0b3d 2bad 293d c536 f43c 6a9f 113d
00000210: 4bdb 23bd 15ae 563c 0625 22bd c72d bbbc
00000220: 5ea5 223d 1e7e abbb 48e8 f73c bf42 733c
00000230: b053 d8bc 1af8 27bd 4614 dfbc aeaf 5d3b
00000240: 4fa8 03bd 6599 66bd 6630 b2bc 4230 bebc
00000250: d379 0ebd 0c11 71bd d9e4 a93c 0cda b4bc
00000260: 8e48 1b3d 93cc 533c e785 083d 1419 373c
00000270: a2ff 57bc 2981 c43b c0dd 86bd 849f 763d
00000280: 8e77 e7bb ace1 d0bb 864a 39bd a42f 8e3c
00000290: e0b3 26bc 2eb8 55bd 7ebf 65bd b0b3 8fbd
000002a0: acc8 27bd 4b45 9ebd 224d 7ebc c9d5 6fbd
000002b0: cef4 973d b407 1ebb 9992 a33d 9255 9a3c
000002c0: 0bf5 f9bc bbf8 94ba ba10 d13c 5705 43bd
000002d0: 1c14 bb3a 91b7 02bd a6a6 1abd ddb5 4abc
000002e0: f3cb 373d 73c9 2e3d ffcc f2bc 5c10 f2ba
000002f0: d423 5c3d 4229 cbbb 7ff1 193d 95ae 943c
00000300: 2477 063b b52c 03bc 18a8 aebb c157 05bd
00000310: 3706 41bc 9bca 21bd 634b f03c c30b 863b
00000320: 1b70 213c 2480 093c d95d 3e3d d2e9 febc
00000330: 9496 63bd 9e70 4f3d 5bc0 e53c 083e 493c
00000340: 131e 87bd 6a05 4fbd 0f0e 24bd 01b3 213b
00000350: 2dec abbc d70f a6bd 36f8 913c 4118 5f3c
00000360: c148 51bd ac7e ccbc 6370 efbc 1519 e1bc
00000370: ca82 593d c1de a1bd a8aa 173b 3781 9cbc
00000380: bd31 fdbc e8de 113c 4540 ce3c e63b c7bc
00000390: bc81 a13c 6676 903c 3255 b03b 6b6a e2bc
000003a0: 4db2 7fbc 624c f33c 9bf5 9dbc 79ab f23a
000003b0: a401 8a3c 5115 96bd 35a3 f2bc e186 83bd
000003c0: 521e 5dbd 6c01 c43c 702b 063c ccee a0bd
000003d0: d01a f03c a8b2 293d c313 953b 16a0 183d
000003e0: 531c ac3c c024 1ebd 2071 d13c c11f bf3c
000003f0: deef 84bd 68e2 d1bc b597 7bbd 9efb 10bd
0.024859652 0.04973992 0.06290399 -0.041344646 -0.024154829 -0.0031198503 -0.06870945 0.016462024
-0.057188492 0.04215788 0.003579228 0.0011817078 -0.062845096 -0.012737905 -0.029020678 -0.10549755
-0.036919903 -0.047215745 0.019551564 0.039376043 0.023282047 0.05060152 0.0020247244 0.00044384765
-0.010515555 -0.0031156612 0.00998848 -0.08647564 -0.018699912 -0.0033146082 -0.07743141 -0.08102564
-0.050548855 0.0020831816 -0.07906314 -0.040993232 -0.054727904 -0.028974945 0.005416957 0.013977643
-0.040667076 -0.029291898 -0.006546175 -0.04670624 0.04426166 -0.039117377 -0.056481566 -0.09832471
-0.034294087 -0.03526625 -0.066493675 -0.052732125 0.036466066 -0.022450637 -0.06625303 0.049066592
-0.001486231 -0.07327702 0.06152216 -0.018147457 -0.06055751 -0.010164727 -0.067266524 -0.04125245
-0.031532858 -0.059718456 0.07817156 0.041597217 -0.0027114626 0.047308113 0.046931192 0.023945956
-0.0029978927 -0.03362363 -0.002701428 0.034741964 -0.01542671 -0.02055255 -0.009623159 -0.05726237
0.0239744 0.017302042 0.066272095 0.0637737 -0.010836629 0.034742743 0.0099718375 -0.0130115505
-0.03420124 0.038724054 -0.032441042 -0.04548168 0.07768492 -0.018672314 -0.054309458 -0.0021536103
0.07823064 -0.0559566 0.07304878 -0.006779487 -0.020304902 -0.047076587 -0.06481477 0.036280256
0.017316833 -0.088153996 0.018272245 -0.055568367 -0.022965066 -0.035563044 0.018909452 -0.071862526
-0.010864434 -0.02990103 -0.048980217 -0.046421807 -0.031383675 -0.02286094 0.037961073 -0.04516334
0.019175619 0.0053649643 0.030946288 -0.014801405 0.027432386 -0.042265013 -0.010876859 0.055611182
0.034165364 0.04142491 0.029811272 0.03555242 -0.040004056 0.013103028 -0.03958609 -0.022848977
0.039708488 -0.00523354 0.030262128 0.0148474565 -0.026407093 -0.041008092 -0.027231347 0.0033826637
-0.032142933 -0.056298632 -0.021751594 -0.02321637 -0.03478415 -0.058854148 0.020739006 -0.02207663
0.03791099 0.012927192 0.033330824 0.011175413 -0.013183506 0.0059968424 -0.06585264 0.06021072
-0.0070638126 -0.0063745584 -0.045237087 0.017356701 -0.0101747215 -0.0521776 -0.056090824 -0.070166945
-0.04096286 -0.0772806 -0.01552132 -0.05855349 0.0741974 -0.0024113478 0.07986946 0.018839631
-0.030512353 -0.0011365631 0.025520671 -0.047612514 0.0014272961 -0.031913344 -0.037756585 -0.012372461
0.044872236 0.042672586 -0.029638765 -0.001846801 0.053745106 -0.0061999867 0.037583824 0.018149653
0.002051779 -0.008006264 -0.005330097 -0.03255439 -0.011781267 -0.03949986 0.029332822 0.0040907576
0.009853388 0.0083923675 0.04647622 -0.031117354 -0.055563524 0.05064451 0.028045824 0.012282856
-0.06597533 -0.050542273 -0.04005247 0.0024673345 -0.02098664 -0.0810849 0.017818552 0.013616622
-0.051094774 -0.024962746 -0.029228395 -0.02747778 0.053103246 -0.07903815 0.002314249 -0.019104583
-0.030907506 0.008903243 0.02517713 -0.024320554 0.019715182 0.017634582 0.00538125 -0.027638635
-0.015606475 0.029699508 -0.019282153 0.0018514238 0.016846485 -0.073282845 -0.029618839 -0.064222105
-0.053983994 0.02392646 0.008189067 -0.07858047 0.02930966 0.041430146 0.004549475 0.037262045
0.0210096 -0.038609266 0.025566638 0.023330571 -0.064910635 -0.025620654 -0.061423976 -0.03539621

encoder.8.bias f4 [128]
00000000: 738c 1a35 b7fe a535 567e 2436 00fd 2e36
00000010: e8a6 fdb4 ce1a 79b5 de4b 9d35 131e f5b4
00000020: ca1f 1b36 e505 c335 f9f4 76af fb7e 4f35
00000030: 83bb a935 442b 80b3 7b3a e9b4 e24c 9c35
00000040: c0fb ea35 9b02 54b6 51a6 8035 190b 1836
00000050: ba7c 4eb5 681d 0b36 398a df34 2297 02b6
00000060: 48fe b8b5 7cc3 3c36 01ed d734 445d 82b5
00000070: 849a 8436 23c5 de35 6e3b 31b5 59e8 b7b4
00000080: 060a 1936 2acc cb34 f6a3 5b35 6e20 16b5
00000090: 9e9a 26b6 4b1e a1b5 71be 9835 9364 4f36
000000a0: cd93 e2b5 3dc8 3db6 e2e2 dab4 cdef f9b6
000000b0: 8942 5336 6247 cd35 8e32 1935 e03c a234
000000c0: ce0d 0d36 1562 13b6 eb68 29b6 a91d 90b4
000000d0: ef01 0135 c6b9 de35 20b1 02b5 1509 2b35
000000e0: 7199 14b5 2235 b935 bf1b e832 8f66 0bb6
000000f0: 54d3 24b5 419c 0cb6 6988 c335 af5a 3135
00000100: f236 2c36 a8a1 c6b4 13b5 76b4 4c27 2235
00000110: fc87 24b5 8748 1db6 3c85 6b35 ace0 4436
00000120: d4cb 4035 382d aeb5 1e47 a0b6 0c8b 09b5
00000130: a7bd 9936 fa19 33b6 47d3 b8b5 f89e 1d36
00000140: 5962 8735 45e9 ccb5 3474 1bb6 1b04 4936
00000150: 76ae 5f36 b0a6 04b6 d2c3 3db3 f3b6 10b4
00000160: 25f0 c3b5 8d3d c3b4 4093 fa34 5215 cf35
00000170: 8479 e335 c2f7 e535 eccf 7d36 fb52 21b3
00000180: 4706 8a35 6ad1 d2b4 b31d 92b5 b05a 5c36
00000190: 93e3 e3b5 121a e033 08ce 2ab6 9861 77b4
000001a0: 6767 ae36 2cd4 7a35 cab4 f5b4 d19d 2ab4
000001b0: 4651 4036 5030 f234 2135 b5b6 6d38 99b5
000001c0: 1f52 1c35 0d9b aa35 7900 d833 70de b6b5
000001d0: 0549 8d35 c83e 01b5 4d5d 7fb5 4a0b a434
000001e0: 763b f6b4 ce77 6435 90c4 0d35 9db9 1036
000001f0: ba87 d9b5 423a 8136 f349 4836 b353 4fb6
5.757385e-07 1.236759e-06 2.4511442e-06 2.6075286e-06 -4.7246363e-07 -9.2798734e-07 1.1719492e-06 -4.5656688e-07
2.3115304e-06 1.4530348e-06 -2.2460601e-10 7.729829e-07 1.2646054e-06 -5.9683344e-08 -4.3442182e-07 1.1645282e-06
1.7507627e-06 -3.1591978e-06 9.585148e-07 2.2656225e-06 -7.692248e-07 2.072973e-06 4.1637557e-07 -1.945948e-06
-1.3783074e-06 2.812797e-06 4.0219314e-07 -9.712899e-07 3.9518945e-06 1.6597663e-06 -6.602412e-07 -3.425546e-07
2.280461e-06 3.7960245e-07 8.182245e-07 -5.5926546e-07 -2.4825927e-06 -1.2004251e-06 1.1380308e-06 3.0903946e-06
-1.6881328e-06 -2.8279749e-06 -4.0770743e-07 -7.4486948e-06 3.1480179e-06 1.5294465e-06 5.707051e-07 3.0219144e-07
2.1018673e-06 -2.1961798e-06 -2.5244033e-06 -2.684367e-07 4.805906e-07 1.6594356e-06 -4.8686525e-07 6.371568e-07
-5.5357583e-07 1.3799038e-06 2.7020972e-08 -2.077231e-06 -6.1402284e-07 -2.0952577e-06 1.4568333e-06 6.60696e-07
2.566198e-06 -3.6997994e-07 -2.297641e-07 6.040689e-07 -6.1292644e-07 -2.343704e-06 8.7738204e-07 2.9337052e-06
7.182218e-07 -1.2977171e-06 -4.7766507e-06 -5.1238817e-07 4.5818338e-06 -2.66882e-06 -1.3770558e-06 2.3487355e-06
1.0086907e-06 -1.5267075e-06 -2.316444e-06 2.9953724e-06 3.333114e-06 -1.9766558e-06 -4.418309e-08 -1.3477602e-07
-1.4598523e-06 -3.6366364e-07 4.6673267e-07 1.5428907e-06 1.6948184e-06 1.7133937e-06 3.7820964e-06 -3.7561204e-08
1.0283628e-06 -3.9267917e-07 -1.0886491e-06 3.2835342e-06 -1.6979051e-06 1.0435555e-07 -2.54519e-06 -2.3039172e-07
5.1976417e-06 9.344101e-07 -4.5766348e-07 -1.5889897e-07 2.8657537e-06 4.5111165e-07 -5.4004054e-06 -1.141581e-06
5.823403e-07 1.2711113e-06 1.005837e-07 -1.3624795e-06 1.052657e-06 -4.8147604e-07 -9.5130673e-07 3.0555594e-07
-4.5864334e-07 8.511096e-07 5.281263e-07 2.1565713e-06 -1.6207262e-06 3.8512817e-06 2.9845366e-06 -3.0894123e-06

encoder.9.weight f4 [128]
00000000: 60ab 263f 6a16 373f e27d 453f fc7f 303f
00000010: 814d 1f3f 1db9 233f 6bcc 393f 327d 0d3f
00000020: e7b2 323f 969a 293f 799f 4b3f 1f12 383f
00000030: 6a42 283f 127e 2f3f 3423 433f a085 313f
00000040: a19d 2e3f 9dfa 243f eeb9 373f 69fe 223f
00000050: bca2 413f b24a 313f 0e53 333f 13da 1c3f
00000060: 8e34 2f3f 5f8d 333f 2828 333f 6445 373f
00000070: 2f4b 3c3f aa2f 243f e0e5 363f 1e8f 423f
00000080: f2a9 413f 4666 583f 7353 2f3f 4629 2e3f
00000090: ea4e 513f ff42 1e3f c00a 383f 5427 343f
000000a0: 4309 383f 158c 433f 6087 393f e8cd 2b3f
000000b0: b57a 383f 7ed9 293f 7a98 213f 932c 333f
000000c0: b63b 1c3f c841 523f a93b 3a3f c676 313f
000000d0: 01bb 153f 5c4b 2b3f 53dc 1b3f ba74 2d3f
000000e0: b144 383f f189 253f d92a 5c3f 35e9 1f3f
000000f0: 12d6 2d3f 94de 3e3f ff11 2c3f 3a4a 383f
00000100: 4422 263f 6134 353f 12d8 333f 1cf7 333f
00000110: 09b5 2a3f b207 2c3f e599 373f 4da3 373f
00000120: 6311 293f 9587 223f 44d6 343f 46e4 2b3f
00000130: 2ccd 253f 407a 1c3f af4d 3a3f 29a1 393f
00000140: b12c 283f 3513 1f3f ba85 383f 23cc 1d3f
00000150: 485f 2f3f 39b0 513f 1c9d 323f c704 4e3f
00000160: d419 273f 115a 2c3f d1b4 353f c65a 2d3f
00000170: 5038 353f 2ee5 243f a33e 343f be19 363f
00000180: 1ee2 333f 2193 213f 86e5 473f 7186 363f
00000190: 99d7 3d3f 3f5a 1e3f 3758 243f 7fe6 343f
000001a0: c8c1 313f 7b40 313f a480 3e3f 8597 3b3f
000001b0: c834 373f 466c 1a3f 6ef9 373f 9f24 253f
000001c0: d3d1 353f acfb 283f a6b1 223f 4ac2 503f
000001d0: 2e9c 383f a7f5 313f 03da 463f a3f9 433f
000001e0: 7225 353f d5b8 223f fa85 333f 3cba 3d3f
000001f0: d76b 403f e7d8 1d3f ed75 2a3f 0416 493f
0.6510525 0.71518576 0.77145207 0.6894529 0.62227637 0.63954335 0.7257754 0.5526916
0.69804233 0.66251504 0.7954021 0.7190265 0.6572634 0.68551743 0.7622559 0.6934452
0.6820927 0.64444906 0.7176808 0.6366945 0.7563894 0.692546 0.70048606 0.61270255
0.6843957 0.7013759 0.6998315 0.71590257 0.7355222 0.6413523 0.7144451 0.7599963
0.7564994 0.84531057 0.6848671 0.6803173 0.8176104 0.6182098 0.71891403 0.7037251
0.7188913 0.76385623 0.7247219 0.67111063 0.72062236 0.6634749 0.63123286 0.6998989
0.6102861 0.82131624 0.72747284 0.6932186 0.5848847 0.66911864 0.60883063 0.67756236
0.71979815 0.64663607 0.8600288 0.6246522 0.6790477 0.7455838 0.6721496 0.7198826
0.64896035 0.7078305 0.7025157 0.70298934 0.6668249 0.6719924 0.717192 0.7173355
0.66042155 0.6348813 0.70639443 0.6714519 0.6476619 0.6112404 0.72774786 0.72511536
0.65693194 0.6213868 0.7207905 0.6163961 0.6850476 0.8190952 0.6977098 0.8047604
0.65273786 0.6732493 0.7097903 0.67716634 0.7078905 0.644122 0.70408076 0.7113303
0.702669 0.63115126 0.780846 0.7129889 0.741571 0.61856455 0.64197105 0.7066421
0.6943631 0.69239014 0.7441504 0.73278075 0.7156491 0.6032146 0.71864974 0.64509004
0.7102329 0.6600902 0.6355232 0.8154646 0.7211331 0.6951546 0.7767641 0.7655279
0.7076026 0.6356328 0.70126307 0.74112296 0.7516455 0.6165909 0.6658619 0.7854922

encoder.9.bias f4 [128]
00000000: 4459 ddbe 0a14 f3be 14ca 1dbe 87a9 c2be
00000010: a0d5 d7be 9de1 76be b33b 8abd 8006 a8be
00000020: 8d02 bfbe 3d18 dfbe fe86 bcbd eca1 13bf
00000030: d3a3 c0be 48d4 a2be 9cf1 dabe f9ff 0abf
00000040: 8ccd f4be ed5a bdbe ccbe cdbe a2ad f4be
00000050: 8633 11bf 4064 b7be e8fd b8be 5dd9 f2be
00000060: cc30 bcbe 42c0 fcbe eda8 03bf 5d1a d0be
00000070: fd40 e3bc 4547 42be 33da 6dbe dced d3bd
00000080: 5057 d8be 57a1 5dbe 53fe c5be 4f86 c2be
00000090: 2819 28be 3e80 f0be b8f2 dcbe 4d5e 03bf
000000a0: d574 a6be 8cb9 1ebe bf52 01bf be06 f1be
000000b0: 1ea7 b6be 6495 eebe 3026 95be e16c 64be
000000c0: 75c2 99be 68ed 84be 9279 99be 5f31 e0be
000000d0: 4103 c0be 00fc aebe f28e c3be 4104 efbe
000000e0: 7cf9 e0be 8327 b1be 3813 063c a4e5 f9be
000000f0: 31e4 ffbe 38ef e4be 70c6 fcbe f6be 03bf
00000100: 5e3e c8be 2832 dbbe 9440 fdbe d67c f5be
00000110: 55d7 ebbe 33c5 b3be ebeb fabe f8a1 02bf
00000120: c0f5 04bf 5631 9cbd 1fed dfbe 41be bdbe
00000130: b4ce 03bf b4f0 f3be 4bf1 a2be 865a 6cbe
00000140: 6de5 a2be 5957 eebe 7501 8cbe 56f0 febe
00000150: 0761 98be 60b8 efbd b9ab e7be 6f18 47be
00000160: 1bb7 04bf ca34 9cbe 5ed4 fabe 41e9 10bf
00000170: d9a8 ecbe 2e86 dfbe d788 07bf 5d1e a6be
00000180: 8ebb fdbe 4508 b4be 2815 a0be 1abb 41be
00000190: 9dab cdbe 7c8c dabe cd5b d8be 0060 90be
000001a0: a365 d2be 79b7 d7be d7cf e93b bc8e 17bf
000001b0: 87f5 efbe 260f f9be d994 a5be c854 e2be
000001c0: 92a4 87be aadf f3be fb46 a7be fcb5 a5bd
000001d0: 6203 0bbf 408c 12bf 696a 4abe 8fcf 89be
000001e0: 88a0 c5be 7c02 0fbe 2220 f9be 0bed c6be
000001f0: 7b2e f8be 860a b3be e5a7 dfbe 20ad dbbd
-0.43232167 -0.47476226 -0.15409118 -0.38019964 -0.4215517 -0.24109502 -0.06749668 -0.3281746
-0.37306634 -0.4357318 -0.09205435 -0.5766895 -0.37624988 -0.31802583 -0.42762458 -0.54296833
-0.4781307 -0.36983433 -0.4018463 -0.4778872 -0.56719244 -0.35818672 -0.36131215 -0.4743146
-0.3675598 -0.4936543 -0.51429635 -0.40645114 -0.02774095 -0.189725 -0.23227768 -0.103481025
-0.42254114 -0.21643578 -0.38670596 -0.37993094 -0.16415846 -0.4697284 -0.4315393 -0.51315767
-0.3251101 -0.15500468 -0.50516886 -0.47075456 -0.35674375 -0.4659835 -0.29130697 -0.22307159
-0.3003117 -0.25962377 -0.29975563 -0.43787667 -0.37502483 -0.34176636 -0.38194996 -0.46682933
-0.4394034 -0.34600458 0.008183293 -0.48808014 -0.49978784 -0.4471376 -0.49370146 -0.5146326
-0.39110082 -0.42811704 -0.49463332 -0.47946805 -0.46062723 -0.3511139 -0.49008116 -0.51028395
-0.51937485 -0.076265976 -0.43735597 -0.37059215 -0.5148728 -0.4764458 -0.31824717 -0.23081407
-0.31815663 -0.46551016 -0.27344862 -0.49792737 -0.29761526 -0.117050886 -0.452482 -0.19442914
-0.51841897 -0.30509025 -0.48990148 -0.5660592 -0.4622257 -0.43657058 -0.52943176 -0.3244504
-0.49557155 -0.3516256 -0.3126614 -0.1891903 -0.40169993 -0.42685306 -0.42257538 -0.28198242
-0.41093168 -0.42132166 0.007135372 -0.5920217 -0.4686701 -0.4864437 -0.32340124 -0.44205308
-0.26492745 -0.4763158 -0.3267134 -0.080913514 -0.54302037 -0.57245255 -0.19767155 -0.26916167
-0.38599038 -0.13965791 -0.48657328 -0.38852724 -0.48472962 -0.34968966 -0.4368278 -0.1072638

encoder.9.running_mean f4 [128]
00000000: 259f 56be 5089 01bf d95a fcbe 77a9 d8be
00000010: 5f74 12bf e184 87be e153 84be 43d6 acbe
00000020: 3dc8 f0be 5641 10bf 3f4e efbe fe70 bcbe
00000030: b772 cebe ccdf e0be e351 f7be 3dfe 29bf
00000040: 8444 1bbf 9bab ccbe c2d4 c9be 8b8a 2dbf
00000050: a380 0fbf 19eb 73be eab1 b4be 4e67 20bf
00000060: 490b 0fbf 449a 17bf a3f1 04bf 924e 85be
00000070: 3543 85be 7b0f bdbe 9c89 d5bc f3ad f1be
00000080: 5463 9fbe 9a6c bd3e e8ab 01bf 8baf 2bbe
00000090: cab2 74bd cc78 10bf 3f7d 27bf e94b fcbe
000000a0: 15b4 d1be 5d29 69be a6b4 2cbf fb75 12bf
000000b0: e61b 01bf 73e9 b2be 7dcf bcbe dc52 9bbe
000000c0: 553d ddbe 7974 98be 5555 e6be fed4 00bf
000000d0: 3aff 1e3e 1c39 eabe 4594 e0be 0fae 10bf
000000e0: c0d3 08bf 3162 05bf 9ec2 4bbe d675 08bf
000000f0: 0ec6 0cbf 707b b9be 0cf7 10bf fb32 2fbf
00000100: bda5 bfbe 6d5a f3be e5d8 eebe 2277 c2be
00000110: 9723 e3be 1ee8 e6be f479 07bf bec3 1bbf
00000120: 3b14 0dbf cd71 c2be 0243 15bf 917b 19be
00000130: e86f 0dbf 7289 09bf 3838 ebbe 0009 58be
00000140: 248d f7be 1231 11bf aaf5 00bf 8156 1abf
00000150: 43ee cfbe 4a1d acbe 93b4 10bf 7827 b8be
00000160: 1ed4 f7be fac7 0ebf 0869 17bf 7a6e 3ebf
00000170: b80e f0be aa26 e6be aa3e 04bf cfb5 9abe
00000180: c0b9 23bf f749 cdbe 4481 dbbe c08c cfbe
00000190: 54c2 03bf 7112 aabe 79a9 1abf cef0 d9be
000001a0: 66e5 1fbf 84b2 fbbe 0ae9 1fbf 772b 28bf
000001b0: 7a3d 24bf f3a2 03bf 0ce6 bfbe 21da 24bf
000001c0: de1b 00bf ea34 36bf 255d 80be 7329 96be
000001d0: c502 0dbf 91dd 10bf 2f72 b8bd f6e5 a0be
000001e0: 7efc e7be c03f 0fbf 7ff1 cabe 2777 dbbe
000001f0: 4f14 1cbf ec7e d2be 1333 16bf e2e4 03bf
-0.20959146 -0.5060015 -0.4928806 -0.4231679 -0.5720882 -0.26468566 -0.25845245 -0.3375722
-0.4702777 -0.56349695 -0.46739385 -0.36804956 -0.40321895 -0.43920743 -0.48304662 -0.6640356
-0.6065142 -0.39974675 -0.39420134 -0.67789525 -0.5605566 -0.23820151 -0.35291988 -0.6265763
-0.55876595 -0.59219766 -0.5193121 -0.26036507 -0.26027837 -0.36925873 -0.026066594 -0.47203025
-0.3113047 0.3699692 -0.50652933 -0.16766183 -0.05974082 -0.5643432 -0.65425485 -0.49276665
-0.40957704 -0.22769685 -0.6746315 -0.57211274 -0.50433195 -0.34943733 -0.3687705 -0.30336654
-0.43210855 -0.29776362 -0.44986978 -0.50325 0.15527049 -0.45746696 -0.4386312 -0.5651559
-0.53448105 -0.52102953 -0.1989846 -0.53304803 -0.5498971 -0.36226988 -0.56626964 -0.68437165
-0.37431136 -0.47529927 -0.46649852 -0.37981516 -0.4436309 -0.45098966 -0.5292046 -0.60845554
-0.55108994 -0.37977448 -0.5830537 -0.14988543 -0.5524888 -0.5372535 -0.4594133 -0.21097183
-0.4834987 -0.567155 -0.50374854 -0.60288244 -0.40611467 -0.33616096 -0.56525534 -0.35967612
-0.4840402 -0.5577389 -0.5914464 -0.74387324 -0.4688623 -0.44951373 -0.5165812 -0.30216834
-0.63955307 -0.40095493 -0.4287206 -0.4053707 -0.51468396 -0.33217195 -0.60414845 -0.42566532
-0.6245941 -0.49159634 -0.62464964 -0.6569132 -0.64156306 -0.51420516 -0.374802 -0.6439534
-0.5004252 -0.7117449 -0.25071064 -0.29328498 -0.5508235 -0.56588084 -0.09006154 -0.31425446
-0.45309824 -0.5595665 -0.39637372 -0.42864344 -0.6096849 -0.4111246 -0.58671683 -0.5152112

encoder.9.running_var f4 [128]
00000000: 0c16 3c3e 15ab 883e a94c c23e dd1e 613e
00000010: afff 973e 12c0 683e 2a74 1a3f 1b89 343e
00000020: d860 933e 3bfa 9f3e c5e6 f13e 7601 653e
00000030: abe4 983e 93b1 8e3e e42c a13e c807 813e
00000040: 9a40 853e cb40 7c3e cc3b 8f3e e18e 873e
00000050: ba45 aa3e 51dd 673e 99d5 973e d446 803e
00000060: f9ad aa3e 94aa 9e3e c8b6 853e 2a05 5c3e
00000070: 5efc 803e e894 703e f25a 683e d618 ac3e
00000080: 2022 8b3e 0ef0 b23e 66e7 9b3e 5975 4b3e
00000090: 045b 673e 4769 8a3e 694e aa3e af27 a73e
000000a0: 7757 993e 7714 8a3e 6da7 993e 9dc6 853e
000000b0: d285 bb3e efd4 573e 1a9b 713e 7921 833e
000000c0: bc61 953e f255 813e 3f9a 9d3e 4974 aa3e
000000d0: 3c43 503e aaed 693e c8ee 853e 20fe 8d3e
000000e0: 3f58 8a3e 8cdf 8c3e fdb4 a73e 32a2 5e3e
000000f0: 3c9c 823e be5a 9f3e c8ba 7e3e 8410 b93e
00000100: 6712 9a3e d9cb 8b3e 21d3 803e b88e 7d3e
00000110: 7783 9d3e 6801 a23e 69c2 a53e 779c 843e
00000120: dad7 5d3e 4149 bd3e 0732 b73e 4913 853e
00000130: 154f 783e be59 703e b841 ad3e ba95 693e
00000140: 7714 8d3e b4aa 653e a0fd 7b3e 24d9 5b3e
00000150: 56c5 923e df9b 8e3e 0408 8b3e eeec 723e
00000160: 7e87 6a3e 370b ae3e 22d4 9a3e 6351 7b3e
00000170: 11f6 973e 1e08 673e f113 8e3e eaba 553e
00000180: 9ce7 ae3e 13ea 7b3e c0c8 a13e 591f 903e
00000190: e8b0 ac3e 13fe 713e 377b b53e d830 983e
000001a0: a93f af3e facc b73e c3a6 063f dc98 a83e
000001b0: dc5d 993e 5748 463e 556a 603e 8cf7 863e
000001c0: 4e31 883e 8eca b93e 7944 7f3e 8551 bf3e
000001d0: b745 a93e 848d a43e e447 7e3e bef0 9c3e
000001e0: 9092 6f3e f800 8e3e 3b7f 773e 29d7 613e
000001f0: d1f4 a23e 5891 593e 235b 9c3e e49a a13e
0.18367785 0.26693025 0.37949112 0.2198443 0.2968726 0.22729519 0.603335 0.17630427
0.28784823 0.31245598 0.47246376 0.22363839 0.2986196 0.27869853 0.3147956 0.2520125
0.2602585 0.24634092 0.2797531 0.26476195 0.33256322 0.2264302 0.2965515 0.25054038
0.33335856 0.30989516 0.26116014 0.21486345 0.2519254 0.23494303 0.22690943 0.33612698
0.27174473 0.34948772 0.3044998 0.19868983 0.22593313 0.27033445 0.33262947 0.32647464
0.29949543 0.26968738 0.30010548 0.26128092 0.36625534 0.21077321 0.23594323 0.25611475
0.29176128 0.25260884 0.30781743 0.33291844 0.20338148 0.22844568 0.26158738 0.27732944
0.2702045 0.27514303 0.3275527 0.2174156 0.25509822 0.31123918 0.24875939 0.36145413
0.30092165 0.2730396 0.2516108 0.24761474 0.30764362 0.31641698 0.32374886 0.25900623
0.21664372 0.3696995 0.35780355 0.25991276 0.24248917 0.23471734 0.33839202 0.22811022
0.27554676 0.224284 0.24608469 0.21469551 0.2866618 0.27853295 0.27154553 0.23723194
0.22903249 0.3399293 0.3023997 0.24542765 0.2967992 0.2256169 0.2774959 0.20872083
0.3416108 0.24601011 0.31598473 0.28148916 0.3372872 0.23632078 0.35445568 0.29724765
0.34228256 0.35898572 0.5259821 0.32929122 0.29954422 0.19363533 0.21915562 0.26360738
0.26600116 0.3628735 0.24928464 0.37366882 0.33061 0.32139218 0.24832112 0.30652422
0.23395753 0.27735114 0.24169628 0.22054733 0.31827405 0.2124685 0.30538282 0.31563485
