feedforward_nn/model_saves/fnn_(512, 512)_8.pth (torch, 229892 bytes, 19 tensors)

fc1.weight f4 [256, 48]
00000000: 61ba eebc 5e50 2f3e 33cd 01bd abef fb3c
00000010: d42a db3d faca 743c e50c 683d ce27 073d
00000020: 404f d6bd b4e4 f0bd c1d0 10bd fe05 f0bc
00000030: 3ca3 88bd 363d c1bc f26f 2bbd e5f1 803c
00000040: 003f d0bd 06b7 e6ba 14a6 d53b 8fca 7abc
00000050: d0a7 453c 9700 cd3c 4e78 b0bd bf07 a3bd
00000060: 8ee8 0e3c 300c 913c 3afd b1bc 600d 9a3d
00000070: 7837 28bc 6398 dd3d fd21 e53c a1fc 7c3d
00000080: 1725 97bd a90d 813d 5a52 5dbd 5940 8d3c
00000090: 62b5 d53d de17 1e3d 99a5 4abd 4987 8b3d
000000a0: 345e b1bd b74c c13d dd48 f53d fc34 123d
000000b0: 4b3d 823b 42f7 21bc d2e2 283d 7d2c 1c3d
000000c0: 145e 87bd a492 073d c2fd 863c 5ccd 63be
000000d0: 7cc1 8f3d 88b1 c4bc 8405 e73d b003 163d
000000e0: 802c c23d 436e 5ebc e07e a93d e2d6 b7bd
000000f0: d142 283d 6a3c 2fbd 8635 17be 2b28 0f3d
00000100: 6c58 c13d 795c 17be 8aad 25bd 9339 c93c
00000110: 5a46 eeba 0594 c4bd 1009 ce3d 1bef 24bd
00000120: d048 f5bd efe1 6b3c 059e 0fbd c046 e6bd
00000130: d5e7 37bd fbe9 c2bb 6dfd 03bd 42f6 8f3d
00000140: d357 9fbd 2e95 f43c b8eb dabc ac0e 343d
00000150: 3762 883b d139 9f3c 219d 143a 7166 873d
00000160: 2052 9fbd 04d9 a13d fe58 1abe c7c7 94bc
00000170: 7f6a 82bd 3789 053d d972 aa3c 7079 34bc
00000180: 3831 edbe 1c7a 10be 226b 8dbd 0a4a 88be
00000190: ac94 b73b 977c 603d 2a70 843d 7c2d 493d
000001a0: 3953 d83c 2f0e 3fba 365c 8d3d 783a 913d
000001b0: 3f4a 303b 6587 e93c 79d0 8abd 4b88 553c
000001c0: 66c0 ea3b e220 c7bc 7a83 0e3c 9802 b0bc
000001d0: 0b22 5a3d 0583 8cbb 14b2 22bd 2659 e43c
000001e0: b6ff feba 18bf 663b 7c70 8fbc c02d ba3c
000001f0: 45d0 943d 0c84 b03c 3ff6 10bc da65 0bbd
00000200: 390a babd 0244 9dbc 67d0 72bd d96a 2d3d
00000210: 8790 2b3c 5b3a c8bc eb60 5b3d a6e8 8ebb
00000220: 517e 2f3d 62c5 873d 6306 193d fc74 7d3b
00000230: d30e ac3d b981 31bd 9912 98bc f154 0c3d
00000240: a88d e93c 5bf3 96bd b155 82bd d20d aa3e
00000250: 21a6 88be c0cc 763d 9c12 2bbd c035 d53c
00000260: ae82 f4bc 38fd a8bd 056f 00be 1c70 cdbd
00000270: e9ae 57bd fba2 8b3d f5bf 933c 816d c8bc
00000280: 3f85 11bd 0235 0e3c 6255 2e3d c415 5fbd
00000290: 133c c1bd 8621 90bd e35e 9b3d 3dae e7bc
000002a0: 3fd6 e1bb cd2f c63d 25b5 edbd 1f98 413d
000002b0: 2ef3 7f3c c1ec 80bc 542b 093d b2af 41bd
000002c0: 0eae a33d 2ad1 003d 20c9 42bd 0d42 8e3d
000002d0: a3b4 90bb 2cd8 16bd 78e4 943c 4db1 16bd
000002e0: 5d06 203d 5ec2 9bbd 0e00 543d 4c03 4f3d
000002f0: 50a4 d1bb f5a4 943c 0619 d93d 615b e03b
00000300: 9397 7f3c f2ae 9f3d 12f1 ac3c 25bb 0ebe
00000310: a861 63be bc6c 1dbd 02ef e23c f02f 253d
00000320: 4f26 373b 2c86 e83d ae49 3f3d 6d36 a33d
00000330: 4b5e cabd 85be 3a3d 9be6 583c b467 9dbb
00000340: dfdf 1c3d 8143 e03c a835 f83c f9c7 b6bd
00000350: b472 89bd 6012 023e 19af c73c a597 233d
00000360: 483d 003c 2c3a 99bb 93a3 a8bd 24ca 05be
00000370: 7f94 b13d e84d 80ba 18dd babd 1cd4 603c
00000380: da61 61bc a353 73bd 6741 923c 1652 36bd
00000390: d19d 18bd 88a7 3ebd 1348 593d 0eae 793d
000003a0: a190 9cbd 7cc9 bd3d e63f edbd a14a 643d
000003b0: 022f e03d 0778 883d 7ca1 dcbb 8de0 b2bd
000003c0: 7c80 aabe 5766 73be 608f 60bb 31f7 773c
000003d0: 5b7b a73d 25cb 3a3c bc83 6b3c c0e4 fa3d
000003e0: 2995 a5bd 199e 36bd 0d23 32bd a250 bfbc
000003f0: b525 1d3d 3d0c 323d 69b3 413d a5cc 3dbd
-0.029141607 0.17120501 -0.031689834 0.030753931 0.10701528 0.0149409715 0.056652922 0.032996945
-0.104643345 -0.11762372 -0.035355333 -0.029299732 -0.066717595 -0.023588758 -0.041854806 0.015740344
-0.10168266 -0.0017602153 0.006520042 -0.015307083 0.012063935 0.025024695 -0.08616696 -0.07960462
0.008722438 0.017706007 -0.021727193 0.07522082 -0.010267131 0.10820081 0.027970308 0.061764363
-0.07380121 0.063014336 -0.054033615 0.017242597 0.10434987 0.03859698 -0.049474332 0.06812913
-0.08660546 0.0943846 0.11976788 0.03569506 0.003974592 -0.009885611 0.041231938 0.038128365
-0.06609741 0.03309883 0.016478423 -0.22246307 0.07019326 -0.024010435 0.11280349 0.03662461
0.09481144 -0.013576093 0.082761526 -0.089765325 0.041079346 -0.042782225 -0.14766511 0.034950417
0.09440693 -0.1478137 -0.040448703 0.024563586 -0.0018178925 -0.09598545 0.10060322 -0.04026709
-0.119767785 0.0143971285 -0.03506281 -0.11243963 -0.044898827 -0.005948303 -0.032224108 0.07029392
-0.07780423 0.02985629 -0.026723728 0.043959305 0.0041620987 0.019436749 0.0005669166 0.06611336
-0.07779336 0.079027206 -0.1507301 -0.018161668 -0.06367969 0.03260156 0.020806717 -0.011015281
-0.46326613 -0.14109081 -0.069051996 -0.26618987 0.00560244 0.054806318 0.06466706 0.049115643
0.026406871 -0.00072881853 0.069023535 0.0709123 0.0026899723 0.028506944 -0.06778044 0.013032983
0.007164049 -0.024307672 0.008698339 -0.021485612 0.053255122 -0.0042880797 -0.03972061 0.02787454
-0.001945487 0.0035209116 -0.017509691 0.022726893 0.07266287 0.02154734 -0.008847772 -0.03403268
-0.09083981 -0.019197468 -0.05928078 0.042338226 0.01047147 -0.024441889 0.053559225 -0.00436123
0.042845074 0.06629445 0.037359606 0.0038674464 0.08401265 -0.043336604 -0.018563556 0.034260694
0.02850993 -0.07370635 -0.063640006 0.3321367 -0.26689246 0.06025386 -0.041765794 0.026026607
-0.02984747 -0.08251423 -0.1254235 -0.10031149 -0.05265704 0.068181954 0.018035868 -0.024466278
-0.035527464 0.00867963 0.042561896 -0.054464117 -0.094352864 -0.07037644 0.075864576 -0.028281325
-0.006891995 0.09677086 -0.11606816 0.047264215 0.015621943 -0.015737893 0.033488587 -0.047286697
0.07992183 0.031449474 -0.04755509 0.06946192 -0.004416065 -0.03682725 0.018175349 -0.03679018
0.03906857 -0.07605432 0.051757865 0.050540254 -0.0063977614 0.018145064 0.10600476 0.0068468307
0.015600103 0.0779704 0.021111045 -0.13938577 -0.22205222 -0.038433775 0.027701858 0.04032892
0.0027946418 0.11353716 0.046701126 0.07969365 -0.09881266 0.04559185 0.013238574 -0.004803622
0.038299438 0.027375938 0.030299023 -0.089248605 -0.06711331 0.12702322 0.024375485 0.03993954
0.007827111 -0.004676124 -0.08234324 -0.13065392 0.086709015 -0.0009788843 -0.091242015 0.013722446
-0.01375624 -0.059405934 0.017853452 -0.044511877 -0.03725988 -0.04654649 0.05304725 0.060957007
-0.07644773 0.09266946 -0.11584453 0.055735234 0.10946466 0.066635184 -0.0067331176 -0.08734236
-0.3330115 -0.23769508 -0.0034265146 0.015134619 0.08177825 0.0114009725 0.01437467 0.12250662
-0.08085091 -0.044584367 -0.04349046 -0.023353878 0.03836604 0.043468703 0.04729024 -0.046337742

fc1.bias f4 [256]
00000000: 905b a735 da2e c734 f867 2bb5 6da4 f635
00000010: a8b2 b9b4 e6ec eeb5 2e16 0535 e74d a736
00000020: efc1 2135 f7a3 beb5 7181 93b5 c121 3135
00000030: fecb 4a34 4b78 d9b1 9b7c bb35 dc41 93b5
00000040: 700c b235 f059 4eb5 fd48 a4b5 1bf1 bfb5
00000050: 4851 7bb5 3a7c 3e33 6a95 6fb6 2416 8db6
00000060: 342d 8e35 8d07 1935 bfd7 3134 bca9 bf36
00000070: 1287 a3b5 6365 f7b4 e22e 8cb6 2ab6 c934
00000080: c648 7c36 a04d 19b4 eefd 12b5 04d2 3737
00000090: a364 0d36 62ce cb35 7b19 02b4 5cc7 15b5
000000a0: 84a4 b035 b83a 5ab5 352c 6435 70d7 5a34
000000b0: 5cc9 1e35 631f bab5 61cf d9b5 0248 4e35
000000c0: 3ca1 0a35 9c7b 15b4 323f c334 cdc0 21b5
000000d0: 5e02 6135 e2d4 0a36 15bd 1e35 4c58 33b6
000000e0: d010 5536 81c3 dab2 60c8 2eb6 3fd7 1eb5
000000f0: 35b1 2836 2814 a2b5 70ae 2436 e6dd a235
00000100: 31f8 e4b4 45e7 bd33 d4ff 9135 f509 08b6
00000110: f180 8a36 d26a c1b5 ccbc ebb4 280f 8835
00000120: c971 b5b4 e3af 8335 bd7e bfb4 762d f936
00000130: 92e5 f535 51d9 6734 462d fdb3 96a8 5db4
00000140: d6e3 84b6 d825 0ab6 f1aa 03b6 ec11 5d35
00000150: 9a38 bc35 52ac d735 fc3e 04b7 8403 70b6
00000160: 0618 7736 2458 08b5 68e5 b635 76c4 65b5
00000170: e8e8 90b4 6cbd 44b5 aa63 c6b5 f481 a5b5
00000180: f750 21b6 65d2 8035 afad e635 26ee 0eb6
00000190: 59cd 68b5 08a3 2fb4 be6a 84b5 cfd8 1ab5
000001a0: c094 5636 de5c 28b5 ab94 4436 cbb9 10b6
000001b0: e38b 9035 38e2 93b5 912b 8035 a0c4 0535
000001c0: 4c9c 5fb5 c3af 8d36 71f1 d235 61a0 c935
000001d0: 3602 6535 4df4 0db6 7eef 92b5 aa9a 0936
000001e0: 32c5 8c35 fe7b 3634 6aab 0636 32a0 a533
000001f0: 29ae 3b36 63e0 2e35 c57a 92b5 8f30 ac36
00000200: 2498 83b5 da35 4e36 ae2b 6c35 80fc 2836
00000210: 563a 91b6 5ac1 51b4 1e95 06b5 14fb aab6
00000220: 2791 0eb4 47dd 7035 790c 3135 8edc 38b5
00000230: 573a 1eb5 1c1f 8db4 6b0a 1736 9b83 28b5
00000240: 22d0 40b5 c332 8834 60c8 22b6 41f7 83b6
00000250: 5304 9f36 def3 be34 f864 4ab6 6456 8035
00000260: 8ccd bdb5 42ee 33b6 dad5 a334 2397 8935
00000270: a346 04b5 4259 6e35 64cb 1cb5 5835 a3b4
00000280: 8d55 8234 f319 10b4 118d 43b4 60a5 fe36
00000290: b5d3 5e36 28c1 dbb4 adb0 cab5 b9a4 ab36
000002a0: 33c3 29b5 1e5c c7b5 298f 4935 aadf 1035
000002b0: 545f 98b4 e659 9eb4 1ac9 4e36 527b af35
000002c0: 593f b0b5 5f5d ee35 ba01 53b4 165f 8d34
000002d0: d427 99b5 6b1e b036 3735 13b6 0d3d 0ab5
000002e0: c9d4 3635 20ad d332 9889 ed35 f049 0b35
000002f0: 6c08 f0b5 5ec8 21b7 c2c4 df35 f2eb 1cb6
00000300: 3a3b 0935 2f86 1e36 edc6 1535 a639 f834
00000310: 7dae 1eb5 1d1f bc35 696f 64b5 c22c bfb4
00000320: debd 93b6 981b 0935 3fec 8eb5 aa4e feb5
00000330: 2e57 0236 afae 5035 8c07 91b4 3c59 3f35
00000340: d386 d1b5 2d5a 36b3 4a4e a9b4 e13c 0bb4
00000350: 4127 2436 3a17 0fb6 05dd c9b5 fc80 3c35
00000360: d8ac 6335 7a7e 97b5 db73 b7b6 eba8 44b6
00000370: e053 3d36 339c d3b3 5d9c e735 bc46 82b3
00000380: a762 ec35 a785 e1b5 7053 6335 c59e 6a35
00000390: 361e 3834 8f1c 5135 452f 8134 e9d0 dab6
000003a0: fb78 2135 d098 45b4 ddaf 9236 1248 87b5
000003b0: fe69 ae34 c9a8 b336 515e 9134 a005 0ab7
000003c0: bed5 d035 8fc2 e4b5 cb1f 36b5 0bf4 08b6
000003d0: f1b7 1737 3a44 35b5 90c7 06b3 0a3d 8534
000003e0: 7894 c735 d4b7 9634 6fb0 3635 13a2 2cb6
000003f0: 1014 60b5 79c3 c335 17bf de35 5205 60b5
1.2469118e-06 3.7100727e-07 -6.385376e-07 1.8376282e-06 -3.4588925e-07 -1.7801328e-06 4.9578637e-07 4.986057e-06
6.0259384e-07 -1.4203823e-06 -1.0990026e-06 6.5986757e-07 1.8886928e-07 -6.329207e-09 1.3968851e-06 -1.0971521e-06
1.3265653e-06 -7.6871856e-07 -1.2240195e-06 -1.430078e-06 -9.3623066e-07 4.4350806e-08 -3.5700746e-06 -4.204705e-06
1.059298e-06 5.700793e-07 1.6562898e-07 5.7120033e-06 -1.2183757e-06 -4.6081104e-07 -4.177783e-06 3.757171e-07
3.7593286e-06 -1.4277475e-07 -5.4758755e-07 1.0956548e-05 2.1069216e-06 1.5184744e-06 -1.2116463e-07 -5.579693e-07
1.3160902e-06 -8.1296776e-07 8.500095e-07 2.0381208e-07 5.9152603e-07 -1.3867215e-06 -1.6228115e-06 7.6845765e-07
5.1643633e-07 -1.3921675e-07 3.636756e-07 -6.0257736e-07 8.3822476e-07 2.0687517e-06 5.913474e-07 -2.6724474e-06
3.174926e-06 -2.5467445e-08 -2.6044654e-06 -5.917281e-07 2.51371e-06 -1.2075807e-06 2.453944e-06 1.2134522e-06
-4.2648892e-07 8.843066e-08 1.0877798e-06 -2.0271375e-06 4.1277312e-06 -1.4410709e-06 -4.390953e-07 1.0137201e-06
-3.3796667e-07 9.81145e-07 -3.5668737e-07 7.4260706e-06 1.8320736e-06 2.1592611e-07 -1.1789466e-07 -2.064356e-07
-3.96043e-06 -2.058563e-06 -1.9620022e-06 8.2354995e-07 1.4023565e-06 1.60689e-06 -7.882478e-06 -3.5764833e-06
3.6819852e-06 -5.079221e-07 1.3626823e-06 -8.5595036e-07 -2.6991552e-07 -7.3291335e-07 -1.4781156e-06 -1.2331279e-06
-2.4037997e-06 9.597976e-07 1.7186884e-06 -2.129827e-06 -8.6725555e-07 -1.6357455e-07 -9.865832e-07 -5.768497e-07
3.1975069e-06 -6.2720017e-07 2.9292812e-06 -2.1565818e-06 1.0769548e-06 -1.1018192e-06 9.549423e-07 4.983249e-07
-8.3301416e-07 4.222589e-06 1.5716488e-06 1.5022343e-06 8.5312365e-07 -2.115284e-06 -1.0947549e-06 2.0504617e-06
1.0488204e-06 1.6995179e-07 2.0067332e-06 7.7125506e-08 2.7966546e-06 6.5146577e-07 -1.0913578e-06 5.1316524e-06
-9.804539e-07 3.0727738e-06 8.7980413e-07 2.5180925e-06 -4.328128e-06 -1.9534983e-07 -5.0135884e-07 -5.095624e-06
-1.3277587e-07 8.972897e-07 6.595579e-07 -6.886629e-07 -5.894448e-07 -2.6285932e-07 2.2506817e-06 -6.277639e-07
-7.1828447e-07 2.5368908e-07 -2.4256515e-06 -3.9328884e-06 4.7390727e-06 3.5567695e-07 -3.0159117e-06 9.561886e-07
-1.4141419e-06 -2.6811763e-06 3.0516713e-07 1.0251282e-06 -4.927662e-07 8.8791796e-07 -5.84105e-07 -3.039993e-07
2.4276633e-07 -1.3420485e-07 -1.821211e-07 7.589042e-06 3.3203808e-06 -4.0932468e-07 -1.5101592e-06 5.1153734e-06
-6.324146e-07 -1.4853465e-06 7.508666e-07 5.3969654e-07 -2.8381567e-07 -2.9495203e-07 3.0813449e-06 1.3074407e-06
-1.3131458e-06 1.7759556e-06 -1.9651534e-07 2.633248e-07 -1.141098e-06 5.24875e-06 -2.1935682e-06 -5.1497847e-07
6.8109927e-07 2.4642361e-08 1.7697921e-06 5.188913e-07 -1.7883845e-06 -9.642999e-06 1.6672059e-06 -2.338315e-06
5.1122663e-07 2.362194e-06 5.57963e-07 4.6235544e-07 -5.91135e-07 1.4016147e-06 -8.509874e-07 -3.5609088e-07
-4.403045e-06 5.107663e-07 -1.0648581e-06 -1.8947369e-06 1.9422255e-06 7.7740236e-07 -2.7013846e-07 7.12829e-07
-1.5610952e-06 -4.245719e-08 -3.1535666e-07 -1.2967531e-07 2.4460753e-06 -2.132218e-06 -1.5039992e-06 7.0223155e-07
8.481561e-07 -1.1287186e-06 -5.4673123e-06 -2.93046e-06 2.8212016e-06 -9.8538656e-08 1.7256349e-06 -6.066463e-08
1.7612082e-06 -1.6802704e-06 8.468551e-07 8.7402833e-07 1.7147326e-07 7.7900125e-07 2.4062516e-07 -6.5212266e-06
6.0153224e-07 -1.8402648e-07 4.3716122e-06 -1.0079259e-06 3.2487145e-07 5.354265e-06 2.707698e-07 -8.226751e-06
1.5559415e-06 -1.7043948e-06 -6.784655e-07 -2.040763e-06 9.043129e-06 -6.7527037e-07 -3.1380807e-08 2.4817592e-07
1.4869865e-06 2.807343e-07 6.805703e-07 -2.5724337e-06 -8.34757e-07 1.4585522e-06 1.6595903e-06 -8.3454245e-07

bn1.weight f4 [256]
00000000: 1a4e ad3e 91b7 ee3e 5053 213f ee14 0b3f
00000010: 10cf d93e 1f6c e43e 1bbb 223f 1a3e 1d3f
00000020: ff54 a83e b92c d03e 65ea c83e 5bd8 c93e
00000030: 001f f43e 69f2 c03e e7a3 173f fddd d33e
00000040: 26e7 183f 8b37 c83e 2210 d23e 4691 f73e
00000050: 7baa 053f 6cc3 193f 96db 1b3f 2923 283f
00000060: 2e25 103f 94f4 0a3f 555b cf3e bfe4 e43e
00000070: 0477 b43e 0725 c83e ce68 ed3e a452 173f
00000080: 856b e33e aabd d93e 5446 ac3e 7986 053f
00000090: 6b31 df3e 7508 033f fa3c a53e b84b b13e
000000a0: 8854 d33e f89a 063f 413f ee3e 3482 9d3e
000000b0: b912 e33e 7c4e 0b3f bb76 d13e f712 d93e
000000c0: 62dc a33e 641b 113f 98c5 bd3e c380 c83e
000000d0: 1eca 023f 3e1e e63e 44eb d93e cf24 e43e
000000e0: 34b8 dd3e 73cc 033f 87aa ed3e eef2 ba3e
000000f0: e785 243f 111c 983e b004 d63e de5f ff3e
00000100: 3547 bc3e 8bc7 403f c299 ea3e abf3 0e3f
00000110: 8796 113f a169 e53e 9593 e53e 4042 ff3e
00000120: cdd5 dc3e 32f9 b23e cdd1 e33e 89bc 203f
00000130: 2228 183f 95e0 b73e f152 eb3e 2477 ab3e
00000140: fb67 f43e 70b0 183f a45f b93e 94fc b03e
00000150: ab35 283f aae8 fd3e b96b 293f 6dbd e73e
00000160: dc24 223f 2402 0a3f 1d63 e53e 3e6e da3e
00000170: a082 113f fe01 bb3e 31da cc3e 4767 b83e
00000180: 1b03 d33e 3ae4 f53e 93a2 a93e a14f f43e
00000190: a41b a53e 08ce e33e 9fb1 ed3e 6c1f ed3e
000001a0: 25f9 be3e 5f43 ec3e 9d0a 0c3f 2570 093f
000001b0: 0c8d 0c3f 778a 253f 1f90 d23e 5c19 b13e
000001c0: 57ba 003f 1e7d 473f 2c31 323f b6c1 1d3f
000001d0: 00dc bc3e de27 c53e 3b44 e73e 374a f93e
000001e0: 81ad 053f 00bc da3e aa28 f13e 1c17 9e3e
000001f0: 9d8e 223f 5805 d33e ca7d ea3e e44b fb3e
00000200: c91c 023f 6d3b c63e 306d d33e 6ed6 073f
00000210: 2d83 0d3f e48b 0e3f befb ea3e efff 0c3f
00000220: e42d d73e 195b 0e3f 5b60 223f 33a9 e53e
00000230: e1bc c83e 29dd de3e 4129 d73e 1992 f23e
00000240: 911f a23e 6064 ae3e 832c e73e 3aa2 c13e
00000250: 24d4 db3e 031c d93e f1f4 013f 30f1 c63e
00000260: 6da7 e43e 455b c03e 25d3 e53e 3ee2 d73e
00000270: 13ea df3e 0bd2 e43e 65c3 e13e 52ed ec3e
00000280: 6481 c93e a738 f13e debb 963e f725 043f
00000290: fa3c 3d3f 3ca3 ca3e 1b61 1f3f 284b 103f
000002a0: 842f d33e ec6d fd3e fc99 123f 44db db3e
000002b0: 4f47 083f 7b54 ca3e 74d5 db3e 70ca ef3e
000002c0: e88e c93e 439f 343f d786 de3e 7d75 033f
000002d0: e052 c83e 83ff 0f3f 7e08 ba3e 6bdb 243f
000002e0: 65cb de3e 723e c63e ab0f 173f 64f0 f93e
000002f0: 7f78 a63e ef78 1a3f 61c8 cd3e 1d97 f63e
00000300: b229 da3e 64dc ea3e 1706 e23e 03f5 e53e
00000310: 7ab5 d43e 6279 d43e 56c4 e03e c5fa c33e
00000320: a063 c93e ec3d 4a3f 11cf 163f 9693 f13e
00000330: 7343 0f3f f2e3 b63e d98e d83e 6e6c b03e
00000340: 5196 d83e 111b d43e b0d5 b63e fd4b f03e
00000350: bcf1 393f 608b 0d3f f4c9 053f 75e1 d13e
00000360: bbe3 ff3e 5d7b c93e ed78 113f 948f 413f
00000370: a4e5 d03e b86a 1c3f c875 f63e 34e1 af3e
00000380: 7cbb f93e fbe3 bf3e 879b fb3e d4c1 d03e
00000390: 2548 e73e 6468 f03e 5f3d 093f 2ee8 273f
000003a0: a4e7 c23e 7bb5 ad3e 6c06 073f d87a ba3e
000003b0: a49a 223f a521 153f 6288 d23e 5201 1d3f
000003c0: 29bd c33e f8f5 373f 528d c83e c270 073f
000003d0: 6d79 f73e dc06 bf3e 7422 c53e 2247 c13e
000003e0: d6d4 d33e 7b27 f23e 957d e93e 2562 fd3e
000003f0: c1b4 f03e edf4 e73e c7fc bf3e 11fd 153f
0.3384865 0.46624425 0.6301775 0.5432881 0.4254079 0.4461374 0.6356675 0.61422884
0.32877347 0.4065912 0.3924133 0.3942288 0.476799 0.37684944 0.5923447 0.413803
0.59727705 0.39104876 0.41027933 0.48353022 0.5221326 0.60063815 0.60881937 0.6567865
0.5630673 0.54279447 0.40499368 0.4470577 0.35247052 0.3909075 0.46369022 0.59110475
0.44417968 0.42527515 0.33647406 0.52158314 0.4359239 0.5118478 0.32273084 0.3462808
0.4127543 0.52580214 0.46532634 0.307634 0.44350222 0.5441663 0.40910897 0.42397282
0.32004076 0.5668242 0.37064815 0.39160737 0.51089656 0.44944948 0.42562306 0.44559333
0.43304598 0.5148384 0.46419165 0.36513466 0.6426682 0.29708913 0.4180045 0.49877828
0.36773077 0.7530448 0.45820433 0.5584056 0.5687031 0.4480715 0.4483916 0.49855232
0.43131867 0.34955746 0.44496003 0.6278768 0.5943624 0.3591353 0.45961717 0.33489335
0.4773558 0.5964422 0.3620578 0.34567702 0.6570689 0.4959157 0.66179997 0.45261708
0.6333749 0.53909516 0.4480218 0.42662233 0.5683994 0.36524957 0.40010217 0.36016294
0.41213307 0.48025686 0.33131847 0.47717002 0.3224765 0.44493127 0.46424577 0.46313035
0.37299457 0.4614515 0.54703695 0.53686744 0.5490272 0.64664406 0.4112558 0.3458966
0.5028433 0.7792529 0.6960628 0.61623704 0.36886597 0.3850698 0.45169243 0.48689434
0.5221787 0.42721558 0.47101337 0.30877006 0.6349886 0.41215014 0.45799094 0.49081337
0.5082517 0.38717213 0.4129424 0.5306157 0.55278283 0.55682206 0.4589519 0.55078024
0.420272 0.55607754 0.63428277 0.4485565 0.39206603 0.43528107 0.42023662 0.4737709
0.31664708 0.34060955 0.45151147 0.37819082 0.42935288 0.42404184 0.50764376 0.38855886
0.44658986 0.37569633 0.44887653 0.42164797 0.43733272 0.446915 0.44094387 0.4627481
0.3935653 0.47113535 0.29440206 0.5162043 0.7392117 0.39577663 0.62257546 0.5636468
0.4124719 0.49497926 0.5726621 0.42940724 0.5323381 0.39517578 0.4293629 0.46834135
0.3936684 0.70555514 0.4346225 0.5135115 0.3912573 0.56249255 0.36334604 0.64397305
0.43514553 0.38719517 0.5900828 0.48816216 0.32513806 0.6034078 0.4019194 0.48162165
0.42609936 0.4587127 0.4414527 0.44913492 0.41544706 0.41498858 0.43899792 0.3827726
0.3933382 0.79000735 0.5890971 0.47182912 0.55962294 0.35720783 0.42296484 0.34457725
0.42302182 0.414269 0.35709906 0.46932974 0.7263448 0.55290794 0.5226128 0.40992323
0.49978432 0.3935193 0.56825143 0.7560971 0.40800202 0.6110034 0.48136735 0.34351504
0.48775852 0.37478623 0.49142095 0.4077288 0.4517223 0.46954644 0.5360927 0.65588653
0.38067353 0.3392752 0.52744174 0.36421847 0.6351721 0.5825446 0.41119677 0.6133014
0.38230255 0.71859694 0.3917032 0.5290643 0.48334828 0.3730992 0.38502848 0.37749583
0.41373318 0.47295746 0.45603624 0.4948894 0.47012904 0.4530405 0.3749754 0.58589274

bn1.bias f4 [256]
00000000: 6ee4 9ebe c732 02bf d1df 5dbe f7d9 b8be
00000010: 89dd b3be 433a 4dbe 3a05 31be c623 3dbe
00000020: 51e4 b2be 8c4a 56be 0171 99be 8c27 47be
00000030: 5a18 b6be 35b8 a5be 9d74 babe 3110 89be
00000040: 8c8a 93be e7e1 3fbe 8392 7dbe 7e18 a3be
00000050: fd63 55be ac9f e7bd f7a1 bfbe 9eca acbe
00000060: 6547 57be a25f 09bf 1367 b7be f1a3 f4be
00000070: f588 90be f9e7 a1be f0fa 80be e1c7 5dbe
00000080: 33f2 41be 3bd2 c0be c3c6 a0be 46c1 32be
00000090: 381c fcbd 87ff 8abe 31f3 6bbe 8063 82be
000000a0: 41bd 83be cc2e 2bbe 92b2 dcbd 7bb5 87be
000000b0: d3ef 59be 23ee 65be 12b3 b5be 828a 33be
000000c0: 71e0 7fbe 4d9c 44be 316e 9cbe 411f 94be
000000d0: 9e66 ecbe edbb 58be a2d4 c2be 481d 85be
000000e0: c3b2 afbe 04c4 0abf f457 8dbe ec79 61be
000000f0: a8e0 2cbe 5ae9 30be ccf8 98be 8b87 02be
00000100: a63d dcbd a8ae dbbe 572f 1ebe 0626 54be
00000110: 18eb f5bd 5c98 78bc 1b37 89be 985c 01bf
00000120: 66c2 6fbe b720 eebd 063b 9ebe 26a5 a2be
00000130: 9cd5 9fbc 9645 a4be 02a5 72be 6f19 90be
00000140: e6ae 0abf fbf8 a8bd 7a4f 74be 4060 27be
00000150: d705 9ebe a6a8 2bbe 3539 c6be 5cd1 14be
00000160: a1ea 66be aa99 aabe a3ef abbe 5190 8fbe
00000170: 447e 9ebe 86c2 4ebe 1bad 8fbe 9097 b3bd
00000180: 1b73 7ebe d058 bbbd cf2c fabd a37b 09be
00000190: 1b6d 2abe f780 80be 90d0 3abe 6978 3cbe
000001a0: 6bb6 70be 9cd0 efbe 3b61 dabe 437f 74be
000001b0: 245c b8be c549 f5bd c852 afbe f89b 7fbe
000001c0: 5d3f 7cbe bf8a 01bf c579 b7be d0d5 48be
000001d0: e1ec 17be 382c 7bbe 02be d9be 01bc 9dbe
000001e0: 2ec2 68be e6c5 80be 054e 92be e245 5abe
000001f0: a0c9 e7be afb4 8cbe c7f3 91be 6728 c2be
00000200: 30da b9be 13b6 85be 3a8d 75be 62bd 97be
00000210: a419 04be f1bb 88be 89f8 36be d1ce f1bd
00000220: 91c8 7fbe a9ff 8fbe cba2 d8be 4124 81be
00000230: d63c a2be 64cc 6dbe c285 06bf 9b59 76be
00000240: 45f2 7cbe 199c bfbe a752 71bd e5fe 8bbe
00000250: b08d 2ebe a3a5 e4be 433a 07bf c805 92be
00000260: 1b4d c2be 98d6 93be e5b5 80be 6747 84be
00000270: d4d7 d1be 69b1 b5be 270e 70be 1cd8 cfbe
00000280: 970e 92be 141a f7be ecd9 abbe 7c36 89be
00000290: 7b23 f9be f709 e8bd fe8e f5be ae38 95be
000002a0: b468 3bbe 40e9 d3bd 4858 96bc 0441 9abe
000002b0: c32d 9bbe a66c 64be 22d7 28be 3d46 74be
000002c0: c523 94be af54 f3be 999c 6bbe 917e f6bd
000002d0: bd45 44be d46a 86be 34ad a1be e604 febe
000002e0: 5467 bebe a3d3 40be 17d3 52bd 5a4f c5be
000002f0: a7f4 36be 9ff5 3abe d2d3 b6bd 4198 12bf
00000300: 334b 96be 577e aebe 178a 22be 67ed e6be
00000310: d9d3 a1be 20ff 6ebe a55a e5be 1e09 51be
00000320: 65d4 32bd da65 01bf a282 d0be cc11 30be
00000330: d569 64be 193b c1be a686 b9be b2e6 79be
00000340: 2935 91be 4e3d 55be 9929 91be aebd 6ebe
00000350: 833f c4be 66ea d7be 6fb7 8bbe aa46 85be
00000360: c591 afbe 2c2a eabd 7588 93be 1201 c1be
00000370: d207 b2be d76a b0be 662f 58bd b587 3fbe
00000380: a26d 97be bc49 83be 47e9 c1be 5dac bfbe
00000390: ad34 4abe 745d 1dbe e655 7bbe 680d b1be
000003a0: bf15 57be d01b 88be d4f7 d3be 4417 4dbe
000003b0: 4ce4 4fbe ec87 69be dca3 f8bd 5120 aebe
000003c0: 81c1 6bbe 1953 04bf b040 6bbe b3c4 87be
000003d0: 969b bcbd 8dc2 aebe bbd0 5dbe 77d6 1abe
000003e0: 7224 66be 8bea 00be a676 1abe 4f6b 8cbe
000003f0: 17a2 bfbe 5252 99be e0ee bdbe d705 89be
-0.31033653 -0.5085873 -0.2166741 -0.36103794 -0.35129955 -0.20041756 -0.1728715 -0.18470678
-0.34939817 -0.20926875 -0.29969028 -0.1944868 -0.35565454 -0.323671 -0.36417094 -0.26770166
-0.2881664 -0.18738519 -0.24762921 -0.31854624 -0.20838924 -0.11309752 -0.37428257 -0.33748335
-0.21023329 -0.5366155 -0.35820827 -0.47781327 -0.2822949 -0.31622294 -0.2519145 -0.21658279
-0.18940048 -0.37660393 -0.31401643 -0.1745654 -0.1231007 -0.27148077 -0.23041989 -0.25466537
-0.25730327 -0.1671707 -0.10776247 -0.26505646 -0.21282892 -0.22454123 -0.35488182 -0.17533305
-0.24987961 -0.19200249 -0.3055282 -0.28930095 -0.4617204 -0.21165438 -0.3805285 -0.25998902
-0.34316072 -0.54205346 -0.27606165 -0.22019166 -0.16882575 -0.17276517 -0.29877317 -0.12747018
-0.10753946 -0.4290669 -0.15447746 -0.2071763 -0.12007731 -0.015173044 -0.26799855 -0.5053191
-0.23414001 -0.116273336 -0.30904406 -0.31766623 -0.019511037 -0.3208434 -0.23695758 -0.28144404
-0.54173124 -0.08250614 -0.23858443 -0.1634531 -0.3086383 -0.16763553 -0.3871552 -0.1453299
-0.22550441 -0.3332036 -0.33581266 -0.28039792 -0.30955708 -0.20191392 -0.28061756 -0.08769143
-0.24848597 -0.09147799 -0.12215578 -0.1342607 -0.16643183 -0.25098392 -0.18243623 -0.18405308
-0.23507087 -0.46838844 -0.42652306 -0.23876671 -0.36007798 -0.11976961 -0.34242845 -0.24961841
-0.24633546 -0.50602335 -0.3583509 -0.19612813 -0.14836456 -0.24528587 -0.42527777 -0.30807498
-0.22730324 -0.25150985 -0.2857515 -0.2131572 -0.45271015 -0.274816 -0.285063 -0.3792145
-0.36299276 -0.26115474 -0.23979655 -0.29636675 -0.12900406 -0.26705888 -0.17868246 -0.11807025
-0.24978854 -0.2812474 -0.423117 -0.25222972 -0.3168704 -0.232225 -0.5254785 -0.2405762
-0.24701793 -0.3742378 -0.058916714 -0.27342907 -0.17046237 -0.4465762 -0.52823275 -0.28520036
-0.37949452 -0.2887466 -0.25138775 -0.25835726 -0.40984976 -0.35486916 -0.23442899 -0.40594566
-0.28526756 -0.48262084 -0.335647 -0.2679938 -0.48659882 -0.11330026 -0.47960657 -0.29144806
-0.1830166 -0.10347223 -0.018352643 -0.30127728 -0.3030835 -0.22307071 -0.16488317 -0.23854919
-0.2893354 -0.47525546 -0.23008956 -0.120358594 -0.19167228 -0.26253378 -0.31577456 -0.49613112
-0.37188208 -0.18830733 -0.051470842 -0.38537103 -0.17866765 -0.1825776 -0.0892712 -0.5726357
-0.29354247 -0.34080765 -0.1587299 -0.45103 -0.3160694 -0.2333951 -0.4479572 -0.20413634
-0.043659586 -0.5054604 -0.40724665 -0.17194289 -0.22305997 -0.377404 -0.3623554 -0.2440441
-0.2836087 -0.20824167 -0.2835205 -0.23314545 -0.38329706 -0.4217102 -0.27288386 -0.26030475
-0.342909 -0.11433825 -0.28815046 -0.3769613 -0.3477159 -0.34456512 -0.052779578 -0.18704112
-0.2957583 -0.25642192 -0.3787329 -0.3743619 -0.19746657 -0.15367681 -0.24544486 -0.3458054
-0.21004389 -0.2658372 -0.41400015 -0.20028406 -0.20301932 -0.22805756 -0.12140629 -0.3400903
-0.23023035 -0.51689297 -0.22973895 -0.26517257 -0.09209363 -0.34132805 -0.21661656 -0.15120874
-0.2247484 -0.12589471 -0.15084323 -0.2742562 -0.37428352 -0.29945618 -0.3709631 -0.26762268

bn1.running_mean f4 [256]
00000000: 5d64 e7b9 8745 eeb8 0166 02ba 7d1e a638
00000010: 74c4 b73a 882f 35ba df81 e3b9 df10 3cbb
00000020: da44 113b 5ff8 f73a 91d8 643b eb1c 34b9
00000030: b148 1cb8 5519 b4b8 9516 373a e992 d6b8
00000040: db37 443a 544a 85ba 3b3e 813a 7944 44b9
00000050: dbeb 523a a127 47bb 8f49 c3b9 469d c939
00000060: 9aaf 07b9 2288 8a3a 635d 393a 6b77 17bb
00000070: 0eb2 d93a 8cc5 86ba 8868 bbb9 cd20 38ba
00000080: db3e 8aba 618c 1e3b d2ce deb8 cfcc 0bba
00000090: 421b 2339 94e3 b3b9 96bb c8b9 7784 af3a
000000a0: 811e 6839 17c3 1ebb 4960 13ba 6d31 f739
000000b0: b2a8 22bb 3134 3cba 0f29 1dbb 3ea6 fe39
000000c0: aeb7 913a e499 a4b9 abef e6ba 958a 8cb8
000000d0: e244 18ba d249 0fbb baf1 1039 3a75 d3ba
000000e0: 0328 91ba f09a 0439 39c0 fc39 1de0 97ba
000000f0: bddb e7b6 6dbf 30bb f45b fd3a 20b7 153a
00000100: 3b37 6e3a 8a48 3b3a efaf c5ba 6aef 3aba
00000110: 74d2 9cb9 1361 8cba d67e 2239 da16 94ba
00000120: 2d12 fcba 8acf 153b 85f6 80b9 5b0f 9339
00000130: 4e52 eeba 41ca 3dbb cbff 8a39 7702 c53a
00000140: ca04 0b3b 12d5 d8b8 d8d3 afba e903 8b39
00000150: c676 2e3a 319a 1dbb c1a0 7e3a 7aab 23ba
00000160: 6e71 4f39 3502 063a c362 2c3a ad28 31bb
00000170: 5163 3c3a 5c0f 18bb b084 aa3a 42e4 3d39
00000180: a2cd 673b eb59 23b9 d149 36bb a52e d9ba
00000190: 1e61 f33a abba 79ba 1796 2abb 8d35 2fb9
000001a0: f7c6 1f3b abc2 7d3a 627f 31b9 1417 dfb8
000001b0: 7b46 7439 edf6 37bb a121 d7ba d2d4 213a
000001c0: fdbe 89ba 23c0 c639 e797 363a 0f1c 8d39
000001d0: a9cc e03a 1e83 8cba 8ca6 a739 ba77 a639
000001e0: 0137 fcba 2856 0ebb 862a 94b9 2204 69ba
000001f0: c404 553a f324 353a 4e78 423b f5e4 cfba
00000200: 00f3 033a 8cde fa3a e481 a7ba 2015 e2ba
00000210: 7011 5839 4324 03bb 5aa5 8737 667a c1ba
00000220: 5ae4 66ba 4439 373a cff7 adba 6741 7dba
00000230: 8c27 8fba e23b 2a3b 3d06 ccb9 8a32 15ba
00000240: e142 ebb8 ac63 b739 bd44 28bb d3e8 b0ba
00000250: 82dd 3abb 4aba b5b9 ccc6 adb9 cc99 e53a
00000260: 4a71 2e39 8906 02bb 57c8 e2ba 98c5 a4b9
00000270: c541 59b9 547b 543a c973 f0ba 50fd 503a
00000280: 0448 40b9 7378 e6b9 50b1 4fbb 2670 9739
00000290: f4d8 b43a e771 daba 7364 ad3a 0d8c 8e38
000002a0: eacd e8ba b24f 023a f435 0d39 bfa9 89ba
000002b0: 9bf2 9c3a 8980 833a 15eb f439 9a4c 02bb
000002c0: 77fa 66ba 74a9 013a 679e c9ba c9bd 24bb
000002d0: 32de 3bbb fc42 30bb 3059 efba a082 8338
000002e0: c21e bfb9 dcd5 753a 324d d0ba f134 793a
000002f0: 7235 caba 6d3c 1aba b2ca 4539 ce68 50ba
00000300: eb9a 603a 9c84 e5ba ad97 12bb e99a db3a
00000310: 08a8 21b9 6cad 8c3a 3446 dbba 0d03 1a3a
00000320: 5fa7 1bba 7786 093a b82c 8739 a863 073a
00000330: 6889 1cbb 1a0e 3cba bcb7 bbba 5ef2 403a
00000340: d9dc dbba 0a40 05b9 5ac7 2139 ee9a c5b9
00000350: b11d 3639 32c3 9e39 b93e 6aba 1b58 31ba
00000360: f08e bab9 1ec2 bab9 ee93 a8b9 1329 003a
00000370: 68cf 0e3a b28a 99b9 ca1f bbba d4a9 013b
00000380: 9217 5bba 7c95 57bb b91b 173a 6fb8 8db7
00000390: ff03 3db9 1c6e 89ba e691 13ba 7fa9 64b8
000003a0: f9e0 e9b9 5a1d c4b8 d981 793a 13bc 0839
000003b0: f45a 59ba eac3 a5ba 482a 00ba bf9c 2b3a
000003c0: 0e7e 05bb f49f 2d3a c4e0 68ba 4b09 a6ba
000003d0: 99f5 0db8 5ff3 19ba 38bd ddba b60b 893a
000003e0: c971 e43a 9de6 7639 ae66 063a 7e3f 2a3a
000003f0: 8294 d038 c1fd 063b 9cee c73a d9f3 713a
-0.0004413453 -0.00011361675 -0.0004974306 7.921176e-05 0.001402034 -0.0006911685 -0.00043393575 -0.002869658
0.0022166283 0.0018918625 0.0034919123 -0.0001717691 -3.7260997e-05 -8.587787e-05 0.0006984261 -0.00010231679
0.000748513 -0.0010169246 0.0009860465 -0.00018717525 0.00080460095 -0.003038861 -0.00037248104 0.00038454885
-0.0001294002 0.0010569135 0.00070711056 -0.002311195 0.001660885 -0.0010282262 -0.000357453 -0.00070239307
-0.0010547297 0.002419256 -0.00010624308 -0.0005332948 0.00015555046 -0.000343111 -0.00038286735 0.0013390918
0.00022136608 -0.002422517 -0.00056219526 0.00047148336 -0.0024819789 -0.0007179408 -0.0023980772 0.00048570515
0.0011117363 -0.00031395175 -0.0017619034 -6.701533e-05 -0.0005808604 -0.0021864069 0.0001382296 -0.0016132959
-0.0011074546 0.0001264622 0.00048208403 -0.0011587177 -6.9099174e-06 -0.0026969567 0.0019329772 0.00057111867
0.00090872095 0.0007144293 -0.001508234 -0.00071310124 -0.00029911438 -0.0010710083 0.00015496774 -0.0011298314
-0.0019231491 0.0022859299 -0.00024597734 0.00028049466 -0.0018182488 -0.0028959664 0.00026511992 0.0015030642
0.0021212571 -0.0001033937 -0.0013414575 0.0002651506 0.0006655272 -0.0024048204 0.0009713285 -0.00062435085
0.00019783314 0.0005112023 0.0006575996 -0.0027032301 0.000718643 -0.0023202514 0.0013009515 0.00018109477
0.003537037 -0.00015578388 -0.0027814994 -0.0016569687 0.0018568372 -0.0009526412 -0.0026029402 -0.0001670925
0.0024380067 0.0009680192 -0.00016927489 -0.00010637767 0.0002329591 -0.0028070763 -0.001641322 0.00061733753
-0.001050919 0.00037908656 0.0006965384 0.0002691452 0.0017150837 -0.0010720228 0.0003197681 0.0003175119
-0.0019242467 -0.0021718834 -0.00028260442 -0.00088888605 0.00081260153 0.0006910108 0.0029673758 -0.0015861081
0.0005033463 0.001913981 -0.0012779799 -0.0017248727 0.00020605861 -0.0020010627 1.6170252e-05 -0.0014761209
-0.0008807831 0.0006989429 -0.0013272705 -0.000966093 -0.001092182 0.0025975634 -0.0003891456 -0.000569143
-0.000112181304 0.0003497874 -0.0025675737 -0.0013497121 -0.0028513377 -0.00034661806 -0.00033145247 0.0017517149
0.00016636137 -0.001984032 -0.0017302138 -0.00031427736 -0.00020719234 0.00081055355 -0.0018345054 0.0007972317
-0.00018337375 -0.0004395876 -0.003169138 0.0002888452 0.0013797567 -0.0016666026 0.0013228789 6.797174e-05
-0.0017761562 0.0004970982 0.00013466907 -0.0010502859 0.0011974158 0.0010032813 0.00046714456 -0.0019882084
-0.0008811126 0.000494621 -0.0015382291 -0.0025137535 -0.0028666374 -0.0026895395 -0.0018260833 6.2708976e-05
-0.00036453275 0.0009377876 -0.0015892147 0.0009506485 -0.0015427305 -0.0005883638 0.00018862894 -0.00079501874
0.00085680065 -0.0017510834 -0.0022368238 0.0016754541 -0.00015416753 0.0010732836 -0.0016729296 0.00058750884
-0.0005937721 0.0005246172 0.00025782525 0.0005164691 -0.0023885611 -0.0007173732 -0.0014321725 0.0007360334
-0.0016774192 -0.00012707725 0.00015428421 -0.000376902 0.00017367933 0.0003028154 -0.0008935738 -0.0006765143
-0.0003558318 -0.00035621313 -0.00032153673 0.0004888933 0.0005447776 -0.0002928577 -0.0014276442 0.0019785063
-0.0008357699 -0.0032895496 0.0005764324 -1.6894393e-05 -0.00018025933 -0.0010485086 -0.00056293455 -5.451729e-05
-0.0004460884 -9.3514755e-05 0.0009517945 0.00013040034 -0.0008291446 -0.0012646888 -0.0004889113 0.00065464893
-0.0020369324 0.0006623261 -0.00088835903 -0.0012667564 -3.384575e-05 -0.0005872752 -0.0016917353 0.0010455761
0.001742893 0.00023546298 0.0005126995 0.00064944464 9.9458746e-05 0.0020598026 0.0015253606 0.00092297565

bn1.running_var f4 [256]
00000000: 064a ed3d 19f4 fc3d 32ce 5f3e 9af9 1f3e
00000010: d41d 153e 3849 fa3d 6f0a 3c3e c0ce 0f3e
00000020: fde2 e93d e768 573e 0cb5 953e 8ed8 493e
00000030: b11f 573e 020e 1e3e 0c13 853e a556 0c3e
00000040: 9545 9c3e 6ad4 c93d 8d0e 153e f01d 023e
00000050: 1369 813e 970b 563e 7fa5 883e e6b9 d13e
00000060: 332b bc3e dd4d 5b3e 363c 183e 0f8e 043e
00000070: e1e6 0b3e 8dd1 273e 6380 3a3e 10d7 0d3e
00000080: 43bc af3d 0217 1e3e 958f b43d 742a 0c3e
00000090: f3bf ce3d aa39 e03d f502 623e 54b9 463e
000000a0: 9979 263e 1cd6 e53d efa1 043e 809d 063e
000000b0: f6b4 353e 2e25 133e 7516 4f3e 93cd 623e
000000c0: 5f39 2b3e 93b5 113e a6ca 1d3e ef1d 1d3e
000000d0: c9f6 283e 678b 1d3e dd03 863e 28df 323e
000000e0: 41de f03d b1a6 133e 5eec 2f3e c9cd 163e
000000f0: 1427 873e c631 023e 4a53 763e 5dfb 2f3e
00000100: b5cd 213e 17d1 d83e ea52 2c3e 1c0d 153e
00000110: 046a 7a3e ab32 8f3e 3f9f 593e 2ead 3d3e
00000120: 6b30 713e a6cc 3b3e 9907 2b3e 2c00 aa3e
00000130: 4291 273e 34c6 533e 31c8 2a3e 07ee 3d3e
00000140: d7f0 563e e2fd 2a3e add8 0a3e 3ac2 1e3e
00000150: 2ce8 ad3e da66 3b3e 619a cb3e fc4b 593e
00000160: becc 823e 8cc9 2c3e faee 0a3e 55f8 713e
00000170: 4f42 943e ad2d 443e cb2d 1f3e 4332 2c3e
00000180: 90ea 1b3e c3aa 3f3e 7491 113e 9497 9d3e
00000190: 9fcd 0e3e e81a 203e facf 383e b217 003e
000001a0: c185 333e bb6e 993e bbfd 6c3e 79e4 283e
000001b0: b8e2 4d3e 5347 3a3e 78dd 163e e9eb e93d
000001c0: 159c 2d3e b6ac c43e 79ab f73e e9c2 613e
000001d0: 65df 0e3e 25a9 113e 084b 7c3e 22aa 033e
000001e0: 2823 a83d 378a 793e 9989 343e 7757 fb3d
000001f0: 6af0 c13e bd7b 053e 413b 6f3e f9fc 0b3e
00000200: 05e3 6b3e 97bc a93d 3b8e f33d df52 953e
00000210: 635b 0c3e 45c6 683e 0c16 833e 4af4 053e
00000220: 4511 f13d af5d d43e 2156 4f3e e99e db3d
00000230: bf49 a93d 6adc 183e 76cd 973e ba73 163e
00000240: a969 123e 3d98 f03d 97a4 6f3e bda2 1d3e
00000250: 6c33 143e 13c2 7e3e 2099 963e bd73 1f3e
00000260: efcc a83e 6c72 fc3d bcfb 173e 463d 163e
00000270: 5a36 513e 8e7d 0d3e e248 213e 9f00 0e3e
00000280: ba17 183e 3252 933e 0478 3a3e 76e1 5c3e
00000290: 6853 dc3e 481c 3a3e 911a bc3e 8c98 7a3e
000002a0: 6dca 343e ab7f 323e ee3d 863e e07c 9e3d
000002b0: 0d45 683e 2b63 123e 9a4e 083e 771b 033e
000002c0: d19e e73d cf17 a53e dcb3 253e 9ae6 143e
000002d0: 56dd 333e 76a6 433e af77 123e 6a8b bc3e
000002e0: 472c 0a3e 8dd6 703e 9cb7 2d3e 8e36 413e
000002f0: 7827 f13d e16f 283e 505d 1c3e b32e 0e3e
00000300: f22c 203e 27d2 2c3e e37d 183e 7527 223e
00000310: 2004 4b3e bba9 3f3e 1e15 4d3e f013 f93d
00000320: bbd6 2a3e 5a33 013f a476 a73e 2187 5c3e
00000330: 4775 613e 95d8 da3d cd6d 333e 4ad9 033e
00000340: 9052 0a3e e519 5a3e 9683 e93d e93d 213e
00000350: a80b 9b3e b6a9 273e 5203 6b3e 8bcb 1b3e
00000360: b62c 843e 597c 173e d804 033e d5c0 f03e
00000370: d0ea 343e 8a6a ad3e d1d3 523e 6fe9 0e3e
00000380: 7cd2 683e 0914 893e b5fc 633e f072 fb3d
00000390: dd5d 5c3e f3a5 2a3e 0786 0e3e dc22 1d3f
000003a0: de3b 1d3e ec9e 153e 2cf5 5c3e 995d 0f3e
000003b0: 588f ed3d 5827 153e e25b 493e 685b d13e
000003c0: 43b6 413e dfae e63e 83ab 023e 9ecf bc3e
000003d0: da02 033e 69bf 143e 757d 4b3e bf78 183e
000003e0: e6e1 573e 5d9c 523e 0dd2 443e 9bda 243e
000003f0: e202 343e 207b 713e 6422 2d3e 2fb9 5a3e
0.115863845 0.123512454 0.21856001 0.15622559 0.1456216 0.122209966 0.18363355 0.14043713
0.11420248 0.21036111 0.2923969 0.19711515 0.21008183 0.15435031 0.25991094 0.13704927
0.30521837 0.09854968 0.14556332 0.12706733 0.25275478 0.20902859 0.26688763 0.40962142
0.36751708 0.21416421 0.14866719 0.12944816 0.13662292 0.16388531 0.18213038 0.13851571
0.0858083 0.15438464 0.088164486 0.1368807 0.10095205 0.109484985 0.2207144 0.19406635
0.16257323 0.11222479 0.12952398 0.13146019 0.17744812 0.14369652 0.2022341 0.22148733
0.16721104 0.14229421 0.15409335 0.1534345 0.16500391 0.15385209 0.26174822 0.1746794
0.117611416 0.14419056 0.1718001 0.14726938 0.26397002 0.127143 0.2405521 0.17185731
0.15801127 0.42347023 0.16828504 0.14555782 0.24454504 0.27968344 0.21252154 0.18523094
0.23553626 0.18339786 0.16702117 0.33203256 0.16364005 0.20681077 0.1667793 0.18547831
0.2099031 0.16698411 0.13559218 0.15503779 0.33966196 0.18300954 0.3976622 0.21220392
0.2554683 0.16873759 0.13567725 0.23629887 0.2895684 0.19158049 0.15544812 0.16816048
0.15226197 0.18717484 0.14215642 0.30779707 0.13945626 0.15635264 0.18048087 0.12509039
0.17531492 0.29967293 0.23143665 0.16493405 0.20106018 0.1819127 0.14732921 0.114219494
0.16954072 0.38413018 0.4837301 0.22047009 0.13952406 0.1422468 0.24637997 0.1285787
0.082098305 0.24369131 0.17630614 0.12272542 0.37878734 0.13035484 0.23362447 0.1367072
0.2303582 0.08287924 0.11892363 0.29164788 0.13706736 0.22731884 0.25602758 0.1308147
0.11770872 0.41477725 0.202477 0.10723669 0.08266019 0.14927831 0.29648942 0.14692584
0.14298119 0.11747787 0.2340263 0.15394111 0.14472741 0.24878721 0.294137 0.15571494
0.32968852 0.12326512 0.14842123 0.14671811 0.2043089 0.13817427 0.15750459 0.13867424
0.14852801 0.28773648 0.18209845 0.21570382 0.43032384 0.18174851 0.3673902 0.24472255
0.17655344 0.17431514 0.26219124 0.07738662 0.22682591 0.14295642 0.13311234 0.12803446
0.11309589 0.32244727 0.16181892 0.14541093 0.17564902 0.19106469 0.14303468 0.36825114
0.13493453 0.23519345 0.16964573 0.18868467 0.11775106 0.16448928 0.15269971 0.13885002
0.15642145 0.16877042 0.14891772 0.15835364 0.19825792 0.18717091 0.20027587 0.12162006
0.16683476 0.5046898 0.32707703 0.21535923 0.22017394 0.10685841 0.17522354 0.12875858
0.13508058 0.2129894 0.11402051 0.15746273 0.3028233 0.16373333 0.22950485 0.15214364
0.25815362 0.14793529 0.12794816 0.4702212 0.17667699 0.33870345 0.20588614 0.13956235
0.22736543 0.26773098 0.22264369 0.12277782 0.21520181 0.16664867 0.13918315 0.61381316
0.15354869 0.14611405 0.215779 0.14000548 0.11599606 0.1456579 0.19663957 0.4089005
0.18917184 0.4505529 0.12760739 0.3687715 0.12794057 0.14526142 0.19872077 0.14889811
0.21082267 0.2056746 0.19220753 0.16099016 0.17579225 0.23582125 0.1690765 0.21359704

fc2.weight f4 [128, 256]
00000000: 45da 88bb 4e31 6a3d 4bb8 8dbd 31a9 a0bd
00000010: c11f c9bb f650 0f3c eb5d 0f3c 272d da3b
00000020: 4756 103c f9ae 58bc 39de 703c 9593 eb3c
00000030: 6643 a9ba 1dbc 71bc aa06 f0bb 5785 bfbd
00000040: 4863 203c b0b9 1bbc 1428 3b3d 2d46 823d
00000050: 85ba 06bd f0ea 0c3b 38cd ef3c 3296 5f3c
00000060: 2252 c6ba dc6d 7b3d 2857 ae3b 2b28 783b
00000070: 8eb9 043d 5bc8 d83c 8f20 ccbd dab0 07bd
00000080: 26c5 113c 0430 10bc c39b 5f3c fefc cfbd
00000090: 20d8 a1bc a6d4 f13c 3a34 8e3c 11a7 023c
000000a0: 757e b1bd 513e f4bc 3911 d7bd c3e9 4f3c
000000b0: 4152 243a 64b2 dcbd a269 01bc 6e10 4dbd
000000c0: d526 933c 16a5 a4bb 488c b8bb a37f 8a3c
000000d0: 7ca5 12be 52fe 3dba bd63 093c 376a 0b3d
000000e0: ce36 2f3c bc15 d2bc 02f3 15be ecf3 0d3d
000000f0: bf3a 9cbd 7cc9 873c 71ba 8a3c e667 82bd
00000100: 264a cdbb 6c8b 46bc 319b 723c 8c5e 99bd
00000110: 3134 b7bd f0a8 f6bb 39e3 d0bc 5a2a b6bd
00000120: d6bf cabc 82f7 393c bcf6 a0bd a759 433c
00000130: bfc0 9bbb 8729 ffba 87a0 0bbc 1983 243d
00000140: 31f0 8c3c 2bb8 2cba 2628 d33b ba78 283d
00000150: 02f1 a6bb 1d3b 15bd 31eb cd3b f2a3 cabb
00000160: 062b 66bc 2623 95bd 5888 3dbd ca28 473b
00000170: 24d3 0dbc 1c86 ec3b 38bf babc d9c4 99bd
00000180: 0ef1 e13c 0bc9 a7bd 8d0a da3b 9f1f 873b
00000190: a84c fc3c 5d49 d0bb 5062 353c b7fd 3bbb
000001a0: beff 2dbc 7ce7 e03b 0d3a c3bb 6a7c d9bd
000001b0: 0897 0e3d c83e f9bb 28ca 373d 6772 d03c
000001c0: ffd1 f23c 3254 083a d640 30bb f7f4 babd
000001d0: 3b42 ee3c 6adf 89bd 0a3f 193c 4751 333d
000001e0: 5182 04be 43f1 cfbc 4ae0 1f3c 0640 713d
000001f0: 888f dd3b 4055 f93b 4ed5 19bb e2b1 6f3c
00000200: cfb9 f53b 5d44 383c 133d ccbd 1828 613d
00000210: d43d 40bd f84b aebc 7dfd c4bd a7ea 4e3c
00000220: 7a98 943c deac 95bc af46 73bd 7251 92bc
00000230: c495 333d 58dc 6c3c 6b2b 0fbc d9c5 fe39
00000240: cd37 2f3b 49de 583c d651 95bc 4628 22bd
00000250: e3b8 143c 9288 aebb fb7c 7dbd 0479 483c
00000260: f24f 183c 3180 52bc af9e f83c 1790 bf3c
00000270: 3960 003d 0661 dfbd 190a c4ba 44dd bdbd
00000280: cc98 5b3c 8bd4 11bd 84d7 3f3c 2295 26bd
00000290: cf6a 02bc 3d48 fcbb 35ce bcbb 3c24 bcbb
000002a0: d634 a13b 7084 983b 0d97 a9bc c27e e73c
000002b0: 9a5b e8bc 0f99 693b 7cd2 7cbd db9c 283d
000002c0: a246 be3c eedf 4ebc f231 65bc 039c 30bc
000002d0: b253 12bc 16a0 d83c b5c2 2a3c b54b efbb
000002e0: 895c 163d 6443 7a3b 07cb 103c 617e 47bd
000002f0: 0e97 1f3a 4376 c83c 7c59 86bc b100 01bd
00000300: 1ff7 2c3d 5f91 4ebd 15b1 fcbc f170 b93d
00000310: 343f dbba a1ab 023d 5197 94bb a01b aebc
00000320: e77e 433c b6df e0bb b948 8fbc f7a0 e8bc
00000330: 579f 1dbc cc77 943c 10e6 7cbb f372 3d3c
00000340: 2e9a ac3c 91e1 b3bd f95d 50bc 1483 383d
00000350: 2332 073c 7b4f 273c 20fb 4c3c e59f 1d3d
00000360: 2f29 7d3c e2a1 8cbc 3d24 bdbd adc9 0b3b
00000370: 5cf4 3c3c c3fc 0b3b cc87 11bc a4ee 383c
00000380: 6fa2 a2bd 15ea 23bd 8862 46bd bbb9 76bc
00000390: c6e8 45bc 41d8 45bd 2ac4 c4bd a818 debb
000003a0: 5346 b5bc ace1 f83c dd94 a93d b648 ce3c
000003b0: fdfd 0abe c59c f9bd 4d07 833c 7c8f 8ebd
000003c0: 123b e13b bd3f 6abc f284 5abd 19be 18bc
000003d0: 1582 86bc 20dd 76bc 57ef 643c d0d5 e83c
000003e0: 0249 403c b840 19bd 62b4 b1bd 0b4f b0bc
000003f0: 539c db3c 6ef2 1fbd 1d71 2f3c ee2d e0bd
-0.0041764104 0.057175927 -0.06919917 -0.07844771 -0.0061378186 0.00874733 0.008750419 0.0066582146
0.008809633 -0.0132253105 0.0147014195 0.028756896 -0.0012913763 -0.014754322 -0.007325013 -0.093516044
0.0097892955 -0.009504721 0.04569252 0.06361041 -0.032892723 0.0021502338 0.02927266 0.013646649
-0.0015130679 0.061384067 0.0053204484 0.003786574 0.03240352 0.026462724 -0.099671476 -0.033127643
0.0088971015 -0.00880051 0.013647976 -0.10155676 -0.019756377 0.029520344 0.017358888 0.007974402
-0.08666698 -0.029814871 -0.10501332 0.0126900105 0.00062683603 -0.10776213 -0.00789872 -0.050064497
0.017962852 -0.0050245626 -0.005631957 0.016906565 -0.1432094 -0.00072476745 0.008385596 0.03403684
0.010694219 -0.02564513 -0.14643481 0.03465645 -0.076283924 0.016575567 0.016934605 -0.06367473
-0.0062649427 -0.012118202 0.014807508 -0.074887365 -0.089455016 -0.007527463 -0.025498973 -0.08894797
-0.024749678 0.011350514 -0.07859561 0.01192323 -0.0047532017 -0.0019467332 -0.008522159 0.040164087
0.017204376 -0.00065887225 0.006443995 0.04113076 -0.0050946483 -0.036433328 0.0062841405 -0.0061840946
-0.0140483435 -0.07282095 -0.046272606 0.0030389302 -0.008656297 0.0072181355 -0.022796258 -0.07508249
0.027580764 -0.08192643 0.00665409 0.0041236426 0.030798271 -0.006356402 0.011070803 -0.0028685161
-0.010620056 0.0068635326 -0.005957848 -0.10619433 0.034812003 -0.007606361 0.044870526 0.025445176
0.02964115 0.00052005344 -0.0026894114 -0.091287546 0.029084316 -0.06732066 0.009353409 0.043778684
-0.12940337 -0.025383597 0.0097580645 0.058898948 0.006761495 0.0076090395 -0.0023473087 0.014629813
0.0074989568 0.011246768 -0.099725865 0.054969877 -0.046933964 -0.02127646 -0.096186616 0.012629188
0.018139113 -0.018270906 -0.05939358 -0.017861102 0.043844 0.014456831 -0.008738379 0.00048594063
0.002673614 0.013236591 -0.018227499 -0.03958919 0.009077284 -0.005326339 -0.06188677 0.012235884
0.009296404 -0.012847946 0.030349104 0.023384137 0.031341765 -0.109071776 -0.0014956623 -0.09270719
0.013403129 -0.035603087 0.011709098 -0.040669568 -0.007960035 -0.007699041 -0.0057618865 -0.005741624
0.0049196286 0.0046544597 -0.02070191 0.028258685 -0.028363992 0.0035644209 -0.06172417 0.041165214
0.02322704 -0.012626631 -0.013988959 -0.010779384 -0.008931087 0.026443522 0.010422398 -0.007302726
0.036709342 0.003818714 0.008837468 -0.04870451 0.00060878776 0.024470454 -0.016400091 -0.0314948
0.04222786 -0.050431605 -0.030846158 0.09054745 -0.001672721 0.03190196 -0.00453464 -0.021253407
0.011932111 -0.006862606 -0.017490732 -0.028397067 -0.009620509 0.01812353 -0.0038589276 0.011563051
0.021069612 -0.08783258 -0.012717717 0.04504688 0.0082517 0.010211821 0.012511045 0.038482565
0.015451713 -0.017167035 -0.092354275 0.0021329925 0.011532869 0.0021360375 -0.008882474 0.011287365
-0.07941138 -0.04001816 -0.04843381 -0.01505893 -0.012079423 -0.04830194 -0.09607728 -0.0067778416
-0.02212826 0.030381046 0.082803465 0.025181156 -0.13573451 -0.121881045 0.015994692 -0.06960961
0.006873497 -0.014297423 -0.053349443 -0.009322667 -0.01641945 -0.015067369 0.013973079 0.028422266
0.011736156 -0.037415236 -0.086769834 -0.021522066 0.02680794 -0.03904956 0.010708121 -0.109462604

fc2.bias f4 [128]
00000000: 8da1 9ab6 2bf1 1035 cfb7 52b6 4d72 6db6
00000010: 9fb6 ba36 0287 38b7 c309 f836 6440 74b5
00000020: 0179 0635 fc65 4536 89c4 f4b6 8637 fd36
00000030: 6390 44b7 9739 75b6 7d6c 8a35 9c95 3737
00000040: 7917 9b36 4f1f 0637 b862 2436 119f 67b6
00000050: 365c a433 8865 a336 e246 dcb5 3bf4 21b7
00000060: f35e 5db7 faf8 42b5 e1ec d1b7 dd02 9d36
00000070: 002b 02b5 f849 2637 8ccf dcb6 7b32 edb6
00000080: ac0e 6036 dcf3 4935 e57b c135 f5d8 0c35
00000090: 31b8 2536 435f 3e36 ff01 1c37 60c9 2137
000000a0: 6458 17b6 6fe2 24b6 9df5 21b6 c6ae db36
000000b0: c4f5 f135 64f3 81b7 1702 3436 7fb1 54b4
000000c0: 275f 3ab6 3551 e936 d24c b334 0e27 ba36
000000d0: 7da8 e6b5 9eca 7d36 5015 98b5 a3c0 b436
000000e0: ac58 4f37 3259 e936 2a01 4d37 4310 2cb6
000000f0: bb29 19b6 3acf 96b7 5b19 a5b6 1d91 a0b6
00000100: af23 80b7 a5ae 7db6 7fb6 9e36 0650 0337
00000110: 404c 4c36 dae2 a9b6 8a70 d7b7 c2dc cf35
00000120: 394e 4937 c353 e6b5 2f07 ddb6 26c0 f5b6
00000130: a921 b3b6 87bf 29b7 92c0 2436 945d 95b6
00000140: 72e0 abb6 76ee 82b5 3636 fa36 a4ec a8b6
00000150: b25d 3936 1e82 bcb4 8649 4b36 f896 e436
00000160: b335 5737 0ee5 13b6 f614 0ab7 fa63 d5b7
00000170: c9be aeb6 8465 3b36 c9a1 feb6 2ea3 5036
00000180: e0cc 6eb6 f026 30b6 d02c 83b7 f445 c4b4
00000190: 4d36 c3b6 bb9e 4ab6 f1b9 9e36 7100 b0b6
000001a0: a88e 1eb6 0814 17b7 777e 1db7 7be1 d6b5
000001b0: 492c ca35 57a2 4136 555a f2b6 eec8 18b6
000001c0: 530e 63b5 bc77 9137 9a3c c2b5 4cf3 9436
000001d0: c96f 0837 f949 bfb3 14b6 a3b5 2478 f634
000001e0: 5996 8237 d2c3 79b6 6f3a 01b7 931c 08b7
000001f0: 0b66 3635 50ac a2b6 3fe8 0eb7 c8da 39b5
-4.6083646e-06 5.3995126e-07 -3.139943e-06 -3.5382284e-06 5.564492e-06 -1.0998689e-05 7.3921124e-06 -9.0990784e-07
5.0094974e-07 2.941465e-06 -7.2946464e-06 7.5464513e-06 -1.1716128e-05 -3.6541367e-06 1.0313375e-06 1.0942484e-05
4.6220925e-06 7.994312e-06 2.4495366e-06 -3.4514271e-06 7.653618e-08 4.8695983e-06 -1.6411907e-06 -9.653212e-06
-1.3194734e-05 -7.263294e-07 -2.5025047e-05 4.679298e-06 -4.8491347e-07 9.911593e-06 -6.5806726e-06 -7.069027e-06
3.3387141e-06 7.5233197e-07 1.4415679e-06 5.246978e-07 2.469413e-06 2.8367656e-06 9.298789e-06 9.643234e-06
-2.2552204e-06 -2.4569706e-06 -2.4133835e-06 6.547055e-06 1.8027426e-06 -1.5491336e-05 2.6823307e-06 -1.9808611e-07
-2.7771546e-06 6.953395e-06 3.3397242e-07 5.5477785e-06 -1.7185372e-06 3.7817877e-06 -1.1331085e-06 5.386844e-06
1.2358807e-05 6.954325e-06 1.2219223e-05 -2.5639463e-06 -2.2823067e-06 -1.797789e-05 -4.920335e-06 -4.785265e-06
-1.5275406e-05 -3.7801594e-06 4.7300123e-06 7.82684e-06 3.0442752e-06 -5.0630015e-06 -2.5682402e-05 1.5486951e-06
1.1998746e-05 -1.7160713e-06 -6.5871495e-06 -7.323938e-06 -5.3385343e-06 -1.0117778e-05 2.4549995e-06 -4.45144e-06
-5.122326e-06 -9.755156e-07 7.4568916e-06 -5.0343388e-06 2.7621686e-06 -3.5112402e-07 3.0292153e-06 6.8125046e-06
1.2827501e-05 -2.2038034e-06 -8.230321e-06 -2.5438134e-05 -5.2078144e-06 2.7924261e-06 -7.588624e-06 3.1089398e-06
-3.5584017e-06 -2.6248708e-06 -1.5637284e-05 -3.6558743e-07 -5.8177743e-06 -3.019274e-06 4.7304134e-06 -5.24526e-06
-2.3626872e-06 -9.004965e-06 -9.387374e-06 -1.6009866e-06 1.5063061e-06 2.8853735e-06 -7.222678e-06 -2.2766721e-06
-8.4584934e-07 1.7341103e-05 -1.4471764e-06 4.439067e-06 8.132259e-06 -8.907586e-08 -1.2197438e-06 4.5908484e-07
1.5567219e-05 -3.7217874e-06 -7.702604e-06 -8.112885e-06 6.7948775e-07 -4.848036e-06 -8.517934e-06 -6.923624e-07
