feedforward_nn/model_saves/fnn_(128, 128)_8.pth (torch, 229892 bytes, 19 tensors)

fc1.weight f4 [256, 48]
-0.08859914 -0.11270861 0.017482704 -0.039693195 -0.09758412 -0.014908811 -0.077535555 0.0713508
-0.0990678 0.059240744 -0.014538 -0.05918123 -0.032481074 0.10528212 -0.04255934 -0.15558033
-0.11919607 0.13237351 0.14657016 -0.020779097 0.05302897 -0.11108567 0.13629147 -0.15550506
-0.14389895 -0.083951466 0.035193652 0.026209358 0.04795163 -0.052346136 0.06072615 0.1404847
-0.110202946 -0.039386414 0.08519721 -0.046356905 -0.16902052 -0.10520099 -0.06104262 -0.07794376
-0.037407976 -0.041457545 0.04477809 0.09074069 0.08326772 0.024839692 0.05511957 -0.069801554
-0.04042324 0.021244753 -0.08475054 -0.120605245 0.03622651 -0.12904489 -0.11060446 -0.10700175
-0.14274412 0.037822954 -0.10444761 -0.037884593 -0.06793771 0.0023869006 -0.028385732 0.0829788
0.07202477 -0.065062314 0.0014461678 -0.10385523 0.015992908 0.0007919391 -0.010295876 0.10424148
-0.027144533 0.057379816 0.0026073228 -0.042144127 0.070783965 -0.02565632 -0.022381112 -0.08255076
0.09630447 -0.1802495 -0.14809097 0.048773725 0.023169622 -0.081942335 0.11025795 -0.00411248
0.07914935 0.10413323 -0.035598442 -0.12789772 0.022578452 0.1115572 -0.055204254 0.07616635
-0.14453006 -0.08279508 0.03864313 -0.05887809 0.105023384 -0.026510995 -0.0068990984 -0.24793245
0.033714637 -0.1298695 -0.091602266 -0.06763232 0.030886995 0.081990995 -0.0056726797 0.031705968
-0.109173045 -0.07254393 -0.039976764 -0.028484913 -0.076452516 -0.116076924 -0.017315673 0.11617662
0.06533356 0.060078036 -0.081338346 -0.1440421 0.07042086 -0.042782713 -0.02849357 -0.078218885
-0.035512846 -0.10832156 0.13619412 -0.088221304 0.070667796 -0.052644648 -0.10449516 -0.12978873
-0.06298427 0.093677536 -0.042710543 0.06368416 0.0062863003 -0.026229177 0.10926573 -0.05901792
0.06291308 0.02739138 0.021869855 -0.1458882 -0.16512217 0.0073475656 -0.005239446 0.034280516
-0.08948886 -0.13977036 -0.021949166 0.14044642 -0.024873624 0.021275477 0.024878375 -0.09467958
-0.06457658 -0.04230868 -0.04598571 0.03498498 0.0016065293 -0.08264785 -0.13244326 -0.033710893
-0.038780563 0.07788587 -0.086524524 0.096763104 -0.13377629 0.041359916 -0.06296498 -0.028795896
-0.06024337 -0.0024316292 -0.12883481 -0.028787041 0.08503015 -0.034778453 0.023026453 0.09045723
0.03351775 0.032702815 0.10306401 -0.046430517 0.0044651814 -0.0806058 -0.029734276 0.05552629
0.055830237 0.08001332 -0.17429246 -0.015487434 -0.2533013 -0.02165968 0.03287711 0.1429029
0.08663592 0.0090616355 -0.023901986 0.04330021 0.08235312 -0.064068735 -0.060329773 -0.017483503
-0.10467026 0.071681716 -0.03859785 0.09054001 0.104051575 -0.12594119 0.05447436 0.002771053
0.110519 0.0005976597 -0.05421252 0.103779845 -0.053739637 -0.03195347 -0.0012285864 0.07131655
0.029727861 0.057266317 -0.044495042 -0.027723582 -0.010401768 0.07563407 0.1454168 -0.06736978
0.05548027 0.0010870319 0.14472154 0.04445072 -0.04349542 -0.17106318 0.054368004 0.03391652
-0.020383287 -0.13955954 -0.008940237 -0.15989213 0.11021936 -0.16345023 0.103458144 -0.13859989
-0.040209383 -0.01936084 0.16312176 0.10660576 0.0020552329 -0.057476293 -0.033196643 0.021877727
00000000: 7773 b5bd c6d3 e6bd e337 8f3c 5595 22bd
00000010: 2fda c7bd 1644 74bc f6ca 9ebd 5e20 923d
00000020: 0fe4 cabd 6ca6 723d cb30 6ebc 0468 72bd
00000030: e00a 05bd 279e d73d b452 2ebd 7350 1fbe
00000040: 121d f4bd ec8c 073e 7d16 163e ed38 aabc
00000050: e834 593d e280 e3bd fe8f 0b3e b83c 1fbe
00000060: 3f5a 13be bfee abbd 3827 103d 02b5 d63c
00000070: ee68 443d e768 56bd fcbb 783d 39db 0f3e
00000080: 15b2 e1bd a653 21bd e07b ae3d bde0 3dbd
00000090: b713 2dbe 9e73 d7bd d407 7abd faa0 9fbd
000000a0: 1b39 19bd 63cf 29bd 3b69 373d 41d6 b93d
000000b0: 4488 aa3d 9c7c cb3c 0fc5 613d 1ef4 8ebd
000000c0: d792 25bd 7a09 ae3c b191 adbd e2ff f6bd
000000d0: 4062 143d 5824 04be 9784 e2bd bc23 dbbd
000000e0: 842b 12be 3eec 1a3d a1e8 d5bd e02c 1bbd
000000f0: ed22 8bbd 8c6d 1c3b 3289 e8bc caf0 a93d
00000100: b981 933d 643f 85bd 578d bd3a 0db2 d4bd
00000110: 8f03 833c 229a 4f3a 09b0 28bc 8f7c d53d
00000120: 365e debc 1907 6b3d 9edf 2a3b 529f 2cbd
00000130: 2ff7 903d 342d d2bc 9858 b7bc 5f10 a9bd
00000140: 473b c53d 5393 38be 29a5 17be f5c6 473d
00000150: 38ce bd3c 62d1 a7bd ecce e13d fcc1 86bb
00000160: 0e19 a23d ce43 d53d accf 11bd 9ff7 02be
00000170: 72f6 b83c 1a78 e43d db1d 62bd 1afd 9b3d
00000180: b0ff 13be 7890 a9bd 4248 1e3d 272a 71bd
00000190: 8016 d73d 962d d9bc d511 e2bb 01e2 7dbe
000001a0: 5c18 0a3d 83fc 04be f899 bbbd d082 8abd
000001b0: b906 fd3c e5ea a73d e3e1 b9bb 1ede 013d
000001c0: 1e96 dfbd e991 94bd adbe 23bd 3159 e9bc
000001d0: 2393 9cbd bdb9 edbd 99d9 8dbc 02ee ed3d
000001e0: 9acd 853d 6314 763d b894 a6bd c67f 13be
000001f0: d038 903d ed3c 2fbd 596b e9bc 3931 a0bd
00000200: eb75 11bd b2d7 ddbd 7976 0b3e 5fad b4bd
00000210: 47ba 903d eaa1 57bd 8f01 d6bd 56e7 04be
00000220: e6fd 80bd 02da bf3d 40f1 2ebd d76c 823d
00000230: 4ffd cd3b 92de d6bc b6c6 df3d c6bc 71bd
00000240: 93d8 803d e363 e03c 6928 b33c b763 15be
00000250: c915 29be d9c3 f03b a9af abbb ba69 0c3d
00000260: ef45 b7bd f61f 0fbe bdce b3bc 30d1 0f3e
00000270: c5c3 cbbc e949 ae3c bccd cb3c 5ee7 c1bd
00000280: ba40 84bd de4b 2dbd 835b 3cbd 694c 0f3d
00000290: 2e92 d23a 4743 a9bd 359f 07be 6f14 0abd
000002a0: 5ed8 1ebd a182 9f3d c533 b1bd bc2b c63d
000002b0: a7fc 08be 0469 293d c9f3 80bd 5fe5 ebbc
000002c0: c0c1 76bd f85b 1fbb 46ed 03be cdd2 ebbc
000002d0: 4a24 ae3d da73 0ebd f9a1 bc3c a441 b93d
000002e0: e949 093d 63f3 053d 3913 d33d ed2d 3ebd
000002f0: a850 923b a714 a5bd 4c95 f3bc 896f 633d
00000300: 3fae 643d 06de a33d b979 32be 02bf 7dbc
00000310: b5b0 81be a46f b1bc 26aa 063d 2355 123e
00000320: 2c6e b13d 4177 143c 19ce c3bc 905b 313d
00000330: c1a8 a83d 7836 83bd 5a1c 77bd 9039 8fbc
00000340: 5c5d d6bd ddcd 923d c718 1ebd 0a6d b93d
00000350: fe18 d53d baf6 00be 8220 5f3d 8e9a 353b
00000360: c957 e23d 43ac 1c3a f30d 5ebd 878a d43d
00000370: 181e 5cbd a4e1 02bd 8508 a1ba 690e 923d
00000380: d887 f33c 1690 6a3d 6f40 36bd 911c e3bc
00000390: 2d6c 2abc 09e6 9a3d 24e8 143e 2bf9 89bd
000003a0: 483f 633d bd7a 8e3a e231 143e f511 363d
000003b0: 4128 32bd 302b 2fbe fcb0 5e3d 0dec 0a3d
000003c0: dafa a6bc b2e8 0ebe 127a 12bc c3ba 23be
000003d0: b0ba e13d 7f5f 27be dde1 d33d 21ed 0dbe
000003e0: 98b2 24bd a09a 9ebc 6409 273e 1f54 da3d
000003f0: 16b1 063b 436c 6bbd 34f9 07bd eb38 b33c

fc1.bias f4 [256]
1.5253876e-06 -6.488863e-07 1.7709278e-06 9.737141e-08 1.042546e-06 1.9219115e-06 2.094045e-07 3.9860507e-07
-8.934396e-07 -2.7537078e-06 7.360333e-06 -6.2148015e-06 -1.5241373e-05 1.3394204e-06 1.0089991e-05 -7.525238e-07
1.0057623e-06 -8.580018e-07 9.795441e-07 -5.154863e-07 4.6977465e-07 2.5961808e-09 4.215459e-06 7.740604e-07
1.4773921e-06 8.1648125e-07 6.6149806e-07 -8.1547995e-07 -6.835529e-07 -8.784135e-07 -1.9746656e-06 1.239943e-06
-1.8887401e-06 1.3138705e-06 3.6456166e-07 -8.8676194e-07 -3.99236e-07 -2.6130415e-06 2.6730967e-07 -2.817736e-06
2.722673e-06 1.9917798e-06 -2.2140912e-07 1.7536375e-06 -2.6884115e-06 -5.2416153e-06 1.1394457e-08 1.0928754e-06
-2.7052982e-07 7.5542903e-06 -1.1255428e-06 3.719714e-07 1.002472e-06 5.3286527e-08 -9.378937e-06 1.3826605e-06
-7.518135e-07 -1.2742119e-06 5.261139e-08 -2.563396e-06 -7.6839086e-08 9.96902e-08 -1.0250938e-06 -4.6896093e-07
-3.3999365e-06 1.8566942e-06 -2.380071e-06 2.7336583e-07 -1.5913339e-07 -2.1119893e-06 8.661719e-06 1.3559796e-06
9.32598e-07 -9.432418e-07 2.2022996e-07 1.5678678e-07 1.5108359e-06 -6.752277e-07 2.8572813e-06 -4.6203908e-07
-6.4738236e-07 5.2015957e-06 -5.691813e-09 9.999566e-07 -4.633536e-06 -2.5656182e-06 -1.9263011e-06 4.5602806e-07
-1.2517066e-07 -2.1226438e-06 8.9320885e-08 1.9325219e-06 1.7282406e-07 3.280319e-07 -1.1628633e-06 -1.0869946e-07
-3.7591185e-06 1.1819376e-06 -2.5414394e-08 1.9184517e-06 4.8934135e-07 4.1690073e-06 2.0519026e-06 3.6388028e-06
1.0046629e-06 -8.226212e-07 -1.5821528e-06 -5.3632407e-06 1.0733387e-06 -1.231193e-07 2.0987588e-07 -4.3042698e-07
3.7781004e-07 1.0638518e-06 5.4857804e-07 -1.0195973e-06 3.4820602e-07 -1.0734915e-06 9.692609e-07 -9.0042045e-07
1.1134767e-06 -2.9886877e-07 -3.0339024e-08 5.120038e-07 7.129433e-06 -3.833081e-07 6.015318e-07 5.7647236e-07
6.586363e-07 -3.2272492e-06 1.4864324e-06 -2.8776324e-07 7.2366324e-06 1.3096562e-07 -2.1140552e-06 -4.4175027e-07
6.415009e-07 5.2206096e-06 -1.6345174e-06 2.3392592e-07 -1.1382682e-06 -1.0060714e-05 1.6983394e-06 -9.1513875e-06
-3.2118314e-06 -6.7174346e-07 3.0051679e-06 -1.5568154e-06 -3.0773806e-06 -2.6486166e-06 1.2184664e-07 -4.959072e-07
-3.461656e-06 -1.6409173e-06 1.8405475e-06 -8.01488e-07 4.3588798e-07 1.6050901e-06 4.026952e-06 2.9999663e-07
5.29682e-07 -1.2424766e-06 1.0318035e-06 -2.2751121e-06 -5.7890693e-06 7.3120276e-08 -1.1945662e-06 4.3630118e-07
-8.2713825e-07 1.2323595e-06 -3.415984e-08 1.8062838e-06 1.0024908e-06 4.6190476e-06 -1.3567063e-07 -1.6201906e-06
-5.512655e-07 -4.1841483e-07 5.136552e-07 7.184811e-08 9.0089934e-08 4.2225406e-07 1.1030198e-06 2.8497068e-06
-1.4080437e-06 5.761822e-07 6.1876403e-06 -3.4693182e-06 1.1765022e-06 2.7935766e-06 1.6991938e-06 2.6405317e-07
1.1447811e-06 -1.4121991e-06 -6.246273e-08 -3.7029504e-06 -7.260156e-08 2.3196291e-07 1.1815259e-06 -4.7166165e-07
-1.9047276e-07 -8.3887656e-08 -5.13667e-07 1.7841622e-07 -4.8715754e-07 -3.5530448e-07 -4.7235008e-07 -1.6010772e-06
2.3576658e-06 -1.1412915e-06 -4.4592434e-06 3.5756982e-06 -3.0781325e-07 -8.002447e-08 6.409551e-07 6.7798527e-07
-6.269667e-08 2.183827e-07 3.029288e-07 7.467539e-07 4.523548e-07 -4.7664327e-07 -4.3238725e-08 3.2517275e-07
-7.120857e-07 -3.5143924e-07 -9.2147826e-07 -1.2387205e-06 -4.519277e-06 9.163397e-07 1.528925e-06 -7.492632e-09
-8.6344876e-08 2.6024168e-07 9.2312376e-07 -5.8890564e-06 5.037381e-07 -4.5242555e-06 -4.6371065e-07 -3.0702154e-07
-1.0823218e-06 2.5915975e-07 -1.6925508e-06 1.593464e-07 -2.4282112e-06 -2.632749e-06 -1.2243917e-06 4.8272614e-07
-7.284449e-07 2.8964769e-06 5.171106e-07 -1.5098835e-06 -2.5707573e-06 -1.0197284e-07 8.938422e-08 1.0267154e-06
00000000: ebbb cc35 212f 2eb5 9eb0 ed35 801a d133
00000010: 9ced 8b35 30fa 0036 acd8 6034 ddff d534
00000020: b4d4 6fb5 57cc 38b6 c7f8 f636 bd88 d0b6
00000030: 33b5 7fb7 22c6 b335 2e48 2937 0b01 4ab5
00000040: bbfd 8635 6f51 66b5 e178 8335 f35f 0ab5
00000050: 5635 fc34 7f68 3231 8472 8d36 07c9 4f35
00000060: ce4a c635 2a2c 5b35 cd91 3135 5be7 5ab5
00000070: 667d 37b5 1ecc 6bb5 7f84 04b6 1e6c a635
00000080: 9e80 fdb5 3f58 b035 f9b8 c334 d109 6eb5
00000090: 9456 d6b4 b65b 2fb6 c382 8f34 5618 3db6
000000a0: 2ab7 3636 84aa 0536 7abc 6db4 875e eb35
000000b0: 8f6a 34b6 22e1 afb6 5ac1 4332 eaae 9235
000000c0: 563d 91b4 dc7a fd36 5b11 97b5 5cb3 c734
000000d0: ad8c 8635 28dd 6433 3a5a 1db7 da93 b935
000000e0: 3bd0 49b5 9605 abb5 d6f6 6133 cf06 2cb6
000000f0: bc02 a5b3 4415 d633 f495 89b5 80c5 fbb4
00000100: 772a 64b6 8733 f935 4fb9 1fb6 1dc3 9234
00000110: 41de 2ab4 b3bb 0db6 cd51 1137 1bff b535
00000120: a657 7a35 1533 7db5 5a78 6c34 3959 2834
00000130: edc7 ca35 4b41 35b5 b8bf 3f36 2b0e f8b4
00000140: c7c7 2db5 5e89 ae36 b791 c3b1 3f36 8635
00000150: c579 9bb6 fc2c 2cb6 9a45 01b6 05d4 f434
00000160: a666 06b4 be72 0eb6 add0 bf33 79b0 0136
00000170: 8491 3934 5c1c b034 ae13 9cb5 296e e9b3
00000180: 2a45 7cb6 11a3 9e35 d84e dab2 c0be 0036
00000190: 485b 0335 80e3 8b36 6bb3 0936 2832 7436
000001a0: f4d7 8635 19d2 5cb5 5b5a d4b5 e3f5 b3b6
000001b0: a30f 9035 c732 04b4 3e5a 6134 6f15 e7b4
000001c0: d1d5 ca34 abc9 8e35 ff41 1335 19d9 88b5
000001d0: 12f1 ba34 e314 90b5 8d17 8235 6cb4 71b5
000001e0: c572 9535 3674 a0b4 1c4e 02b3 a270 0935
000001f0: 5d39 ef36 77c9 cdb4 f378 2135 e1be 1a35
00000200: 24cd 3035 b893 58b6 6e81 c735 e17d 9ab4
00000210: 33d2 f236 8e9f 0c34 31df 0db6 b229 edb4
00000220: 9b33 2c35 b22c af36 9761 dbb5 112d 7b34
00000230: 99c6 98b5 70ca 28b7 7ff2 e335 e988 19b7
00000240: d88a 57b6 dc51 34b5 64ac 4936 c5f3 d0b5
00000250: ff84 4eb6 e3be 31b6 f3d4 0234 7c1e 05b5
00000260: cc4e 68b6 7d3d dcb5 bb08 f735 d625 57b5
00000270: fd03 ea34 7a6e d735 411f 8736 390f a134
00000280: 782f 0e35 2cc3 a6b5 807c 8a35 21ae 18b6
00000290: ba3f c2b6 4c06 9d33 fb54 a0b5 c73c ea34
000002a0: 8208 5eb5 8d67 a535 24b7 12b3 706f f235
000002b0: 528d 8635 51fd 9a36 dcac 11b4 5375 d9b5
000002c0: adfa 13b5 7fa2 e0b4 1ee2 0935 eb4a 9a33
000002d0: 7777 c133 28b2 e234 790b 9435 973d 3f36
000002e0: 03fc bcb5 f0aa 1a35 6d9f cf36 6fd2 68b6
000002f0: 4fe8 9d35 4879 3b36 db0f e435 31c3 8d34
00000300: 61a6 9935 cb8a bdb5 4023 86b3 3480 78b6
00000310: 21e9 9bb3 7b11 7934 ec94 9e35 af38 fdb4
00000320: c184 4cb4 ba25 b4b3 ede2 09b5 ad92 3f34
00000330: 36c5 02b5 adc0 beb4 4d97 fdb4 98e4 d6b5
00000340: 6438 1e36 7a2e 99b5 9ca0 95b6 07f6 6f36
00000350: 8841 a5b4 ebd9 abb3 190e 2c35 cbfe 3535
00000360: dca3 86b3 947c 6a34 38a2 a234 8a74 4835
00000370: 2cdb f234 5ae5 ffb4 7bb5 39b3 6793 ae34
00000380: 2826 3fb5 71ad bcb4 815b 77b5 1d42 a6b5
00000390: 4ba4 97b6 62fa 7535 7735 cd35 f2b8 00b2
000003a0: 996c b9b3 58b7 8b34 95cc 7735 9c9a c5b6
000003b0: 9e38 0735 0fcf 97b6 e8f3 f8b4 b8d4 a4b4
000003c0: 4b44 91b5 a522 8b34 9a2b e3b5 ce18 2b34
000003d0: 5af4 22b6 49ae 30b6 c755 a4b5 b094 0135
000003e0: 5a8a 43b5 1861 4236 92cf 0a35 34a7 cab5
000003f0: 4685 2cb6 29fc dab3 7ff3 bf33 accd 8935

bn1.weight f4 [256]
0.7989719 0.73895884 0.8094328 0.6463887 0.6757168 0.6437269 0.66627187 0.63702
0.73294324 0.76062703 0.77927876 0.7023877 0.7931369 0.70877874 0.75867134 0.7288373
0.7079801 0.71523726 0.59727293 0.66108423 0.62936705 0.698068 0.8067488 0.705231
0.71571195 0.69051206 0.71675676 0.7727654 0.7572645 0.7262399 0.6716037 0.75385904
0.8019513 0.6888275 0.72746223 0.74452204 0.65127003 0.7430331 0.6584472 0.6946913
0.6931272 0.6800377 0.692111 0.75700736 0.7959854 0.85291624 0.6500895 0.67002857
0.71678346 0.7577199 0.6916273 0.6979891 0.64533204 0.76004696 0.75441986 0.7939907
0.76084113 0.7982498 0.66619784 0.73806655 0.76467335 0.7522089 0.78751516 0.84645677
0.6970856 0.7909673 0.62467396 0.7147531 0.70092565 0.7451809 0.73277944 0.74115497
0.7017465 0.7140332 0.6838497 0.7551383 0.7371817 0.73005664 0.8214522 0.6784575
0.6928453 0.70764315 0.6605123 0.79648894 0.72246844 0.6877088 0.6623296 0.726808
0.66469884 0.7483152 0.717013 0.6958207 0.7425978 0.6168358 0.6768405 0.669194
0.7848778 0.75565493 0.65901536 0.6866235 0.695979 0.70727533 0.68280464 0.6951114
0.6946576 0.6356573 0.72161746 0.7521128 0.78906447 0.761619 0.66352665 0.7008798
0.61267394 0.6607389 0.7236208 0.783942 0.6572538 0.6879647 0.6982725 0.6888284
0.67526037 0.6813273 0.76212287 0.60785705 0.6649227 0.7941305 0.70365965 0.6732983
0.6594884 0.8086263 0.67476547 0.72020674 0.75755066 0.66402924 0.7537851 0.75308317
0.6329858 0.6719816 0.70944136 0.64726233 0.72402644 0.7454869 0.6806859 0.7844783
0.71353334 0.7234928 0.6600695 0.7089476 0.7800885 0.7510402 0.7463297 0.74737966
0.76222545 0.6806454 0.7430174 0.78853405 0.6735427 0.668987 0.6808182 0.75705904
0.7121231 0.69024646 0.7171547 0.73176616 0.7867579 0.76373106 0.72551054 0.6601848
0.67250234 0.68904245 0.78290385 0.73114246 0.7309469 0.62642384 0.68334335 0.7819314
0.6547843 0.72467136 0.7422852 0.745196 0.73794574 0.6456545 0.6533043 0.70187706
0.7298291 0.79016393 0.79279035 0.6472429 0.7241134 0.65759856 0.80541384 0.6661246
0.6577446 0.725666 0.7388904 0.82922727 0.6916499 0.6418245 0.7175037 0.7501244
0.74325454 0.74528855 0.71216106 0.67170835 0.76157767 0.73081195 0.7458148 0.6242233
0.65543616 0.65377843 0.7241858 0.67836887 0.6588252 0.75581676 0.6803974 0.70027745
0.6858569 0.6687449 0.73789126 0.6438286 0.7116091 0.7062456 0.68872386 0.64476967
0.66226625 0.7119389 0.6777436 0.66974694 0.66538393 0.68295676 0.7017718 0.60689443
0.7200286 0.72130185 0.8360509 0.7787303 0.674621 0.7186126 0.6269468 0.68189454
0.7448655 0.68338525 0.7534577 0.782337 0.7017023 0.7568074 0.67256415 0.6771155
0.6876033 0.7438081 0.5955341 0.776313 0.7633074 0.5867718 0.7321775 0.7043947
00000000: 6c89 4c3f 682c 3d3f fd36 4f3f bb79 253f
00000010: c7fb 2c3f 49cb 243f cb90 2a3f be13 233f
00000020: 2ba2 3b3f 74b8 423f d07e 473f aecf 333f
00000030: 050b 4b3f 8672 353f 4938 423f 1595 3a3f
00000040: 2f3e 353f ca19 373f e1e6 183f d13c 293f
00000050: 331e 213f 96b4 323f 1787 4e3f 058a 343f
00000060: e638 373f 66c5 303f 5f7d 373f f4d3 453f
00000070: 16dc 413f dcea 393f 38ee 2b3f e8fc 403f
00000080: ae4c 4d3f 0057 303f f73a 3a3f ff98 3e3f
00000090: a2b9 263f 6b37 3e3f ff8f 283f 4ad7 313f
000000a0: c970 313f f316 2e3f 302e 313f 3ccb 413f
000000b0: b3c5 4b3f b858 5a3f 446c 263f fe86 2b3f
000000c0: 1f7f 373f eef9 413f 7d0e 313f 6aaf 323f
000000d0: 7b34 253f 7092 423f a921 413f f942 4b3f
000000e0: 7cc6 423f 195a 4c3f f18b 2a3f eef1 3c3f
000000f0: a2c1 433f c390 403f 989a 493f 64b1 583f
00000100: 3474 323f d57c 4a3f a2ea 1f3f 0ffa 363f
00000110: dd6f 333f 2dc4 3e3f 6f97 3b3f 55bc 3d3f
00000120: a9a5 333f e1ca 363f c610 2f3f be50 413f
00000130: f1b7 3c3f fee4 3a3f b14a 523f 64af 2d3f
00000140: 4f5e 313f 1a28 353f 5617 293f b3e6 4b3f
00000150: b1f3 383f af0d 303f 6f8e 293f 1710 3a3f
00000160: b429 2a3f 9691 3f3f 2a8e 373f 4e21 323f
00000170: e41a 3e3f f3e8 1d3f 6b45 2d3f 4c50 2b3f
00000180: c0ed 483f 9a72 413f 3bb5 283f 8fc6 2f3f
00000190: ae2b 323f ff0f 353f 49cc 2e3f d2f2 313f
000001a0: 15d5 313f 70ba 223f ecbb 383f 778a 403f
000001b0: 2100 4a3f 76f9 423f e2dc 293f dc6c 333f
000001c0: 33d8 1c3f 2f26 293f 363f 393f 6cb0 483f
000001d0: c941 283f 741e 303f fdc1 323f 0f57 303f
000001e0: dddd 2c3f 776b 2e3f 7c1a 433f 859c 1b3f
000001f0: 6038 2a3f 234c 4b3f 0a23 343f 475d 2c3f
00000200: 3bd4 283f 2202 4f3f 6ebd 2c3f 785f 383f
00000210: d7ee 413f d2fd 293f 0ff8 403f 0fca 403f
00000220: 5b0b 223f fc06 2c3f f39d 353f fcb2 253f
00000230: cc59 393f 3bd8 3e3f 6e41 2e3f 92d3 483f
00000240: 1faa 363f d336 393f 51fa 283f 977d 353f
00000250: e1b3 473f 2c44 403f 770f 3f3f 4654 3f3f
00000260: 3521 433f c73e 2e3f 6336 3e3f 5edd 493f
00000270: 4b6d 2c3f bb42 2b3f 1a4a 2e3f 9fce 413f
00000280: b34d 363f feb3 303f 7397 373f 0755 3b3f
00000290: f768 493f e183 433f 0fbb 393f df01 293f
000002a0: 1d29 2c3f 1665 303f 636c 483f 272c 3b3f
000002b0: 561f 3b3f 505d 203f 97ef 2e3f a82c 483f
000002c0: f29f 273f 1084 393f 6706 3e3f 2ac5 3e3f
000002d0: 03ea 3c3f 9d49 253f f33e 273f 37ae 333f
000002e0: 14d6 3a3f 2f48 4a3f 4ff4 4a3f b6b1 253f
000002f0: 7f5f 393f 6158 283f 9a2f 4e3f 2487 2a3f
00000300: f361 283f 3fc5 393f ec27 3d3f 3d48 543f
00000310: f80f 313f 9c4e 243f 53ae 373f 2708 403f
00000320: ee45 3e3f 3bcb 3e3f 3050 363f 14f5 2b3f
00000330: c1f6 423f 7e16 3b3f b8ed 3e3f 19cd 1f3f
00000340: aaca 273f 065e 273f 3e64 393f 95a9 2d3f
00000350: c5a8 283f 357d 413f 862e 2e3f 6245 333f
00000360: 5194 2f3f de32 2b3f 71e6 3c3f f3d1 243f
00000370: 042c 363f 83cc 343f 3550 303f a00f 253f
00000380: 488a 293f a141 363f 9b80 2d3f 8974 2b3f
00000390: 9a56 2a3f 41d6 2e3f 51a7 333f 6f5d 1b3f
000003a0: cb53 383f 3da7 383f 6f07 563f de5a 473f
000003b0: f6b3 2c3f fff6 373f 967f 203f a490 2e3f
000003c0: 81af 3e3f 56f2 2e3f 9be2 403f 3d47 483f
000003d0: c3a2 333f 21be 413f 2a2d 2c3f 7157 2d3f
000003e0: c506 303f 356a 3e3f ec74 183f 73bc 463f
000003f0: 1d68 433f ad36 163f fc6f 3b3f 3653 343f

bn1.bias f4 [256]
-0.3021596 -0.24607494 -0.2786642 -0.27037543 -0.29389617 -0.21365309 -0.27273867 -0.21228647
-0.22989672 -0.2713591 -0.18278036 -0.28289026 -0.20808609 -0.35451 -0.3343477 -0.31280833
-0.253491 -0.29650337 -0.19359182 -0.24222125 -0.21618256 -0.24386671 -0.3014847 -0.25447732
-0.2930805 -0.17867643 -0.24968572 -0.28336558 -0.1755808 -0.21909839 -0.27419394 -0.3673785
-0.28049412 -0.30362514 -0.15568115 -0.2453608 -0.3782762 -0.22517504 -0.32064024 -0.38429368
-0.25896394 -0.30319586 -0.25448787 -0.22414154 -0.24326523 -0.2971927 -0.24502437 -0.10062179
-0.2492224 -0.21634527 -0.11598247 -0.2976936 -0.21745026 -0.10841809 -0.23118827 -0.16374014
-0.20521377 -0.14231636 -0.21790025 -0.32215664 -0.24371476 -0.18651675 -0.26471204 -0.24537432
-0.23966949 -0.32696137 -0.15800323 -0.24660783 -0.35831457 -0.25286043 -0.26089963 -0.22354801
-0.31819886 -0.23994014 -0.2773323 -0.19668072 -0.16520853 -0.29500073 -0.3008612 -0.20131773
-0.3210743 -0.16167425 -0.19102128 -0.1748436 -0.2910372 -0.15777104 -0.14138798 -0.25108626
-0.28718716 -0.22040994 -0.21092005 -0.24212223 -0.21835643 -0.28982297 -0.2647154 -0.26070738
-0.22463046 -0.22176388 -0.1733191 -0.25285068 -0.21534534 -0.15656956 -0.1691402 -0.18036032
-0.31829935 -0.14583524 -0.24223372 -0.28832665 -0.18708378 -0.35882035 -0.23501185 -0.2513485
-0.3337179 -0.28479236 -0.13045864 -0.24506186 -0.19745971 -0.16955239 -0.2476306 -0.10187832
-0.17200045 -0.2084533 -0.24456275 -0.31676748 -0.15305191 -0.19581899 -0.19639859 -0.2106215
-0.14561194 -0.3218864 -0.26238614 -0.049331024 -0.1964337 -0.29396513 -0.10651629 -0.16766278
-0.25125027 -0.31309694 -0.22768742 -0.16393088 -0.23248716 -0.17189294 -0.19059461 -0.24644576
-0.06454056 -0.2326015 -0.33932635 -0.27300996 -0.22822985 -0.34466404 -0.31937096 -0.2211687
-0.218696 -0.23628075 -0.19248264 -0.17345394 -0.25232866 -0.2507713 -0.27312142 -0.35309136
-0.15655963 -0.15466388 -0.2095644 -0.24113251 -0.1872187 -0.410316 -0.25502467 -0.3109728
-0.21673836 -0.24077123 -0.18598452 -0.19790761 -0.1113439 -0.19590743 -0.09225884 -0.26381895
-0.16045202 -0.21756339 -0.2125789 -0.36984384 -0.20291059 -0.19757372 -0.2658845 -0.11598139
-0.2710277 -0.20347245 -0.26941004 -0.19512239 -0.3292185 -0.2132667 -0.22207497 -0.09408057
-0.24512292 -0.24207109 -0.32324085 -0.28121775 -0.22064865 -0.2552466 -0.24723707 -0.30984703
-0.23146187 -0.23888992 -0.3422178 -0.19681844 -0.10087532 -0.24657512 -0.32436928 -0.25637192
-0.3036654 -0.22069249 -0.234724 -0.3404274 -0.25055334 -0.16259614 -0.2911311 -0.18190111
-0.32285783 -0.12001797 -0.21909991 -0.20305207 -0.25863498 -0.24747388 -0.20049983 -0.16773485
-0.15761884 -0.23686336 -0.15050031 -0.16619956 -0.3041265 -0.25675687 -0.29252163 -0.2319563
-0.23324133 -0.27178493 -0.1323027 -0.1271364 -0.25004572 -0.2819608 -0.274104 -0.24666914
-0.30931574 -0.29791275 -0.16449022 -0.24024253 -0.16273619 -0.33759657 -0.3073574 -0.14999397
-0.24847226 -0.32817745 -0.2531934 -0.118693285 -0.2670483 -0.3501146 -0.27232444 -0.31221843
00000000: aab4 9abe 12fb 7bbe 13ad 8ebe a66e 8abe
00000010: 8f79 96be e0c7 5abe 67a4 8bbe a061 59be
00000020: 0c6a 6bbe 94ef 8abe c62a 3bbe fed6 90be
00000030: 8514 55be 5682 b5be 9f2f abbe 6a28 a0be
00000040: 93c9 81be 4acf 97be ef3c 46be d908 78be
00000050: f65e 5dbe 32b8 79be 345c 9abe da4a 82be
00000060: a60e 96be f4f6 36be 9dad 7fbe 4b15 91be
00000070: 74cb 33be 545b 60be 2663 8cbe 0919 bcbe
00000080: ed9c 8fbe c174 9bbe e16a 1fbe dd3f 7bbe
00000090: 6bad c1be 4994 66be f52a a4be 24c2 c4be
000000a0: ec96 84be 7d3c 9bbe 3c4c 82be 5c85 65be
000000b0: 851a 79be a429 98be abe7 7abe cc12 cebd
000000c0: 2834 7fbe 9d89 5dbe 3888 edbd 4c6b 98be
000000d0: 48ab 5ebe 4e0a debd 9ebc 6cbe 7fab 27be
000000e0: 8f23 52be 61bb 11be 3e21 5fbe b7f1 a4be
000000f0: 5d90 79be 3ffe 3ebe 5688 87be 6843 7bbe
00000100: eb6b 75be 7b67 a7be 99cb 21be c386 7cbe
00000110: 0275 b7be ec76 81be a394 85be c5e9 64be
00000120: f6ea a2be deb2 75be 80fe 8dbe ac66 49be
00000130: 6d2c 29be 560a 97be 7b0a 9abe 3c26 4ebe
00000140: da63 a4be ef8d 25be 159b 43be 330a 33be
00000150: d402 95be bb8e 21be 03c8 10be 618e 80be
00000160: 320a 93be 25b3 61be 6dfb 57be e4ee 77be
00000170: d498 5fbe ad63 94be c788 87be 707b 85be
00000180: 8705 66be 1216 63be 907a 31be a575 81be
00000190: 7d83 5cbe c553 20be 1733 2dbe 60b0 38be
000001a0: 22f8 a2be d555 15be 1e0c 78be 8d9f 93be
000001b0: e492 3fbe 4db7 b7be f2a6 70be c0b0 80be
000001c0: 13dd aabe 4ed0 91be f396 05be 7ff1 7abe
000001d0: e132 4abe 249f 2dbe e092 7dbe 95a5 d0bd
000001e0: e320 30be c874 55be a86e 7abe 592f a2be
000001f0: a4b9 1cbe c684 48be b61c 49be 2aad 57be
00000200: 4c1b 15be 4bce a4be 7a57 86be 540f 4abd
00000210: ea25 49be 9982 96be 3625 dabd cbaf 2bbe
00000220: e0a3 80be 3e4e a0be e426 69be 7fdd 27be
00000230: 1d11 6ebe b404 30be 3c2b 43be 475c 7cbe
00000240: d72d 84bd 162f 6ebe 2fbc adbe f6c7 8bbe
00000250: 16b5 69be ce77 b0be 9784 a3be 0c7a 62be
00000260: d8f1 5fbe 95f3 71be 2b1a 45be e99d 31be
00000270: 3931 81be 1965 80be 92d6 8bbe 64c8 b4be
00000280: 2b51 20be 3560 1ebe 0d98 56be 71eb 76be
00000290: 42b6 3fbe f014 d2be 9892 82be d437 9fbe
000002a0: a9f0 5dbe bc8c 76be ba72 3ebe 4ba8 4abe
000002b0: 4508 e4bd f59b 48be 34f2 bcbd 4713 87be
000002c0: 894d 24be f0c8 5ebe 48ae 59be 2c5c bdbe
000002d0: cbc7 4fbe c450 4abe 0322 88be a787 edbd
000002e0: 25c4 8abe 155b 50be 1df0 89be 2ace 47be
000002f0: 548f a8be 9662 5abe 9f67 63be 50ad c0bd
00000300: 8101 7bbe 7ce1 77be d37f a5be c6fb 8fbe
00000310: b8f1 61be afaf 82be b72b 7dbe 45a4 9ebe
00000320: 5704 6dbe 8f9f 74be 2c37 afbe c68a 49be
00000330: b897 cebd 307e 7cbe bb13 a6be 2e43 83be
00000340: 087a 9bbe 36fd 61be 7d5b 70be 804c aebe
00000350: 8748 80be 9a7f 26be 230f 95be 4944 3abe
00000360: 9f4d a5be fbcb f5bd ba5b 60be e2ec 4fbe
00000370: ce6b 84be cb69 7dbe d44f 4dbe afc2 2bbe
00000380: d566 21be 4f8c 72be c11c 1abe 3830 2abe
00000390: 78b6 9bbe a375 83be 65c5 95be f485 6dbe
000003a0: d1d6 6ebe 6527 8bbe 5c7a 07be 0b30 02be
000003b0: fe05 80be 2a5d 90be 5c57 8cbe d696 7cbe
000003c0: a25e 9ebe 0588 98be 2070 28be 2302 76be
000003d0: 51a4 26be 75d9 acbe f35d 9dbe 0598 19be
000003e0: 836f 7ebe e006 a8be 91a2 81be 7715 f3bd
000003f0: 8eba 88be 3942 b3be 1c6e 8bbe 18db 9fbe

bn1.running_mean f4 [256]
0.0024328262 -0.0019399452 0.0035877419 0.003598362 0.0012121904 -0.006568696 -0.0068017016 0.0040975637
0.009653117 -0.0031417923 0.0023053451 0.008824328 -0.0056564324 0.005248625 0.002811756 -0.0031154628
0.0076048695 0.0030652964 -0.005529361 -0.00942232 -0.008036987 0.004329238 0.0031073801 -0.0026479943
0.009530385 0.005359309 -0.005393052 -0.0035103033 0.007128102 0.003567425 0.0049842936 0.0026361758
0.007949683 0.008855104 0.00041606277 -0.009017773 -0.004156108 0.0011781614 0.004762486 -0.002701761
0.0005593404 -0.0046126787 0.0016628049 0.0048292303 0.0016426687 0.002615619 0.009259526 -0.00043920992
0.007840937 -0.00033572502 -0.0015871429 -0.005644002 -0.0021134843 -0.0026523406 0.0048268214 0.0054117315
-0.0039888397 0.003341918 0.006889929 -0.003480361 0.0029926684 0.008603331 -0.0026963828 -0.0014384
-0.0021516024 0.0054422393 -0.0093135685 0.0070092757 0.0020025538 0.0076120477 0.0006740851 0.008953143
-0.0014196079 0.004340646 -0.0068621733 0.007897443 -0.01147279 -0.00044641818 0.0019240752 0.00014065632
0.008163554 -0.0021881328 0.001132597 0.009730779 -0.005639385 0.0010419083 -0.0005526857 -0.002822084
0.002494806 0.0071384027 -0.002082396 -0.005212072 0.00010879724 -0.0055392515 -0.0012142987 0.0065568374
0.004842686 -0.0018146893 0.015958153 0.0006402267 0.0063335733 -0.0019787264 0.0034500062 -6.1333485e-05
0.0070340084 -0.0019626236 -0.0054285736 0.002154618 0.0024850292 -0.0016213964 0.0046954225 0.0065814387
-0.0061103506 -0.0048014624 0.00059180293 -0.010031603 0.0013509236 -0.002214113 0.005378778 0.00057988946
0.0011488175 0.009644075 -0.00025258344 -0.0018527376 -0.00017925008 0.0025078028 -0.0006332484 -0.0043797786
0.004910079 0.0006025593 0.0035400311 -0.004321002 -0.0030297379 -0.0070977835 -0.0029066084 0.001162207
-0.003891419 -0.005483536 -0.0051059057 -0.007007334 -0.0030145566 -0.00010580459 0.008310768 0.0031861465
0.0038226568 0.0061452608 0.008827424 -0.011624078 0.0060868775 -0.0061669205 -0.004750155 0.0032584243
0.0038004408 0.006413176 0.0033458995 -0.0033263983 -0.0057077166 -0.0098826885 -0.0037001197 -0.0026175897
0.003980575 0.0005342763 0.0017147104 -0.0014637646 0.00429497 0.0025192802 0.0040341127 0.0019970569
0.0045330357 0.0034830444 0.0093386 0.0040745027 0.002718521 0.007114908 0.0005162204 -0.0025312763
-0.0010652688 0.002734956 -0.0028122433 0.0047365 -0.0026463761 0.009144465 -0.007309434 -0.009225741
0.004554817 0.00012650114 -0.0028486901 -0.01993645 -0.0018765293 -0.001780746 0.004519412 0.010700697
-0.0007954149 -0.00030606444 -0.0070948713 0.005698533 -0.0021798026 -0.0040859636 0.0054857293 -0.0013877449
-0.0017217032 0.008647789 -0.0016131628 0.00484101 0.0018865921 0.007901156 0.0028390873 -0.0031372774
0.00680751 -0.0016504502 0.0048735323 -0.0025756103 0.001595232 0.0016359558 -0.002475873 0.0035523735
-0.0026144905 0.0012522798 0.00497769 -0.00559646 -0.0077332756 0.0076285787 -0.010134194 0.016000504
-0.0056676646 -0.010288548 0.004687584 0.0026992543 -0.0011789545 -0.007162661 -0.0017715116 0.00037099875
0.006410401 0.0015054041 0.0002818389 0.005531405 0.0019209246 0.008981685 -0.0012786877 -0.009603818
-0.0061552566 -0.0011785002 0.008564049 0.007133356 -0.0009438438 -0.00028612357 -0.011211033 -0.0060814307
0.0047104442 -0.0009474185 -0.0008671098 -0.0016456187 -0.008337799 -0.0025842362 0.006472551 0.007598566
00000000: 0d70 1f3b c245 feba 5220 6b3b 7fd2 6b3b
00000010: 5ce2 9e3a 373e d7bb cfe0 debb db44 863b
00000020: 1b28 1e3c 87e6 4dbb 4615 173b ea93 103c
00000030: 9859 b9bb a8fc ab3b 7045 383b cb2c 4cbb
00000040: 4532 f93b 24e3 483b a42f b5bb 1360 1abc
00000050: 91ad 03bc 48dc 8d3b 30a5 4b3b f989 2dbb
00000060: 5525 1c3c 249d af3b 33b8 b0bb 1e0d 66bb
00000070: da92 e93b 76cb 693b 4953 a33b b1c3 2c3b
00000080: 633f 023c 0015 113c 0023 da39 48bf 13bc
00000090: f62f 88bb 896c 9a3a a10e 9c3b 0710 31bb
000000a0: b3a0 123a f425 97bb 79f2 d93a 853e 9e3b
000000b0: d14e d73a ce6a 2b3b 44b5 173c c245 e6b9
000000c0: 4677 003c 4004 b0b9 ae07 d0ba 52f1 b8bb
000000d0: 6282 0abb e4d2 2dbb 502a 9e3b e554 b13b
000000e0: d0b4 82bb 1504 5b3b eac4 e13b c516 64bb
000000f0: a520 443b fcf4 0c3c ccb5 30bb b288 bcba
00000100: e601 0dbb d054 b23b f097 18bc 11ae e53b
00000110: 473d 033b 7c6e f93b 16b5 303a 34b0 123c
00000120: 2312 baba fa3b 8e3b 15dc e0bb 4764 013c
00000130: 5ef8 3bbc 3c0d eab9 4031 fc3a 257d 1339
00000140: 6dc0 053c c766 0fbb a673 943a d86d 1f3c
00000150: 97ca b8bb a490 883a 1ce2 10ba b6f2 38bb
00000160: e67f 233b 43e9 e93b cf78 08bb 07ca aabb
00000170: 132a e438 9c82 b5bb 1a29 9fba bdda d63b
00000180: 65af 9e3b deda edba acba 823c e3d4 273a
00000190: dd89 cf3b 85ad 01bb 8019 623b 2aa0 80b8
000001a0: 8a7d e63b 5c9f 00bb 2de2 b1bb 7e34 0d3b
000001b0: dfdb 223b 0985 d4ba 0fdc 993b 1ca9 d73b
000001c0: 5639 c8bb 9655 9dbb 3923 1b3a 985b 24bc
000001d0: 7911 b13a a71a 11bb 7640 b03b b903 183a
000001e0: eb93 963a 2f02 1e3c 2d6d 84b9 8fd7 f2ba
000001f0: 14f5 3bb9 f359 243b 9500 26ba 3f84 8fbb
00000200: bae4 a03b 12f5 1d3a deff 673b 3197 8dbb
00000210: 918e 46bb 8694 e8bb cc7c 3ebb 3255 983a
00000220: 2d07 7fbb 3caf b3bb 714f a7bb c79d e5bb
00000230: de8f 45bb 68e3 ddb8 e329 083c abce 503b
00000240: 8a85 7a3b 2f5e c93b e6a0 103c eb72 3ebc
00000250: 6e74 c73b e113 cabb 30a7 9bbb 4a8b 553b
00000260: d110 793b 9f25 d23b e146 5b3b b4ff 59bb
00000270: cc07 bbbb 00eb 21bc b57d 72bb de8b 2bbb
00000280: 7c6f 823b ad0e 0c3a 22c0 e03a cadb bfba
00000290: d2bc 8c3b 821a 253b 9730 843b 0ee1 023b
000002a0: dc89 943b ca43 643b ed00 193c 6883 853b
000002b0: 3729 323b 2d24 e93b f752 073a c5e3 25bb
000002c0: 7da0 8bba f33c 333b 9d4d 38bb a434 9b3b
000002d0: d36e 2dbb abd2 153c fa83 efbb 9027 17bc
000002e0: 9340 953b 64a5 0439 17b1 3abb c451 a3bc
000002f0: e0f5 f5ba ec67 e9ba 9317 943b fa51 2f3c
00000300: 6483 50ba 4677 a0b9 187c e8bb c2ba ba3b
00000310: 05db 0ebb 8ce3 85bb a2c1 b33b fee4 b5ba
00000320: c6aa e1ba 75af 0d3c c370 d3ba 56a1 9e3b
00000330: 8747 f73a da73 013c fb0f 3a3b c89a 4dbb
00000340: 8811 df3b eb53 d8ba 27b2 9f3b 92cb 28bb
00000350: 1b17 d13a 916d d63a 4242 22bb f0ce 683b
00000360: df57 2bbb 8a23 a43a e41b a33b 8262 b7bb
00000370: 6b67 fdbb 28f9 f93b e409 26bc 7d13 833c
00000380: d1b7 b9bb 4c91 28bc 4e9a 993b f9e5 303b
00000390: 2687 9aba c1b4 eabb 1132 e8ba 9c82 c239
000003a0: 570e d23b fb50 c53a c7c3 9339 ca40 b53b
000003b0: 89c7 fb3a eb27 133c a499 a7ba 5559 1dbc
000003c0: 09b2 c9bb e877 9aba 3a50 0c3c edbe e93b
000003d0: 496c 77ba db02 96b9 7bae 37bc bd46 c7bb
000003e0: 125a 9a3b 2e5c 78ba c14e 63ba cdb1 d7ba
000003f0: 449b 08bc 4a5c 29bb b117 d43b 64fd f83b

bn1.running_var f4 [256]
0.18081789 0.21946 0.11337902 0.25375342 0.33202827 0.1762408 0.27870786 0.20141135
0.24854788 0.14939322 0.34401268 0.18935972 0.11130711 0.16588444 0.15138164 0.26347685
0.28056145 0.15629688 0.30225933 0.19606757 0.23071647 0.1747322 0.112951346 0.25490743
0.28260264 0.43324915 0.21423286 0.23131016 0.18542069 0.39477566 0.34006017 0.17932972
0.114754796 0.22312918 0.4150144 0.25015914 0.28154957 0.15924622 0.20619825 0.12298885
0.35228556 0.12281916 0.38245913 0.16243628 0.2649766 0.14398089 0.22275883 0.1599774
0.30007973 0.15451317 0.1679211 0.24354129 0.23337843 0.21171713 0.16322269 0.19574551
0.18779553 0.26644006 0.3828673 0.31625772 0.23043096 0.25728187 0.22419281 0.20084101
0.13416672 0.1539767 0.33612126 0.21042341 0.17862691 0.2322044 0.17124753 0.4200438
0.21971768 0.21922213 0.26948127 0.17892796 0.30181828 0.14936994 0.20275962 0.23383777
0.31236157 0.17890722 0.17892146 0.25041744 0.26537377 0.20028448 0.16394933 0.13758492
0.21515894 0.22738571 0.16976838 0.14357543 0.18858843 0.31137812 0.1617013 0.26601538
0.2548273 0.22409324 0.31396458 0.152925 0.11884473 0.13235262 0.16398892 0.20983575
0.28005105 0.31144676 0.19045007 0.22935444 0.17620152 0.17782469 0.20013751 0.14072865
0.30127737 0.29616758 0.22987543 0.14941105 0.49906415 0.16571003 0.21362804 0.25797626
0.25746426 0.26876894 0.1750591 0.24306887 0.10970084 0.09455374 0.24141921 0.2830541
0.24664906 0.2046635 0.21329422 0.32755277 0.19865906 0.32371894 0.19336382 0.14213541
0.20087859 0.1742456 0.16803697 0.27118015 0.18663287 0.115202464 0.2628956 0.10958318
0.2839945 0.20717703 0.25519478 0.26431286 0.20042898 0.27490386 0.2993376 0.16995227
0.19916068 0.19514677 0.13990581 0.20194325 0.37919334 0.2165872 0.3238516 0.32592165
0.25633022 0.22941455 0.40866992 0.40723115 0.24579307 0.14888035 0.23933268 0.3362309
0.307397 0.21507551 0.25428584 0.19464594 0.18922435 0.21390702 0.37522727 0.14114018
0.31096718 0.15874748 0.11058896 0.16173166 0.3035752 0.24625614 0.3084065 0.28702965
0.15133692 0.10326218 0.2063338 0.28414685 0.13882755 0.19976728 0.11980714 0.23172949
0.2846896 0.20243438 0.2705845 0.10106671 0.20352706 0.16069779 0.21337484 0.17836845
0.15860452 0.272604 0.122120276 0.38565755 0.19741945 0.39712137 0.21243465 0.29679048
0.13499889 0.21241632 0.2249014 0.17331015 0.16876745 0.23448692 0.32923838 0.17253298
0.11337316 0.116358615 0.17161372 0.33411288 0.20876516 0.14066634 0.3162622 0.24560577
0.21594867 0.18661444 0.45109743 0.15666756 0.19635695 0.21227846 0.18056795 0.29633573
0.20390019 0.33348688 0.1917731 0.11273477 0.36716133 0.1630463 0.32319972 0.2824945
0.09398605 0.31379148 0.1763568 0.3567757 0.21684976 0.14182825 0.25249624 0.2294133
0.31357506 0.13284689 0.1866782 0.2713515 0.17609715 0.14585783 0.24660406 0.26843607
00000000: 5328 393e 1fba 603e 4233 e83d f8eb 813e
00000010: 9cff a93e 7878 343e ccb2 8e3e c73e 4e3e
00000020: 5683 7e3e 89fa 183e 6e22 b03e 84e7 413e
00000030: fbf4 e33d 9cdd 293e ca03 1b3e 70e6 863e
00000040: c0a5 8f3e 4a0c 203e bcc1 9a3e f0c5 483e
00000050: f040 6c3e ffec 323e 0953 e73d 3a83 823e
00000060: 4bb1 903e d5d2 dd3e dc5f 5b3e 92dc 6c3e
00000070: ecde 3d3e 0920 ca3e 5e1c ae3e 36a2 373e
00000080: 9004 eb3d fa7b 643e c47c d43e dc14 803e
00000090: 4427 903e 7111 233e a225 533e 94e1 fb3d
000000a0: c65e b43e 9d88 fb3d afd1 c33e b255 263e
000000b0: 03ab 873e ba6f 133e e41a 643e 1ed1 233e
000000c0: 0da4 993e b338 1e3e 82f3 2b3e e362 793e
000000d0: c1fa 6e3e 60cc 583e d923 273e 8371 483e
000000e0: 794d 403e d56a 883e 2f07 c43e 88ec a13e
000000f0: 18f6 6b3e 73ba 833e cd92 653e 44a9 4d3e
00000100: 0063 093e 11ac 1d3e 1618 ac3e 3c79 573e
00000110: f9e9 363e fdc6 6d3e 835b 2f3e fb0f d73e
00000120: acfd 603e c47b 603e 73f9 893e e438 373e
00000130: ed87 9a3e 6ff4 183e 38a0 4f3e 2b73 6f3e
00000140: dbed 9f3e 7433 373e 3037 373e b736 803e
00000150: 12df 873e 6017 4d3e 55e2 273e 10e3 0c3e
00000160: a052 5c3e cdd7 683e c3d7 2d3e 7005 133e
00000170: 531d 413e f46c 9f3e 0795 253e 2b33 883e
00000180: b978 823e b378 653e f7bf a03e 5f98 1c3e
00000190: de64 f33d 7287 073e b6ec 273e 2fdf 563e
000001a0: da62 8f3e f375 9f3e 5805 433e e4db 6a3e
000001b0: 2c6e 343e ad17 363e d9f0 4c3e 2c1b 103e
000001c0: 0741 9a3e 47a3 973e 7764 6b3e 36ff 183e
000001d0: 5685 ff3e e4af 293e 4fc1 5a3e 7715 843e
000001e0: 5bd2 833e 159c 893e b142 333e 0ce7 783e
000001f0: d6aa e03d 64a5 c13d 9936 773e 78ec 903e
00000200: 9291 7c3e 4f93 513e cd69 5a3e ffb4 a73e
00000210: 486d 4b3e 7dbe a53e 2a01 463e f28b 113e
00000220: 1eb3 4d3e 706d 323e e211 2c3e 20d8 8a3e
00000230: b01c 3f3e 45ef eb3d 419a 863e 256d e03d
00000240: ba67 913e 3726 543e e4a8 823e 0454 873e
00000250: 413d 4d3e 33c0 8c3e c742 993e f807 2e3e
00000260: c7f0 4b3e 8ed4 473e 7843 0f3e 36ca 4e3e
00000270: a125 c23e 09c9 5d3e e0cf a53e 34df a63e
00000280: b73d 833e a6eb 6a3e 2f3d d13e 9a80 d03e
00000290: 2eb1 7b3e 1774 183e a013 753e 7526 ac3e
000002a0: 2463 9d3e c13c 5c3e c131 823e 4451 473e
000002b0: 07c4 413e 710a 5b3e ca1d c03e 0d87 103e
000002c0: 1737 9f3e b38e 223e 777c e23d fc9c 253e
000002d0: 356e 9b3e 922a 7c3e 75e7 9d3e 8df5 923e
000002e0: 11f8 1a3e 1f7b d33d 2b49 533e b27b 913e
000002f0: cf28 0e3e cb8f 4c3e 725d f53d 7f4a 6d3e
00000300: d6c2 913e f54a 4f3e 0d8a 8a3e 10fc ce3d
00000310: 6669 503e f68d 243e ef7e 5a3e 38a6 363e
00000320: 3969 223e c092 8b3e 321a fa3d e874 c53e
00000330: 5328 4a3e 7e53 cb3e 7888 593e ecf4 973e
00000340: 263d 0a3e aa83 593e 8d4c 663e 3778 313e
00000350: 60d1 2c3e 571d 703e ef91 a83e 7cac 303e
00000360: 3030 e83d 6d4d ee3d 82bb 2f3e d810 ab3e
00000370: 89c6 553e d60a 103e 1eed a13e 1480 7b3e
00000380: a621 5d3e db17 3f3e 3ef6 e63e 766d 203e
00000390: cc11 493e 865f 593e cee6 383e 51b9 973e
000003a0: 36cb 503e cbbe aa3e 2b60 443e 7de1 e63d
000003b0: 92fc bb3e 9cf5 263e 6f7a a53e 1ea3 903e
000003c0: c27b c03d 47a9 a03e e196 343e 4eab b63e
000003d0: dd0d 5e3e 6d3b 113e 3047 813e 52eb 6a3e
000003e0: e98c a03e 0409 083e 9228 3f3e 95ee 8a3e
000003f0: d052 343e c15b 153e c685 7c3e 7470 893e

fc2.weight f4 [128, 256]
0.005929349 0.0017835145 0.01882863 0.052193183 -0.008835084 0.032501675 0.0037711675 0.042131223
-0.02633889 0.07713505 -0.041477542 -0.0126183415 -0.013511115 -0.04219695 -0.08994123 0.040808246
0.021263396 0.07543121 0.028796088 -0.017960824 -0.021741802 -0.030954646 -0.020842694 0.061468247
-0.031496745 -0.027894968 0.041984152 -0.0110392235 0.018228281 -0.0047221826 -0.02090907 -0.01875017
-0.06271123 -0.038138866 -0.056042034 0.021926777 0.03807512 -0.0050427355 -0.12138809 0.035346977
-0.027052704 0.029641218 0.010792347 -0.15432417 0.034098506 -0.024209214 -0.0017530303 0.050733287
-0.010676632 -0.12815365 -0.029676214 -0.021325659 0.0008009297 0.02355764 -0.12431313 -0.024429932
-0.020965042 0.0046025347 0.017800486 0.0071855066 0.031453546 -0.07022676 -0.053205617 -0.004590464
-0.028882658 -0.05206762 0.026145073 -0.031323556 -0.02422549 0.031267483 0.0074150288 0.0029332137
0.005630787 -0.0367822 0.034050133 0.019130884 -0.013187122 0.027579905 0.053836647 0.05362633
0.035585433 -0.0060860943 -0.12484716 -0.06759751 0.031419985 -0.04400678 0.023591664 0.023648188
0.018917352 -0.063718244 0.040470824 -0.004617219 -0.035567347 -0.02523668 0.0074087344 -0.02106451
-0.09631678 -0.005322327 -0.0020270657 0.048800748 -0.020892559 -0.07628914 0.035067055 -0.050688583
-0.03791622 -0.0037263215 0.048324153 0.014411005 -0.07228349 -0.05707352 0.011990503 -0.046592005
0.023606565 0.019855525 0.060238253 0.029644705 0.035952993 -0.061844308 0.061373543 -0.01745008
0.0054732948 -0.08585742 -0.01774627 0.0096520735 0.0345778 -0.036361407 -0.024004959 0.024222806
-0.054078907 0.04402289 0.025020355 -0.006459698 -0.07126498 0.0065330304 0.008795718 0.028685598
-0.054412253 0.028024955 0.03813123 0.02023734 0.026049139 -0.047782335 -0.11950156 -0.012296991
-0.011828455 -0.046541028 -0.0003615277 -0.014058481 -0.030097177 -0.029682415 0.0009474321 -0.035240557
-0.03229365 -0.025542868 0.00055980455 0.014587185 0.020833645 -0.035529967 0.043546516 -0.0024696148
-0.108666696 -0.0070658587 0.0031431282 -0.0422853 -0.019616589 -0.025232537 0.0234763 0.041264493
-0.010141021 0.045485783 -0.040895183 -0.032762997 0.030019898 0.016909147 0.047665622 0.06792967
0.055239987 -0.09970139 -0.020267867 -0.038260113 0.0033907183 -0.05842014 0.023156216 -0.008235272
0.010228993 0.0031335885 -0.06990912 0.016947905 0.010656553 -0.034749158 -0.030609468 -0.002591692
-0.03941443 0.0148299765 0.032848854 -0.036030084 0.058722463 -0.0953394 -0.053634256 -0.03885365
-0.0436177 -0.21922368 0.020866489 -0.0020267265 0.057959747 -0.084623314 -0.07755779 0.011418936
-0.05226622 -0.013119309 -0.15025204 0.0042319484 0.047236174 -0.017281093 -0.047503732 0.026432019
0.039198022 0.024852376 -0.018741803 -0.029484753 -0.026131958 -0.0004093892 0.019937161 0.016816739
-0.023387011 -0.018424712 -0.114920214 0.03148676 -0.005098112 -0.033718597 0.014264818 0.011958446
0.063143596 -0.0011159286 0.025088452 0.073132515 -0.030293433 -0.029737165 0.0109909745 0.027054373
-0.028894335 0.027474724 0.011791864 0.01930224 0.024301305 0.030932378 -0.027861843 0.017858818
-0.040354185 -0.017129872 -0.06344391 -0.05260344 0.009287228 -0.004202889 0.01810039 -0.030557537
00000000: fc4a c23b d1c4 e93a 803e 9a3c 85c8 553d
00000010: 07c1 10bc 7a20 053d b125 773b ca91 2c3d
00000020: a8c4 d7bc fbf8 9d3d 5be4 29bd 29bd 4ebc
00000030: b95d 5dbc b6d6 2cbd 1c33 b8bd 8c26 273d
00000040: 9330 ae3c ae7b 9a3d c6e5 eb3c 9422 93bc
00000050: dd1b b2bc 9994 fdbc 4cbe aabc 21c6 7b3d
00000060: bb02 01bd fd83 e4bc 93f7 2b3d dcdd 34bc
00000070: 7a53 953c 8abc 9abb 7f49 abbc f599 99bc
00000080: bf6e 80bd 8037 1cbd 558c 65bd c99f b33c
00000090: a8f4 1b3d 883d a5bb 529a f8bd fec7 103d
000000a0: a29d ddbc 24d2 f23c 62d2 303c 2807 1ebe
000000b0: e0aa 0b3d 6752 c6bc f0c5 e5ba b5cd 4f3d
000000c0: 0aed 2ebc b63a 03be 881b f3bc 26b3 aebc
000000d0: 7bf5 513a f4fb c03c e297 febd 4821 c8bc
000000e0: e1be abbc dcd0 963b 53d2 913c 6674 eb3b
000000f0: 6fd5 003d 0cd3 8fbd 22ee 59bd 9a6b 96bb
00000100: 539b ecbc db44 55bd 312e d63c 214d 00bd
00000110: 8974 c6bc 5512 003d c5f9 f23b 293b 403b
00000120: 7782 b83b efa8 16bd 2778 0b3d 5fb8 9c3c
00000130: cc0e 58bc 41ef e13c d183 5c3d 48a7 5b3d
00000140: 08c2 113d dc6d c7bb deaf ffbd 9070 8abd
00000150: 3eb2 003d 7440 34bd 4e43 c13c d8b9 c13c
00000160: 90f8 9a3c b67e 82bd bcc4 253d 0a4c 97bb
00000170: 11af 11bd 27bd cebc f8c4 f23b 7b8f acbc
00000180: bb41 c5bd ea66 aebb 85d8 04bb 4be3 473d
00000190: df26 abbc 7b3d 9cbd 79a2 0f3d d59e 4fbd
000001a0: 0a4e 1bbd 4d35 74bb 8cef 453d 231c 6c3c
000001b0: 5e09 94bd ecc5 69bd d173 443c 42d7 3ebd
000001c0: 8e62 c13c 0ea8 a23c 63bc 763d 74d9 f23c
000001d0: 7243 133d 7550 7dbd d362 7b3d 78f3 8ebc
000001e0: 5359 b33b 04d6 afbd a060 91bc bb23 1e3c
000001f0: 74a1 0d3d b3ef 14bd 0ca6 c4bc e86e c63c
00000200: d881 5dbd 5951 343d 7df7 cc3c e0ab d3bb
00000210: 60f3 91bd 0813 d63b ea1b 103c 0ffe ea3c
00000220: 62df 5ebd 9794 e53c 7e2f 1c3d c7c8 a53c
00000230: 0165 d53c 69b7 43bd 3cbd f4bd 5279 49bc
00000240: 23cc 41bc cea1 3ebd 6d8b bdb9 8b55 66bc
00000250: 5b8e f6bc 8928 f3bc 185d 783a 6758 10bd
00000260: 5946 04bd 473f d1bc d9bf 123a 17ff 6e3c
00000270: 52ab aa3c df87 11bd d55d 323d 43d9 21bb
00000280: a58c debd b888 e7bb f1fc 4d3b 5a33 2dbd
00000290: f8b2 a0bc 77b4 cebc 5f51 c03c f504 293d
000002a0: 8626 26bc 4d4f 3a3d b581 27bd 7e32 06bd
000002b0: 4aec f53c 0d85 8a3c 073d 433d b61e 8b3d
000002c0: 5343 623d 3e30 ccbd cc08 a6bc a3b6 1cbd
000002d0: d036 5e3b f549 6fbd 1bb2 bd3c 3ced 06bc
000002e0: 8297 273c e45c 4d3b 832c 8fbd 55d6 8a3c
000002f0: d398 2e3c 2255 0ebd b5c0 fabc 60d9 29bb
00000300: 0671 21bd 6ef9 723c 858c 063d 4894 13bd
00000310: f786 703d 4e41 c3bd 98af 5bbd 0125 1fbd
00000320: 79a8 32bd 2c7c 60be 33f0 aa3c d4d2 04bb
00000330: 3367 6d3d fd4e adbd 9ed6 9ebd 7d16 3b3c
00000340: 1b15 56bd 5ff2 56bc acdb 19be 28ac 8a3b
00000350: b87a 413d 1491 8dbc 4693 42bd f687 d83c
00000360: 1b8e 203d 3697 cb3c 6988 99bc 028a f1bc
00000370: b012 d6bc 4aa3 d6b9 4253 a33c 42c3 893c
00000380: 1e96 bfbc 6cef 96bc 4a5b ebbd 43f8 003d
00000390: 100e a7bb 831c 0abd fcb6 693c 5ced 433c
000003a0: 6e51 813d 5a44 92ba 4c86 cd3c 80c6 953d
000003b0: ef29 f8bc 5b9b f3bc 7d13 343c 22a1 dd3c
000003c0: d0b3 ecbc ac12 e13c aa32 413c bb1f 9e3c
000003d0: 8813 c73c e665 fd3c 853e e4bc a84c 923c
000003e0: 6e4a 25bd f253 8cbc e1ee 81bd b476 57bd
000003f0: 7529 183c 63b8 89bb 4547 943c cd53 fabc

fc2.bias f4 [128]
2.0633443e-06 1.9861535e-07 -2.7156789e-06 3.056785e-06 -2.3377913e-06 2.149652e-07 -1.5238891e-06 4.8685733e-06
2.7342167e-06 2.9801395e-06 2.9786722e-06 -1.6363567e-06 8.004825e-07 2.4554988e-06 1.8517152e-06 1.8476525e-06
2.4790434e-06 1.2119065e-06 -7.86937e-07 -5.726911e-06 -7.838817e-07 -1.4811332e-06 2.4105893e-06 -7.1322546e-07
1.0823746e-06 1.0453779e-06 -2.1422727e-07 1.119797e-06 9.5708934e-08 1.0235711e-06 -6.843214e-06 3.6760625e-06
1.6282133e-06 2.9372159e-06 9.448994e-07 2.1454025e-06 2.9047599e-06 2.231628e-06 3.4265643e-08 5.843722e-07
5.9899594e-06 -4.9660497e-07 2.765588e-06 2.481504e-06 -4.153521e-06 -1.0150675e-06 -3.2957025e-06 2.5046202e-07
3.1518948e-06 -5.947384e-06 5.8005975e-07 8.135093e-07 4.6050874e-07 -5.6488984e-06 5.973232e-07 1.3366513e-07
-1.858546e-06 -4.8174265e-06 1.2428025e-06 -3.3631277e-06 2.8437858e-06 1.4186471e-06 -7.6799245e-07 -1.6629426e-06
-1.8659277e-06 -2.2931235e-06 -1.6347905e-06 4.7618659e-07 1.6220503e-06 1.5912441e-06 -7.838306e-07 -3.2162026e-07
-2.173906e-06 2.5744212e-06 2.1526052e-06 -1.937774e-06 4.880047e-06 -7.0849705e-07 1.3181511e-06 2.6386156e-06
-6.855021e-07 1.6827895e-06 4.122837e-06 -1.4041524e-06 -2.3037162e-06 5.160784e-07 6.602266e-07 8.435521e-07
-2.1739325e-07 3.5985802e-06 -3.726164e-06 5.748881e-07 8.8460314e-07 2.8208513e-06 -2.5645331e-06 -7.0323254e-06
-1.3583702e-06 1.1190044e-06 -9.4330164e-07 -2.273124e-06 1.3192201e-06 -5.209596e-06 -4.228342e-07 -3.0096223e-06
3.2619138e-07 3.908972e-06 3.1063234e-06 1.6177877e-07 -9.99262e-07 -3.896896e-06 -7.103987e-07 -3.887414e-06
-1.8883143e-06 -6.9237444e-06 -2.5117592e-06 -4.0455093e-06 -1.1448776e-06 7.4288135e-07 1.3242487e-06 -1.19174e-06
1.8589905e-07 -1.5313716e-06 -3.617059e-06 -2.880475e-07 -1.1979484e-06 -9.624163e-06 -2.3756163e-06 3.9812903e-06
00000000: fc77 0a36 f942 5534 023f 36b6 2b23 4d36
00000010: f3e2 1cb6 2fd1 6634 6e88 ccb5 ba5c a336
00000020: 7c7d 3736 68fe 4736 33e5 4736 caa0 dbb5
00000030: bde0 5635 26c9 2436 7388 f835 dbfc f735
00000040: a45d 2636 caa8 a235 e63d 53b5 ca29 c0b6
00000050: f16b 52b5 59cb c6b5 9cc5 2136 7b74 3fb5
00000060: 1c46 9135 e94e 8c35 5806 66b4 ef4b 9635
00000070: 8b88 cd33 a361 8935 c39e e5b6 46b2 7636
00000080: fc88 da35 fc1c 4536 fea4 7d35 bcf9 0f36
00000090: 65ef 4236 14c3 1536 792b 1333 c0dd 1c35
000000a0: 5cfd c836 6f4e 05b5 7198 3936 ea87 2636
000000b0: 795e 8bb6 743d 88b5 bd2b 5db6 3d77 8634
000000c0: 2485 5336 a48f c7b6 67b5 1b35 ef5f 5a35
000000d0: d73b f734 ab8b bdb6 bd57 2035 9785 0f34
000000e0: 2873 f9b5 61a5 a1b6 5ece a635 18b2 61b6
000000f0: ded7 3e36 5868 be35 0a28 4eb5 4632 dfb5
00000100: ca70 fab5 90e3 19b6 f96a dbb5 96a6 ff34
00000110: 39b5 d935 bb92 d535 6e68 52b5 27ab acb4
00000120: 6ce3 11b6 38c4 2c36 7a75 1036 b40a 02b6
00000130: 49bf a336 8c2f 3eb5 54eb b035 1213 3136
00000140: 5803 38b5 35dc e135 e656 8a36 4f76 bcb5
00000150: 8b99 1ab6 a388 0a35 6d3a 3135 7570 6235
00000160: 9a6c 69b4 237f 7136 030f 7ab6 0252 1a35
00000170: 7775 6d35 db4d 3d36 581a 2cb6 37f7 ebb6
00000180: 3f51 b6b5 b330 9635 3237 7db5 f98b 18b6
00000190: 0f10 b135 17ce aeb6 e401 e3b4 ebf8 49b6
000001a0: 671f af34 d029 8336 3b76 5036 69b5 2d34
000001b0: 621e 86b5 15c2 82b6 3ab2 3eb5 a270 82b6
000001c0: fc71 fdb5 8352 e8b6 b28f 28b6 a9be 87b6
000001d0: b2a9 99b5 6b6a 4735 d7bc b135 e0f3 9fb5
000001e0: 8b9b 4734 8789 cdb5 9abc 72b6 f2a4 9ab4
000001f0: 32c9 a0b5 7777 21b7 c76c 1fb6 0697 8536
