feedforward_nn/model_saves/fnn_(256, 256)_8.pth (torch, 229892 bytes, 19 tensors)

fc1.weight f4 [256, 48]
0	0x3d7ce02a	0.061737217
1	0xbdb054e9	-0.08609945
2	0xbc04aca2	-0.0080977995
3	0x3e0413b6	0.12898144
4	0xbe44eff9	-0.19232167
5	0x3beae126	0.007167953
6	0xbc93b8bd	-0.018032426
7	0x3c7b6e8b	0.01534618
8	0x3d1339b6	0.03594371
9	0x3de52cc1	0.11190177
10	0xbbb4f692	-0.0055225575
11	0x3dd36211	0.10321439
12	0x3c9c8138	0.019104585
13	0x3d6759ad	0.056482006
14	0xbbf55754	-0.007487217
15	0xbd74771a	-0.059683897
16	0xbdad19a2	-0.08452155
17	0xbdee40b0	-0.11633432
18	0x3d95697b	0.072955094
19	0xbd510846	-0.05103328
20	0xbb6a7558	-0.0035775509
21	0x3d89860c	0.067150205
22	0x3ca58da7	0.020209147
23	0xbe7056c6	-0.23470601
24	0xbd42a8f2	-0.0475244
25	0xbca58859	-0.020206617
26	0x3d6fcea6	0.058546685
27	0xbd34cd76	-0.044141255
28	0x3d993e26	0.07482557
29	0xbdd914a1	-0.10599638
30	0xbc9597be	-0.018260833
31	0xbc79c9c5	-0.0152458595
32	0x3d1cf0bf	0.03831553
33	0x3d94eb3e	0.072714314
34	0xbc6fe32b	-0.014641563
35	0xbdf95b9a	-0.12175675
36	0xbe0323d8	-0.12806642
37	0x3d7ae068	0.061249167
38	0x3d1a998b	0.037744086
39	0x3cf4cbf3	0.029882407
40	0x3c25ca72	0.0101190675
41	0x3ce1af1b	0.027549317
42	0xbcb11320	-0.021615565
43	0xbd88e1a5	-0.06683663
44	0x3d933600	0.07188034
45	0x3dc40f5c	0.09573242
46	0xbc387f0b	-0.011260758
47	0x3d87925d	0.066197135
48	0x3d9bcfd3	0.07607999
49	0x3d3ee673	0.046606492
50	0x3cabf9da	0.020993162
51	0xbdd6e422	-0.10492732
52	0x3dacf358	0.08444852
53	0x3d0a47b8	0.033759803
54	0x3d9e2bd3	0.077232026
55	0xbe9a8c5d	-0.30185214
56	0x3d3a73a2	0.045520432
57	0xbdd7fbd8	-0.10546082
58	0xbd4b897b	-0.04969166
59	0xbd0be880	-0.034157276
60	0x3d208128	0.039185673
61	0x3d18a4aa	0.03726641
62	0x3ce4b8c2	0.02792013
63	0x3cbce58d	0.023058677
64	0x3bf977cd	0.0076131583
65	0xbd58c626	-0.052923344
66	0xbd451b35	-0.04812165
67	0xba83b876	-0.001004948
68	0xbbd6d6cc	-0.0065563675
69	0x3d5736be	0.05254244
70	0xbdf789f3	-0.120868586
71	0x3a24edb7	0.0006291526
72	0xbdb6a590	-0.08918297
73	0xbdcf359d	-0.10117648
74	0xbcd0dc8a	-0.025495786
75	0xbddb3ced	-0.1070498
76	0xbb7a7a06	-0.0038219704
77	0xbc8775cd	-0.016535664
78	0x3d6e7b75	0.058223207
79	0xbdd37c1f	-0.103264086
80	0xbd1f2ec2	-0.03886295
81	0x3d8caf62	0.06869389
82	0xbdc6e369	-0.09711344
83	0xbb0d06b2	-0.0021518883
84	0x3c8006b4	0.015628196
85	0x3d6a43a1	0.057193402
86	0x3b2779fc	0.0025554886
87	0x3bdb256d	0.006687811
88	0x3de13b10	0.109975934
89	0x3d7413f4	0.05958934
90	0xbd57ea38	-0.052713603
91	0xbc247d97	-0.010039709
92	0x3d500d45	0.050793905
93	0xbd10a773	-0.035315942
94	0x3cc9849d	0.024599368
95	0xbd164391	-0.03668553
96	0x3d8b6a44	0.06807378
97	0xbde5e916	-0.11226098
98	0xbc5444c0	-0.012955844
99	0x3def5f9e	0.116881594
100	0x3e627338	0.22114265
101	0x3d4af930	0.04955405
102	0xbdf6bc51	-0.12047637
103	0xbd7316ae	-0.0593478
104	0xbda5030d	-0.080572225
105	0x3d8b7057	0.068085365
106	0xbc8b8a7b	-0.017033806
107	0xb8dde470	-0.00010580651
108	0xbc427144	-0.011867825
109	0xbda8bcad	-0.08239112
110	0x3db13ccc	0.08654174
111	0xbdac07a0	-0.08399892
112	0xbd66a357	-0.056308117
113	0x3e0dfb3c	0.1386537
114	0x3c8bd301	0.017068388
115	0x3e2478bd	0.16061683
116	0xbd95e9b5	-0.07319967
117	0x3e1522b4	0.1456402
118	0x3e4c1ea6	0.19933566
119	0x3d17e38d	0.037082244
120	0xbd021045	-0.031753797
121	0xbe17acb7	-0.14811979
122	0x3c0c73ec	0.00857256
123	0x3d99eb22	0.07515551
124	0xbda88301	-0.08228112
125	0x3daf1348	0.085485995
126	0x3c88410a	0.016632576
127	0x3d57dec3	0.052702677
128	0xbc98b3ea	-0.018640477
129	0x3ce70273	0.02819941
130	0xbd1c0bab	-0.038097065
131	0x3cada4f0	0.021196812
132	0x3d42262c	0.047399685
133	0x38eef69b	0.00011394658
134	0x3d77b075	0.060471017
135	0xbdd2f13d	-0.10299919
136	0xbc1929b3	-0.009348321
137	0xbc10d692	-0.00884022
138	0x3d9e182e	0.07719456
139	0xbd57b79a	-0.05266533
140	0xbca43f32	-0.020049665
141	0xbc8ac805	-0.01694108
142	0x3ca9d1e1	0.02072996
143	0x3ba88ef2	0.0051439935
144	0xbe6fb9b7	-0.23410688
145	0x3c9acb95	0.018895904
146	0x3d84f2aa	0.06491597
147	0x3c14580f	0.009054198
148	0x3e01edbe	0.12688348
149	0x3d3e0c3c	0.046398386
150	0xbd038f5b	-0.032119136
151	0xbcb47b44	-0.022031434
152	0xbcf6dc7b	-0.03013443
153	0xbd3f8b56	-0.04676374
154	0xbd12bbd3	-0.035823654
155	0xbc346a33	-0.011011648
156	0x3c537462	0.012906166
157	0x3d078c00	0.0330925
158	0x3c3bec0d	0.011469853
159	0xbe2d31b4	-0.16913491
160	0xbcfca158	-0.030838653
161	0xbd1168d4	-0.035500363
162	0x3e096d66	0.13420638
163	0x3d38d3a2	0.045123704
164	0x3dc5d0af	0.09658944
165	0x3b2b0ad1	0.0026098976
166	0xbe659fe2	-0.22424272
167	0x3c1c339d	0.00953379
168	0x3d62b5b2	0.05534906
169	0xbcef813c	-0.029236428
170	0xbdb9fcc0	-0.09081411
171	0x3d23998d	0.03994136
172	0x3d1b65bf	0.03793883
173	0xbd98d9d0	-0.074634194
174	0x3ddd353d	0.1080117
175	0x3cc6c08b	0.024261734
176	0x3d028086	0.03186085
177	0x3d078b5d	0.03309189
178	0x3bc87aaf	0.0061181406
179	0xbd7b0272	-0.06128163
180	0x3de2e237	0.11078303
181	0x3ca0df6a	0.019637782
182	0x3dbdb954	0.09263864
183	0xbdf0c9ea	-0.11757262
184	0xbda72840	-0.08161974
185	0x3d07d801	0.03316498
186	0xbd8948de	-0.067033514
187	0xbd761c46	-0.060085557
188	0x3d947e17	0.07250612
189	0xbceb9906	-0.02875949
190	0xbc5c54ae	-0.013447924
191	0xbd0a7b3b	-0.033808928
192	0x3c1e3269	0.009655573
193	0x3df7f691	0.12107576
194	0xbcb2b17d	-0.021813149
195	0xbe68e46e	-0.22743389
196	0x3e8018a4	0.250188
197	0x3ddb9e2d	0.10723529
198	0x3e4e890f	0.20169471
199	0xbd91c7bb	-0.07118174
200	0x3ce9607c	0.02848839
201	0xbd0976b3	-0.033560466
202	0xbd4eb7c8	-0.050468236
203	0x3d73d2c6	0.05952718
204	0x3bbef1e3	0.005827175
205	0x3bf4cbe2	0.007470594
206	0x3e0374f2	0.1283758
207	0x3c0c6039	0.008567863
208	0xbd2ce4eb	-0.0422105
209	0xbca723ee	-0.020402875
210	0x3d914100	0.07092476
211	0xbce43d79	-0.027861344
212	0x3cdaf0e1	0.026726188
213	0x3b14a307	0.002268018
214	0xbd4ba0e4	-0.049713984
215	0xb9fb2f0d	-0.00047909506
216	0xbd148877	-0.036262956
217	0xbc6eb333	-0.014569092
218	0xbb8dfae4	-0.004332887
219	0xbd9a8e64	-0.0754669
220	0x3e0c9493	0.13728552
221	0xbd8fed62	-0.07027699
222	0xbcfac5a5	-0.030611822
223	0x3cbe4078	0.0232241
224	0xbc5f5f5c	-0.013633575
225	0x3d0a04d9	0.03369603
226	0xbb9c67e2	-0.004773126
227	0xbd2eca67	-0.042673495
228	0xbdc99acc	-0.09843978
229	0x3dbb424b	0.09143504
230	0xbd4124f7	-0.047154393
231	0x3e01894b	0.1265003
232	0x3c602520	0.013680726
233	0xbc2ef17f	-0.010677694
234	0x3cb146f4	0.021640278
235	0x3db75814	0.089523464
236	0x3b827e60	0.00398235
237	0xbd3e1e93	-0.046415877
238	0x3d0b3704	0.033988014
239	0xbda6a35e	-0.081366286
240	0xbd58d469	-0.052936945
241	0xbe2554f3	-0.16145687
242	0x3c2cee50	0.010554865
243	0xbe206ce7	-0.15666543
244	0xbe6c1177	-0.23053537
245	0x3c3740f1	0.011184917
246	0x3d1e41b6	0.038636886
247	0x3d1d33d4	0.038379505
248	0xbdc6606a	-0.09686358
249	0xbdc0e0ab	-0.09417852
250	0x3dcf0a2a	0.101093605
251	0x3d21d6f2	0.03951163
252	0x3d982263	0.07428434
253	0xbd4da331	-0.05020446
254	0x3de7e113	0.113222264
255	0xbd83a869	-0.06428606

fc1.bias f4 [256]
0	0x353becae	7.0007343e-07
1	0x35b8d57b	1.3771199e-06
2	0x35c75122	1.4850268e-06
3	0x35b991c7	1.3826001e-06
4	0xb5a9b610	-1.2644468e-06
5	0x35288d6e	6.2790684e-07
6	0x3397de75	7.07195e-08
7	0x35a46d7e	1.2250819e-06
8	0x336bc3a9	5.4893153e-08
9	0x362f561d	2.6127157e-06
10	0xb5005fcc	-4.782312e-07
11	0x35fe7c65	1.8960678e-06
12	0x363727a4	2.72922e-06
13	0xb51ae086	-5.7696195e-07
14	0x37150dd2	8.88431e-06
15	0x346dec85	2.215839e-07
16	0x361729ac	2.252501e-06
17	0x34a2a913	3.029787e-07
18	0x35bf803a	1.4267928e-06
19	0x349adf79	2.8847333e-07
20	0x35084cc5	5.077566e-07
21	0xb532ec67	-6.665418e-07
22	0xb6ea4139	-6.9813364e-06
23	0x35342789	6.7112757e-07
24	0x3488ad5a	2.5458104e-07
25	0xb41019ec	-1.3420475e-07
26	0xb5898c17	-1.0248067e-06
27	0xb5b6dc81	-1.3624232e-06
28	0x35cb08aa	1.51272e-06
29	0xb5898535	-1.0246064e-06
30	0xb4841aab	-2.460632e-07
31	0x350c0a40	5.216898e-07
32	0x343de834	1.7686472e-07
33	0x35c090dd	1.4347276e-06
34	0xb3be354c	-8.857259e-08
35	0x36627def	3.3749927e-06
36	0xb47fa71f	-2.3809524e-07
37	0x348a90e0	2.5809913e-07
38	0x33b8bd99	8.602655e-08
39	0xb62b29ae	-2.5505246e-06
40	0x353d087a	7.042032e-07
41	0xb507d51c	-5.0601534e-07
42	0x34ed81ff	4.4239275e-07
43	0x322a255e	9.903799e-09
44	0xb5b806c2	-1.3711035e-06
45	0x3626bd74	2.4846204e-06
46	0x35e34c58	1.6935037e-06
47	0xb6a55649	-4.927428e-06
48	0x354beed2	7.597092e-07
49	0xb66aaa05	-3.4967682e-06
50	0xb493ff83	-2.7566793e-07
51	0xb3be1cbf	-8.852793e-08
52	0xb59577f3	-1.1136275e-06
53	0x348440bd	2.463402e-07
54	0xb5a6bb00	-1.2422388e-06
55	0x35e3e0e5	1.6978271e-06
56	0xb53e5fea	-7.092009e-07
57	0xb54b455d	-7.572433e-07
58	0xb4e5c1e3	-4.2795645e-07
59	0x35008c2c	4.788769e-07
60	0xb580fdd1	-9.610613e-07
61	0xb5c4dac4	-1.4666807e-06
62	0x34668d3b	2.1471799e-07
63	0xb5c6165f	-1.475866e-06
64	0x355cae02	8.22096e-07
65	0x35360fab	6.7823083e-07
66	0x360a8f13	2.0646883e-06
67	0x33c41016	9.129887e-08
68	0xb58ef794	-1.0651879e-06
69	0xb50ebd8f	-5.3174966e-07
70	0xb5128037	-5.4575816e-07
71	0x34b639e2	3.3942257e-07
72	0x355c99fc	8.2180463e-07
73	0xb60beed8	-2.085164e-06
74	0xb4d5c3aa	-3.9816706e-07
75	0x353ea917	7.1026574e-07
76	0x36331741	2.6686614e-06
77	0xb5a40bd8	-1.2222399e-06
78	0x3527cf6d	6.251419e-07
79	0x351ac31a	5.765338e-07
80	0x358872b1	1.0166169e-06
81	0x35f33998	1.8121673e-06
82	0xb3ae2c97	-8.110617e-08
83	0x35e27581	1.687251e-06
84	0x34035074	1.2229594e-07
85	0x34f20330	4.5078332e-07
86	0xb5f7d10d	-1.8463776e-06
87	0x3674a323	3.6453791e-06
88	0x3520c193	5.988633e-07
89	0x35566106	7.98624e-07
90	0xb5c7b471	-1.4879171e-06
91	0xb521003e	-5.9977526e-07
92	0x36116f7d	2.1671578e-06
93	0xb51dd0bd	-5.879081e-07
94	0xb410ba3c	-1.3478797e-07
95	0xb473836c	-2.267895e-07
96	0x354fc700	7.740309e-07
97	0x361c1676	2.3258885e-06
98	0xb6262a5c	-2.4760584e-06
99	0x368b7029	4.15558e-06
100	0xb38ee144	-6.653366e-08
101	0xb519c701	-5.728653e-07
102	0xb5601a88	-8.348511e-07
103	0x3455bde5	1.9906254e-07
104	0xb4973774	-2.816629e-07
105	0xb4aaf9dc	-3.1846764e-07
106	0x35e3767e	1.6947304e-06
107	0xb6f7f1c0	-7.389317e-06
108	0x34c3dd98	3.648281e-07
109	0xb50ffeda	-5.364251e-07
110	0xb5ac2c17	-1.282783e-06
111	0xb5097bf8	-5.1216875e-07
112	0xb57d7cbc	-9.4431357e-07
113	0x35a24c8b	1.2092218e-06
114	0xb611452f	-2.1646954e-06
115	0xb4a7bef8	-3.1245122e-07
116	0xb540b65a	-7.179093e-07
117	0x3549fe2c	7.5248204e-07
118	0xb44b3d65	-1.8928183e-07
119	0xb67432ff	-3.6388517e-06
120	0x3589bced	1.026228e-06
121	0x34590e7c	2.0214969e-07
122	0x34c9554c	3.750123e-07
123	0xb529fae3	-6.3322494e-07
124	0xb4951beb	-2.7773726e-07
125	0xb3198bf6	-3.5750382e-08
126	0xb5be9538	-1.4199532e-06
127	0xb4b1f512	-3.314713e-07
128	0xb50c8876	-5.235264e-07
129	0xb6ac41fb	-5.1336806e-06
130	0x35392fd8	6.898749e-07
131	0x35363a2e	6.7884946e-07
132	0x36622698	3.3699089e-06
133	0x3473149f	2.263864e-07
134	0xb48a3d65	-2.5749173e-07
135	0xb50d8bac	-5.272984e-07
136	0xb6aac147	-5.0888953e-06
137	0xb5f8be55	-1.8532834e-06
138	0xb60a1afe	-2.0579314e-06
139	0xb1e2c06b	-6.599341e-09
140	0xb4b0c5f1	-3.2926576e-07
141	0x350a8cb5	5.161376e-07
142	0x360688fe	2.0047296e-06
143	0xb3b6ce52	-8.512565e-08
144	0x3657b811	3.2144637e-06
145	0xb483e6a9	-2.456848e-07
146	0x3594d315	1.1088292e-06
147	0xb5a90828	-1.2593855e-06
148	0xb4cb641e	-3.788454e-07
149	0xb50a1d5c	-5.145173e-07
150	0x35839a4e	9.805169e-07
151	0xb5adb960	-1.2943456e-06
152	0xb3d2dbbc	-9.8188565e-08
153	0x35d23112	1.5660501e-06
154	0x334aad4e	4.718941e-08
155	0xb5d921b4	-1.6177569e-06
156	0xb4492c70	-1.873575e-07
157	0xb4c2e65f	-3.6302933e-07
158	0xb49a918c	-2.8790635e-07
159	0xb508549b	-5.0787065e-07
160	0xb5a0f11d	-1.1991102e-06
161	0x364e4075	3.073391e-06
162	0x35ff59d1	1.902512e-06
163	0x35158470	5.569955e-07
164	0xb4addc8a	-3.2384224e-07
165	0xb583d6bd	-9.822758e-07
166	0xb4a805f2	-3.1296764e-07
167	0x34016731	1.2051602e-07
168	0xb4d05caf	-3.8810455e-07
169	0x350cc2e4	5.243767e-07
170	0x350de336	5.285723e-07
171	0xb3e3c836	-1.06069294e-07
172	0x3543b149	7.2901145e-07
173	0xb538601a	-6.868519e-07
174	0x348a169b	2.572095e-07
175	0x35a9ef23	1.2661079e-06
176	0x35a27278	1.2103255e-06
177	0xb4aa2f01	-3.1699167e-07
178	0x35a1bdb2	1.2050643e-06
179	0x356556f9	8.543571e-07
180	0xb5cbbb83	-1.5179252e-06
181	0xb5643137	-8.5008236e-07
182	0x36132da1	2.1931266e-06
183	0xb62185a1	-2.4068652e-06
184	0x35f40bba	1.818283e-06
185	0x33b54e28	8.442686e-08
186	0xb513f9fd	-5.512555e-07
187	0xb5ea6220	-1.7462917e-06
188	0xb4dd7fb9	-4.1257388e-07
189	0x35214ad3	6.008606e-07
190	0x35b9ae32	1.3834272e-06
191	0x34f80095	4.6194023e-07
192	0x351c4ec6	5.822916e-07
193	0xb533a6cb	-6.692541e-07
194	0xb64f6d4e	-3.0909027e-06
195	0xb522c258	-6.063251e-07
196	0x353475e6	6.722679e-07
197	0x35df595a	1.66408e-06
198	0x34c24950	3.6188658e-07
199	0xb684de75	-3.959804e-06
200	0xb58deccd	-1.0574237e-06
201	0x35f664bc	1.8357746e-06
202	0xb5728641	-9.034739e-07
203	0x357d9021	9.445958e-07
204	0x34a02231	2.98272e-07
205	0x3578bcf5	9.266217e-07
206	0x36f9b534	7.441873e-06
207	0x35f5ca12	1.8312733e-06
208	0x3549e6d8	7.5214257e-07
209	0x3393d7c2	6.884467e-08
210	0xb4d57d7d	-3.9765646e-07
211	0x350db875	5.2795014e-07
212	0xb4c30a07	-3.6328876e-07
213	0x342c8d05	1.6070051e-07
214	0xb5d8520c	-1.6117133e-06
215	0xb609e1f8	-2.0546122e-06
216	0x35056908	4.96992e-07
217	0x3579564f	9.2885324e-07
218	0x345b3d3c	2.0418241e-07
219	0xb54a057a	-7.5258833e-07
220	0xb516a577	-5.612014e-07
221	0xb4b222a1	-3.318028e-07
222	0x3626deb3	2.4865556e-06
223	0xb4844ec9	-2.464424e-07
224	0x34d65b5f	3.9927087e-07
225	0x33e744f7	1.07693204e-07
226	0x330cdb40	3.2795697e-08
227	0xb66b4a3c	-3.506094e-06
228	0xb5b93645	-1.3799369e-06
229	0x351ff678	5.9590775e-07
230	0x33e7317f	1.0765779e-07
231	0xb47fc071	-2.3818735e-07
232	0x35e5c7c1	1.7119966e-06
233	0xb675a770	-3.6605306e-06
234	0x34b234de	3.319355e-07
235	0x357de4e4	9.4582924e-07
236	0xb53c1b68	-7.007534e-07
237	0xb6018e30	-1.9305262e-06
238	0xb3af6891	-8.168093e-08
239	0xb62973ce	-2.525037e-06
240	0x36902ca8	4.296733e-06
241	0x35ba7cd8	1.3894414e-06
242	0xb13c8621	-2.7433844e-09
243	0x3671aacd	3.6011218e-06
244	0xb53e6863	-7.093242e-07
245	0xb506b6c8	-5.018487e-07
246	0xb4eb9321	-4.387921e-07
247	0x3585890b	9.949157e-07
248	0x35a705e8	1.2444189e-06
249	0xb39652e4	-6.999997e-08
250	0xb624fe09	-2.4585772e-06
251	0xb50b6efe	-5.194305e-07
252	0xb647b8a7	-2.9760793e-06
253	0x35655663	8.5434857e-07
254	0x34b86989	3.4349458e-07
255	0xb4ae016a	-3.2411054e-07

bn1.weight f4 [256]
0	0x3f27f7d8	0.65612555
1	0x3f1a439b	0.6025941
2	0x3f35cb80	0.7101364
3	0x3f1ce8e1	0.61292845
4	0x3f206fad	0.62670404
5	0x3f1c239c	0.60991836
6	0x3f2eea36	0.6832613
7	0x3f35e116	0.7104658
8	0x3f17c941	0.59291464
9	0x3f2f8a49	0.6857038
10	0x3f167534	0.5877259
11	0x3f0cf28c	0.550576
12	0x3f2a05cd	0.664151
13	0x3f24e8a5	0.6441749
14	0x3f22c4b5	0.635814
15	0x3f0679e8	0.52529764
16	0x3f1a2126	0.6020683
17	0x3f11eaba	0.5699879
18	0x3f20fc24	0.62884736
19	0x3f27032b	0.6523921
20	0x3f21a8b4	0.63148046
21	0x3f21546e	0.63019454
22	0x3f2e358a	0.68050444
23	0x3f1001a3	0.562525
24	0x3f2b02a2	0.6680089
25	0x3f1fbb18	0.6239486
26	0x3f2730ee	0.65309036
27	0x3f1f5530	0.6223936
28	0x3f28abfc	0.6588743
29	0x3f2b8e58	0.67014074
30	0x3f1e41a1	0.6181889
31	0x3f21a16c	0.63136935
32	0x3f178a88	0.59195757
33	0x3f34fa8c	0.70694804
34	0x3f2ec045	0.6826213
35	0x3f25f542	0.6482736
36	0x3f36ab23	0.71354884
37	0x3f235634	0.6380341
38	0x3f1ad603	0.60482806
39	0x3f2f35c8	0.6844144
40	0x3f2665d2	0.64999115
41	0x3f1dee96	0.6169218
42	0x3f1c73e9	0.61114365
43	0x3f205385	0.6262744
44	0x3f2880f9	0.65821797
45	0x3f3a7de9	0.72848374
46	0x3f63d574	0.8899758
47	0x3f1de612	0.61679184
48	0x3f0d0117	0.5507979
49	0x3f322eed	0.69602853
50	0x3f140ebe	0.57834995
51	0x3f203567	0.62581486
52	0x3f1c1635	0.60971385
53	0x3f1c4440	0.6104164
54	0x3f0e83de	0.55669963
55	0x3f1efa42	0.62100613
56	0x3f2261c2	0.63430417
57	0x3f213506	0.6297153
58	0x3f184c02	0.5949098
59	0x3f2f26ce	0.68418586
60	0x3f1e577d	0.61852247
61	0x3f267dd8	0.6503577
62	0x3f23ae77	0.6393809
63	0x3f27f966	0.65614927
64	0x3f05cf6c	0.52269626
65	0x3f25585f	0.6458797
66	0x3f25544c	0.6458175
67	0x3f222349	0.6333509
68	0x3f1762c4	0.5913508
69	0x3f245d36	0.6420473
70	0x3f1b145f	0.6057796
71	0x3f2cb160	0.6745815
72	0x3f18d8a8	0.5970559
73	0x3f2980f3	0.66212386
74	0x3f1d6b52	0.6149188
75	0x3f219896	0.6312345
76	0x3f216eb5	0.6305955
77	0x3f19c33a	0.6006352
78	0x3f19cbb5	0.6007646
79	0x3f1d467c	0.61435676
80	0x3f30ce3c	0.6906469
81	0x3f1c415c	0.6103723
82	0x3f237c9e	0.63862026
83	0x3f2f3920	0.6844654
84	0x3f2f94b0	0.68586254
85	0x3f2770b5	0.6540635
86	0x3f206add	0.6266306
87	0x3f2079a5	0.62685615
88	0x3f0851d0	0.53249836
89	0x3f292132	0.6606628
90	0x3f0f1f9c	0.5590761
91	0x3f2df5b8	0.6795306
92	0x3f31e73d	0.69493467
93	0x3f1cecf9	0.6129909
94	0x3f040fc6	0.5158657
95	0x3f5a3c9b	0.85248727
96	0x3f3f0cda	0.74628985
97	0x3f1ddad1	0.6166201
98	0x3f36fd26	0.71480024
99	0x3f2c742f	0.6736478
100	0x3f100a5e	0.5626582
101	0x3f2570bf	0.6462516
102	0x3f1bb675	0.6082528
103	0x3f1252ec	0.5715778
104	0x3f2deb2e	0.6793698
105	0x3f1f87b4	0.6231644
106	0x3f34e745	0.7066539
107	0x3f312f8c	0.69213176
108	0x3f32e396	0.6987852
109	0x3f1d3177	0.614036
110	0x3f342743	0.7037241
111	0x3f0dfd68	0.5546479
112	0x3f2465f7	0.64218086
113	0x3f1ec877	0.62024635
114	0x3f3c5b4b	0.735768
115	0x3f37ca43	0.71793
116	0x3f0d42e7	0.5518021
117	0x3f249d33	0.64302367
118	0x3f2b2c38	0.6686435
119	0x3f273e91	0.65329844
120	0x3f1e7d3a	0.6190983
121	0x3f0aaa48	0.5416608
122	0x3f285260	0.65750694
123	0x3f0d6e32	0.5524627
124	0x3f15b591	0.58480173
125	0x3f1fbcee	0.6239766
126	0x3f3663c4	0.7124598
127	0x3f1deb97	0.61687607
128	0x3f1e8574	0.61922383
129	0x3f2be632	0.67148125
130	0x3f16b276	0.5886606
131	0x3f27a9a6	0.6549324
132	0x3f1d2d2c	0.6139705
133	0x3f17f50b	0.5935828
134	0x3f32ce2a	0.6984583
135	0x3f2c503a	0.67309916
136	0x3f334425	0.70025855
137	0x3f2026f3	0.6255943
138	0x3f2d815d	0.6777552
139	0x3f18202d	0.59424096
140	0x3f3a24b1	0.72712237
141	0x3f2a10c7	0.6643185
142	0x3f1bebd4	0.6090672
143	0x3f17289b	0.59046334
144	0x3f2ef2ce	0.6833924
145	0x3f2b9e1f	0.6703815
146	0x3f1593e4	0.5842879
147	0x3f288804	0.65832543
148	0x3f2716cf	0.6526918
149	0x3f1e6d34	0.6188538
150	0x3f259d1b	0.6469285
151	0x3f2b7097	0.66968673
152	0x3f255356	0.64580286
153	0x3f27bc93	0.65522116
154	0x3f2accd0	0.6671877
155	0x3f18f61f	0.5975055
156	0x3f16801c	0.5878923
157	0x3f2e7f39	0.68162876
158	0x3f1f1781	0.6214524
159	0x3efb61cb	0.49098048
160	0x3f26dd85	0.6518176
161	0x3f11e23f	0.5698585
162	0x3f3985d3	0.72469825
163	0x3f14d2b4	0.5813401
164	0x3f15f20b	0.58572453
165	0x3f1e8d83	0.6193468
166	0x3f123847	0.5711712
167	0x3f206131	0.626483
168	0x3f110a0a	0.56655943
169	0x3f3353bf	0.7004966
170	0x3f2f0909	0.6837316
171	0x3f2078fd	0.62684613
172	0x3f356f13	0.7087261
173	0x3f244caa	0.6417948
174	0x3f224c11	0.6339732
175	0x3f116c75	0.5680612
176	0x3f24703e	0.6423377
177	0x3f0ec711	0.557725
178	0x3f2e95e8	0.6819749
179	0x3f395f17	0.7241072
180	0x3f224cef	0.6339864
181	0x3f216220	0.6304035
182	0x3f546a1a	0.829744
183	0x3f24521f	0.64187807
184	0x3f3bc516	0.73347604
185	0x3f362737	0.7115359
186	0x3f2aad92	0.666711
187	0x3f1c32a9	0.610148
188	0x3f394b9c	0.72380996
189	0x3f3bc71d	0.733507
190	0x3f29bd21	0.6630421
191	0x3f2e067b	0.6797864
192	0x3f0b2ad0	0.543622
193	0x3f227484	0.6345904
194	0x3f272476	0.6529001
195	0x3f27015b	0.65236443
196	0x3f251a80	0.6449356
197	0x3f1078fe	0.5643462
198	0x3f271481	0.6526566
199	0x3f26b4de	0.6511973
200	0x3f2e6344	0.6812022
201	0x3f15885b	0.58411187
202	0x3f191419	0.5979629
203	0x3f2042f7	0.6260218
204	0x3f20a378	0.62749434
205	0x3f2290e3	0.6350233
206	0x3f19c0eb	0.60059994
207	0x3f2a1225	0.66433936
208	0x3f10cba0	0.5656071
209	0x3f1abfb1	0.6044875
210	0x3f2243ee	0.633849
211	0x3f27f436	0.6560701
212	0x3f2a34e7	0.6648697
213	0x3f25a4bf	0.6470451
214	0x3f20f9b6	0.6288103
215	0x3f2e71c8	0.68142366
216	0x3f223b3f	0.6337165
217	0x3f22d904	0.6361239
218	0x3f300572	0.6875831
219	0x3f1b40c3	0.60645694
220	0x3f121693	0.57065696
221	0x3f15b0d6	0.58472955
222	0x3f189d79	0.59615284
223	0x3f48f182	0.7849351
224	0x3f16fa01	0.58975226
225	0x3f3128f1	0.69203097
226	0x3f172f8e	0.5905694
227	0x3f2c52da	0.6731392
228	0x3f29e6b3	0.66367644
229	0x3f29e4df	0.66364855
230	0x3f36412a	0.7119318
231	0x3f137def	0.57614034
232	0x3f2f334a	0.68437636
233	0x3f2e5ea7	0.6811318
234	0x3f26e54d	0.65193635
235	0x3f21d728	0.6321893
236	0x3f1ffa14	0.62490964
237	0x3f24c74d	0.6436661
238	0x3f19aab8	0.6002612
239	0x3f28de48	0.65964174
240	0x3f36374e	0.7117814
241	0x3f26ccb1	0.65156084
242	0x3f1a47e6	0.6026596
243	0x3f23a709	0.6392675
244	0x3f2993b6	0.66241014
245	0x3f175106	0.59108007
246	0x3f1bf145	0.60915023
247	0x3f119724	0.5687125
248	0x3f4a9ffe	0.7915038
249	0x3f21b377	0.63164467
250	0x3f3a73c2	0.7283288
251	0x3f185314	0.5950177
252	0x3f359afc	0.7093961
253	0x3f354748	0.7081189
254	0x3f34b636	0.7059053
255	0x3f0a47dd	0.54015905

bn1.bias f4 [256]
0	0xbe97310f	-0.29529616
1	0xbde14d9b	-0.1100113
2	0xbe9c253b	-0.30497155
3	0xbdc465df	-0.09589743
4	0xbeaf4a1b	-0.34236225
5	0xbecb9aac	-0.39766443
6	0xbe47f1b6	-0.19525799
7	0xbe7612e6	-0.24030647
8	0xbe81201c	-0.2521981
9	0xbeb0a1e7	-0.34498522
10	0xbea746e5	-0.32671276
11	0xbe6cc351	-0.23121382
12	0xbe214f22	-0.15752843
13	0xbe62a8ed	-0.22134753
14	0xbe80d63b	-0.25163445
15	0xbe21ce16	-0.15801272
16	0xbe903df9	-0.2817228
17	0xbe495670	-0.1966188
18	0xbe05c3b4	-0.13062936
19	0xbea9f0e7	-0.33191606
20	0xbe4548ab	-0.19266002
21	0xbecf39cb	-0.4047378
22	0xbe818257	-0.25294754
23	0xbe81e4de	-0.25369924
24	0xbeb03cf2	-0.34421498
25	0xbec73314	-0.38906157
26	0xbe44b4a6	-0.19209537
27	0xbe99ef0b	-0.30065188
28	0xbe1116f1	-0.14168908
29	0xbe388723	-0.180203
30	0xbe8b1a5e	-0.27168554
31	0xbe9f34fa	-0.31095105
32	0xbefa77cc	-0.48919523
33	0xbedafc95	-0.4277083
34	0xbe962947	-0.29328367
35	0xbe3ead17	-0.18620716
36	0xbe36dba0	-0.17857218
37	0xbeaf8984	-0.34284604
38	0xbe6621b6	-0.22473797
39	0xbea35ac5	-0.3190519
40	0xbe977971	-0.2958484
41	0xbe2e9fb3	-0.17053108
42	0xbe8ee392	-0.27907997
43	0xbe77b3e9	-0.24189724
44	0xbe134fa2	-0.14385846
45	0xbe74e47d	-0.23915286
46	0xbeba84ac	-0.36429346
47	0xbeb63293	-0.3558546
48	0xbe58d654	-0.2117551
49	0xbe9f6ccb	-0.3113769
50	0xbe961d26	-0.29319113
51	0xbeb2a43d	-0.3489093
52	0xbde3dc0f	-0.11125957
53	0xbea29cae	-0.31760162
54	0xbe62186b	-0.22079627
55	0xbe1d866c	-0.15383309
56	0xbe2bf254	-0.1679166
57	0xbe925391	-0.2857938
58	0xbe478429	-0.19484009
59	0xbe90ae64	-0.2825805
60	0xbe6d8952	-0.23196915
61	0xbec0acd3	-0.37631854
62	0xbe99a2de	-0.3000707
63	0xbe37488a	-0.17898765
64	0xbe80574b	-0.250666
65	0xbe43d222	-0.19123128
66	0xbe9d4c8c	-0.30722463
67	0xbe68c181	-0.22730066
68	0xbed3b7cd	-0.41351166
69	0xbea48a39	-0.32136706
70	0xbe3d19d7	-0.18466888
71	0xbe8e0a7a	-0.27742368
72	0xbeace52a	-0.33768588
73	0xbe562850	-0.20913815
74	0xbe33b48c	-0.17549342
75	0xbdc44eba	-0.095853284
76	0xbe7f2064	-0.249147
77	0xbe80ac39	-0.25131395
78	0xbe9046c7	-0.28179
79	0xbdf4b408	-0.11948401
80	0xbe866285	-0.2624704
81	0xbe3e50df	-0.18585537
82	0xbe885542	-0.26627547
83	0xbeb8916a	-0.36048442
84	0xbe5d4a22	-0.2161031
85	0xbe935e9a	-0.28783113
86	0xbe34010a	-0.17578521
87	0xbe5ee63a	-0.21767512
88	0xbe65e9f7	-0.22452532
89	0xbe97ce83	-0.29649743
90	0xbe5a1202	-0.21295932
91	0xbe901c9d	-0.2814683
92	0xbe2b5e21	-0.16735126
93	0xbe3b67ec	-0.18301362
94	0xbe98bcfb	-0.2983168
95	0xbecfce82	-0.4058724
96	0xbe99eb3c	-0.30062282
97	0xbe8feed1	-0.2811189
98	0xbe9ed225	-0.31019703
99	0xbe5aca7b	-0.21366303
100	0xbea168fe	-0.31525415
101	0xbe996c66	-0.29965514
102	0xbe77d575	-0.24202521
103	0xbe884e6d	-0.26622334
104	0xbe7f4190	-0.24927354
105	0xbeaab8fe	-0.33344263
106	0xbe70de72	-0.23522356
107	0xbe592da2	-0.21208814
108	0xbe650794	-0.22366172
109	0xbe24da7c	-0.1609897
110	0xbe8c613a	-0.27417928
111	0xbe935a84	-0.28779995
112	0xbe598c1c	-0.21244854
113	0xbe51ffaa	-0.20507684
114	0xbe9b709e	-0.30359358
115	0xbe1beaab	-0.15226237
116	0xbeae1d63	-0.34006795
117	0xbe4e0744	-0.20119959
118	0xbe73fd13	-0.23827009
119	0xbebb3d1a	-0.36570054
120	0xbe4361a7	-0.1908022
121	0xbea4143b	-0.32046685
122	0xbe5664bb	-0.20936863
123	0xbe4263ab	-0.18983333
124	0xbe87c51b	-0.26517567
125	0xbe924a5e	-0.28572363
126	0xbe14a774	-0.14517003
127	0xbe884313	-0.26613674
128	0xbe95984a	-0.2921775
129	0xbe698b63	-0.22807078
130	0xbe493baf	-0.19651674
131	0xbea3afe6	-0.31970137
132	0xbe39f8b9	-0.18161286
133	0xbe9d05da	-0.30668527
134	0xbe9fae68	-0.3118775
135	0xbea691dc	-0.32533157
136	0xbec3e598	-0.38261104
137	0xbe1e6a68	-0.15470278
138	0xbe8e1b79	-0.27755335
139	0xbe79c014	-0.24389678
140	0xbe945228	-0.2896893
141	0xbe142a9a	-0.14469376
142	0xbc782ea0	-0.015147835
143	0xbe9a2c53	-0.30111942
144	0xbe3f78a8	-0.1869837
145	0xbe9ba61c	-0.3040017
146	0xbe7ae36c	-0.24500817
147	0xbe6346b9	-0.22194947
148	0xbe0c06e5	-0.13674505
149	0xbeadf3c2	-0.33975035
150	0xbe5b4502	-0.21413043
151	0xbe6312d8	-0.22175157
152	0xbe80d1f7	-0.2516019
153	0xbe9b33df	-0.30313012
154	0xbeb42970	-0.35187864
155	0xbea1d0e0	-0.3160467
156	0xbe5d28a8	-0.2159754
157	0xbe98fc8c	-0.29880178
158	0xbdd1026b	-0.10205539
159	0xbe2713b6	-0.16316113
160	0xbebd5e8e	-0.36986202
161	0xbe959ad1	-0.29219678
162	0xbeae427f	-0.34035107
163	0xbeb350d7	-0.35022613
164	0xbe816d41	-0.25278667
165	0xbe582686	-0.21108446
166	0xbde7889c	-0.11305353
167	0xbe375f9e	-0.17907569
168	0xbe196115	-0.1497844
169	0xbe876003	-0.2644044
170	0xbe8c4dac	-0.2740301
171	0xbe2bde0f	-0.16783927
172	0xbe4f3071	-0.20233323
173	0xbe25b942	-0.16183951
174	0xbe5adf6d	-0.21374293
175	0xbe8ebe16	-0.278794
176	0xbdfb371a	-0.12266369
177	0xbe8119a8	-0.25214887
178	0xbe9f6031	-0.31128076
179	0xbe703079	-0.23455991
180	0xbe0afcc5	-0.13572986
181	0xbeb03c67	-0.34421083
182	0xbeae3735	-0.34026495
183	0xbea79406	-0.3273012
184	0xbec1e929	-0.378732
185	0xbea41c97	-0.32053062
186	0xbedb712a	-0.42859775
187	0xbeb8e11d	-0.36109248
188	0xbe523431	-0.20527722
189	0xbe5640fc	-0.20923227
190	0xbe8892b7	-0.26674435
191	0xbe6310ea	-0.22174421
192	0xbe22698d	-0.15860577
193	0xbe131238	-0.14362419
194	0xbe53cc69	-0.20683445
195	0xbe5cc650	-0.21560025
196	0xbe6b48d9	-0.22977008
197	0xbe949c73	-0.2902561
198	0xbe0e2d2c	-0.13884419
199	0xbe7f23f1	-0.24916054
200	0xbe58d4f8	-0.21174991
201	0xbea58952	-0.3233133
202	0xbea4e13f	-0.322031
203	0xbe856b0a	-0.26058227
204	0xbee000c3	-0.4375058
205	0xbe35744d	-0.17720146
206	0xbe851e89	-0.2599986
207	0xbeac7d33	-0.3368927
208	0xbe6b4415	-0.2297519
209	0xbe860eb0	-0.2618308
210	0xbe9168af	-0.2840018
211	0xbe8631b5	-0.26209798
212	0xbe21181d	-0.15731855
213	0xbe755b5f	-0.23960637
214	0xbe6fd682	-0.23421672
215	0xbeb50fe6	-0.35363692
216	0xbe43cd32	-0.19121245
217	0xbeafb12a	-0.34314853
218	0xbe83c66d	-0.25737324
219	0xbe93ce89	-0.2886851
220	0xbe8d277f	-0.27569196
221	0xbe7d3d37	-0.24730383
222	0xbe731e9c	-0.23742145
223	0xbece5402	-0.40298468
224	0xbe9f6dca	-0.3113845
225	0xbe94af75	-0.29040113
226	0xbe992e30	-0.2991805
227	0xbe509335	-0.20368655
228	0xbea9657b	-0.33085236
229	0xbeb16866	-0.34649962
230	0xbe8f9a97	-0.2804763
231	0xbe64131e	-0.22272918
232	0xbe8f2827	-0.2796032
233	0xbef26256	-0.4734065
234	0xbe99e711	-0.30059102
235	0xbeaa59f9	-0.3327177
236	0xbe93fd3e	-0.28904146
237	0xbe4d536f	-0.20051359
238	0xbea10a31	-0.31453088
239	0xbebca0e4	-0.368415
240	0xbe9aff03	-0.30272684
241	0xbed861d3	-0.42262134
242	0xbeaff972	-0.3437
243	0xbe308b52	-0.17240646
244	0xbea6bfb1	-0.32568124
245	0xbe81b61d	-0.25334254
246	0xbe2293e7	-0.15876733
247	0xbdf63d37	-0.120233946
248	0xbe9151a4	-0.283826
249	0xbead57ee	-0.33856148
250	0xbebdef2c	-0.37096536
251	0xbeb3b854	-0.3510157
252	0xbed51ed2	-0.41625077
253	0xbe855d8b	-0.2604793
254	0xbe3c6adc	-0.18400139
255	0xbe137e36	-0.14403614

bn1.running_mean f4 [256]
0	0x3a4a7919	0.00077237334
1	0x3b55f144	0.0032645026
2	0x3a62a74c	0.0008646145
3	0x3a966dc0	0.00114768
4	0x3b1b06e2	0.0023655226
5	0xbb7a3480	-0.0038178265
6	0x3bae2715	0.0053147175
7	0x39d765a3	0.0004108372
8	0xba038aa6	-0.00050179136
9	0xbad2cb1d	-0.0016082261
10	0xbb34317b	-0.0027495313
11	0x3a8e0831	0.0010836181
12	0x3a273298	0.00063780835
13	0xbb6aac24	-0.003580817
14	0xb95fffe4	-0.00021362264
15	0xba205aab	-0.0006117026
16	0xbb65fa76	-0.0035091913
17	0x3a70f6bb	0.0009192039
18	0xbab03117	-0.0013442364
19	0x3b662c4b	0.0035121616
20	0xbb1199d8	-0.0022216942
21	0x3b84f118	0.004057061
22	0xbb017551	-0.0019753764
23	0x3be8a4ad	0.007099709
24	0x3b6088e3	0.0034261278
25	0xbbfe619e	-0.0077631017
26	0x3b26820f	0.002540711
27	0xba4333c9	-0.0007446376
28	0x3b6a3653	0.0035737946
29	0x3b5637d2	0.003268708
30	0x3921e857	0.0001544071
31	0x3ae26fe1	0.0017275774
32	0x3ba9daf2	0.005183571
33	0xba838afb	-0.0010035926
34	0xbb974662	-0.0046165446
35	0xbb7c3651	-0.0038484524
36	0x3a817e1b	0.0009879501
37	0xbbaa6d95	-0.0052010515
38	0xb84fb4de	-4.952109e-05
39	0x3aa58351	0.0012627636
40	0xbb0e927c	-0.0021754792
41	0x3aebb7af	0.0017983819
42	0x38d8e707	0.00010342715
43	0xbb8dbfab	-0.004325827
44	0x3b1d6734	0.0024017813
45	0x3b896a24	0.004193561
46	0xbac407a8	-0.0014955895
47	0x3ad7194c	0.0016410737
48	0xbb9c7326	-0.004774469
49	0x3ab77e00	0.0013999343
50	0x3b9ee309	0.004848842
51	0xbb18b3e4	-0.0023300583
52	0xbb62d58d	-0.003461215
53	0x3b2429da	0.002504936
54	0xbb7a04b4	-0.0038149776
55	0xbaba3b66	-0.0014208376
56	0x39013db1	0.0001232538
57	0xbb9b00de	-0.004730328
58	0xbb107259	-0.0022040813
59	0x39b188e8	0.00033862074
60	0xbb80adf5	-0.0039269873
61	0xbb4ca10e	-0.0031223926
62	0xbba5eeca	-0.0050638663
63	0xbb8ff8af	-0.004393659
64	0x3b2085e7	0.0024493875
65	0x3b632d07	0.003466429
66	0x3a8e57d1	0.0010859912
67	0x3984bbb4	0.00025316852
68	0xbabb4344	-0.0014287014
69	0x3865d479	5.4795735e-05
70	0x3b1f936d	0.0024349347
71	0xba6efe18	-0.00091168424
72	0xbb43dd3c	-0.0029886505
73	0x3ab4e5aa	0.0013801355
74	0xbb97ede6	-0.004636514
75	0xbb211bf2	-0.0024583307
76	0x3ad21696	0.001602846
77	0xbac5c82d	-0.0015089564
78	0x3a220896	0.0006181089
79	0xbb002fc2	-0.0019559716
80	0x3b499cd8	0.0030763652
81	0x3a61ca52	0.0008613217
82	0x3b2ec6c2	0.0026668762
83	0xba8c3ff4	-0.0010700212
84	0x3b294351	0.0025827477
85	0x3bbc6d25	0.0057503157
86	0xbaaefc1b	-0.001335028
87	0x3b5ae15d	0.0033398487
88	0x3a4f29e2	0.00079026644
89	0xbb29ba14	-0.0025898265
90	0x3b3fd0f7	0.002926884
91	0xbb1ea125	-0.0024204936
92	0xba3b05ea	-0.0007134365
93	0x3b367a68	0.0027843956
94	0xbbd161c7	-0.00638983
95	0xbb1116d7	-0.0022138858
96	0xba173be7	-0.0005769119
97	0x3b8751e5	0.0041296356
98	0xba92f5b2	-0.0011212139
99	0x3b7fbf7b	0.0039024043
100	0xbb97adad	-0.004628858
101	0x3b2f44f5	0.0026743982
102	0x3b1b62b5	0.0023709957
103	0xbbb339f5	-0.0054695555
104	0x3b287eb5	0.002571029
105	0xbaac6d9d	-0.0013155226
106	0x3a0b913e	0.0005324072
107	0xbab56a74	-0.001384093
108	0xbb12ecb4	-0.0022418918
109	0x3b977d2e	0.004623077
110	0x3ae2e6f1	0.0017311258
111	0xbbdef7b7	-0.0068044323
112	0x3b1a445b	0.0023539278
113	0x3b6f2767	0.0036491991
114	0xbaa0a8de	-0.0012257358
115	0xb9d38d35	-0.00040350264
116	0xbacbb884	-0.0015542661
117	0x3a50cf3a	0.00079654495
118	0x3b21ef17	0.002470916
119	0xb99ce141	-0.00029922466
120	0xbbccab75	-0.006246025
121	0x3b49545a	0.0030720443
122	0x3bb32df3	0.005468124
123	0x3bac6e26	0.005262154
124	0xbb08fb2f	-0.002090167
125	0x3a9ecf7a	0.0012116276
126	0x3b276822	0.0025544246
127	0xbab6491f	-0.001390729
128	0x3bcfa6bd	0.0063370154
129	0x3a5a6021	0.00083303644
130	0xbb3e8dcd	-0.002907622
131	0xb8e4d6cb	-0.000109118955
132	0xba9b90b3	-0.0011868685
133	0x3bb70e05	0.005586388
134	0xbbbe28ed	-0.0058032186
135	0x3b44bb9e	0.0030019055
136	0xbae15d67	-0.0017193974
137	0x3b2bddad	0.0026224658
138	0x3b2f3892	0.00267366
139	0x3b39f4a1	0.002837457
140	0x3b841e72	0.0040319497
141	0xbb1e8703	-0.002418936
142	0x3a57fa75	0.000823892
143	0x3ad77f02	0.001644105
144	0xba546d21	-0.00081034197
145	0x3b14d605	0.0022710573
146	0xba306a6d	-0.0006729726
147	0xb6e25b86	-6.7459796e-06
148	0xbaf7847a	-0.0018884086
149	0x39a30675	0.00031094594
150	0xbb47735b	-0.0030433747
151	0x3b8334ff	0.0040041204
152	0x3b199215	0.002343302
153	0x3a73514d	0.0009281829
154	0xbb19a132	-0.0023442027
155	0x3ab186a2	0.0013544152
156	0xbba09e54	-0.0049016867
157	0xb9fa15dc	-0.00047700002
158	0x3aa55348	0.0012613321
159	0xbb3e8c48	-0.0029075313
160	0x3b9a0fac	0.0047015753
161	0xbba91cc9	-0.005160902
162	0xbad24f8f	-0.0016045439
163	0xb9c923bc	-0.00038364332
164	0x3a81e3eb	0.0009909844
165	0xb8ff3814	-0.00012169793
166	0xbacc1a60	-0.0015571825
167	0x3a1a422e	0.00058844953
168	0x3827eee1	4.0038376e-05
169	0x3a523d55	0.00080200034
170	0xbb895f52	-0.0041922713
171	0xbab7e3f0	-0.0014029723
172	0x3a1ac7cd	0.00059044064
173	0x3855ecf3	5.1003834e-05
174	0xba948c80	-0.0011333376
175	0xb963643e	-0.0002168575
176	0x3a7818c2	0.00094641384
177	0x3a9e9161	0.001209777
178	0x3b27e348	0.0025617648
179	0xbad21d10	-0.001603039
180	0x3b2df1f3	0.0026541918
181	0xbbd6119e	-0.006532862
182	0xbacadbf0	-0.0015476923
183	0x3b6ede3d	0.0036448382
184	0xbb239659	-0.002496144
185	0x3b8aca72	0.004235559
186	0x3b795aea	0.0038048574
187	0x3a24c5bf	0.000628557
188	0x3b247ec5	0.0025099975
189	0xb9e79644	-0.0004417171
190	0x3a700118	0.00091554364
191	0x3b09b646	0.0021013184
192	0xbb03461e	-0.0020030807
193	0xbaf6cf47	-0.0018830084
194	0x3b45b53d	0.003016784
195	0x3b4b1f95	0.0030994166
196	0xbb2fce64	-0.00268259
197	0xbb25768f	-0.0025247668
198	0x3b78bd80	0.0037954748
199	0x3a93d5d0	0.0011278931
200	0x3aabed72	0.0013117029
201	0x3b101cad	0.0021989748
202	0xbba298cf	-0.004962064
203	0xbb0e305b	-0.0021696303
204	0xba9e432e	-0.0012074464
205	0x3ae25f3a	0.0017270811
206	0x3acc5027	0.0015587852
207	0x3b728fd8	0.0037012007
208	0x39d5dbbf	0.0004079025
209	0xba048c91	-0.00050563464
210	0xbacd45b8	-0.0015661037
211	0xbac955d6	-0.0015360664
212	0x3b213a6c	0.0024601473
213	0x3b073546	0.0020631119
214	0xbaa8ffb0	-0.0012893584
215	0x39bbfacb	0.00035854275
216	0x3aeacb48	0.0017913366
217	0xbb575a19	-0.00328601
218	0x3aa0a5cd	0.0012256444
219	0x3b2a9b31	0.0026032443
220	0x39dbcbb9	0.0004192272
221	0x3b117890	0.0022197105
222	0x39a68456	0.00031760585
223	0xba98e6e0	-0.0011665486
224	0x3b8b14d2	0.0042444253
225	0x39862805	0.0002558829
226	0xbb69a5fc	-0.0035651913
227	0x3b373f58	0.002796134
228	0xbb949582	-0.0045344243
229	0x3ac366e7	0.0014907987
230	0x3b2bb129	0.0026198125
231	0xb809060c	-3.2668977e-05
232	0xbb7f0d43	-0.0038917817
233	0xbab22271	-0.0013590587
234	0x3b2db42c	0.0026505096
235	0xb994313c	-0.00028265442
236	0x3b845ac1	0.004039139
237	0x3c01a891	0.0079137245
238	0xb8171976	-3.6024918e-05
239	0xba00fe20	-0.000492068
240	0x3b5c75d0	0.0033639558
241	0x3a48e2ea	0.00076632074
242	0x3a532104	0.0008053931
243	0xba05bcf2	-0.00051017024
244	0xbbad2208	-0.005283598
245	0xbb251895	-0.0025191654
246	0x3bea2624	0.00714566
247	0x3a0af657	0.000530099
248	0x39d09d97	0.00039790265
249	0xbb8ddd72	-0.004329377
250	0xba4194c3	-0.0007384533
251	0xbb560e7b	-0.003266244
252	0xb8ba1b78	-8.8742876e-05
253	0x3898dbcb	7.2888644e-05
254	0x3b69502c	0.0035600765
255	0xbbbdee8c	-0.0057962593

bn1.running_var f4 [256]
0	0x3e27db30	0.16392207
1	0x3dae71e9	0.085178204
2	0x3e1278a5	0.14303835
3	0x3e36cf11	0.17852427
4	0x3e11fe5b	0.14257185
5	0x3ea6ff13	0.3261648
6	0x3e84ee0a	0.2596286
7	0x3e40acd3	0.18815927
8	0x3e069f35	0.1314667
9	0x3dbe4a69	0.09291536
10	0x3e867438	0.26260543
11	0x3e0259df	0.12729596
12	0x3e10e26b	0.14148872
13	0x3e2eefd0	0.17083669
14	0x3daa6738	0.08320469
15	0x3e425486	0.18977556
16	0x3e66d816	0.22543368
17	0x3db2ecc6	0.08736567
18	0x3df2037c	0.11817071
19	0x3e659d80	0.22423363
20	0x3e016a95	0.12638314
21	0x3e9ebf22	0.31005198
22	0x3dcc1e49	0.09966714
23	0x3e907cc5	0.28220192
24	0x3e01b2b6	0.12665829
25	0x3e813f17	0.25243446
26	0x3debf489	0.11521251
27	0x3e4a6fc4	0.19769198
28	0x3e699311	0.22810008
29	0x3ea4729d	0.32118693
30	0x3e3cd236	0.18439564
31	0x3ea310dd	0.31848803
32	0x3e81e789	0.2537196
33	0x3e838863	0.25689992
34	0x3e603baa	0.2189776
35	0x3e1422de	0.14466426
36	0x3e81839e	0.25295728
37	0x3ea0221a	0.31276017
38	0x3e120688	0.14260304
39	0x3e73ca77	0.23807703
40	0x3e2660e7	0.16247903
41	0x3e489c38	0.19590843
42	0x3e542c8a	0.20720115
43	0x3e453284	0.19257551
44	0x3e12da3b	0.14341061
45	0x3e43aeb0	0.19109607
46	0x3e19e6b6	0.15029415
47	0x3ea15f7d	0.31518164
48	0x3e80b893	0.2514082
49	0x3df56521	0.119821794
50	0x3e67e35e	0.22645327
51	0x3e071440	0.13191319
52	0x3e581ab3	0.21103935
53	0x3e86d7d8	0.2633655
54	0x3e182da2	0.14861158
55	0x3e2efc42	0.17088416
56	0x3e643a16	0.22287783
57	0x3e70309b	0.23456042
58	0x3ebbb2ef	0.36659953
59	0x3e3dd233	0.18537216
60	0x3e082553	0.13295488
61	0x3e26db7f	0.16294669
62	0x3e3ffdb4	0.18749124
63	0x3df6e5ad	0.12055526
64	0x3e18beca	0.1491653
65	0x3e549fc4	0.20764071
66	0x3e17ee2f	0.14836954
67	0x3e03ba7d	0.12864108
68	0x3e58694e	0.2113392
69	0x3decf5b2	0.115703
70	0x3e3e31cd	0.18573685
71	0x3e0387ef	0.12844823
72	0x3e1b313f	0.15155505
73	0x3e61070e	0.21975347
74	0x3e5f9129	0.21832718
75	0x3e696a3a	0.22794428
76	0x3e212c02	0.15739444
77	0x3db6bde4	0.089229375
78	0x3e21ff8c	0.1582014
79	0x3e841ade	0.25801748
80	0x3e4ce222	0.20008138
81	0x3e0fe9c9	0.14054026
82	0x3e187be2	0.14891008
83	0x3e075b47	0.13218413
84	0x3e8b2f3c	0.27184474
85	0x3e1d4ac1	0.15360548
86	0x3e609843	0.21933083
87	0x3e42d1a0	0.19025278
88	0x3df083ba	0.11743875
89	0x3e61b664	0.22042233
90	0x3dfb3d85	0.12267593
91	0x3e7b6027	0.24548398
92	0x3e47d3d2	0.19514397
93	0x3e048e67	0.12944947
94	0x3e8ee629	0.27909973
95	0x3e4da36e	0.20081875
96	0x3e465db5	0.19371684
97	0x3e223be3	0.15843157
98	0x3dfb541f	0.12271904
99	0x3deff31e	0.11716293
100	0x3e87dca1	0.26535514
101	0x3e2abe48	0.16674149
102	0x3e1daadc	0.15397209
103	0x3e766f2d	0.24065848
104	0x3e253e9d	0.16137166
105	0x3e666f40	0.22503376
106	0x3de09d66	0.10967521
107	0x3ddcd85b	0.10783454
108	0x3e1b0277	0.15137659
109	0x3e22e143	0.15906243
110	0x3e17f414	0.14839202
111	0x3e921ac3	0.28536043
112	0x3e6d8443	0.23194985
113	0x3e470d8f	0.19438766
114	0x3e76f1f8	0.24115741
115	0x3e08e269	0.13367619
116	0x3e7d4333	0.24732666
117	0x3e811a39	0.2521532
118	0x3dee75d1	0.116435654
119	0x3e04e75a	0.12978879
120	0x3e2c2012	0.16809109
121	0x3ea66d26	0.3250515
122	0x3e892019	0.267823
123	0x3e49df1d	0.19714017
124	0x3e1a8320	0.15089083
125	0x3e34ac09	0.17643751
126	0x3e3cc48e	0.18434355
127	0x3dd1cd4d	0.10244236
128	0x3e4e7b70	0.20164275
129	0x3dace685	0.084424056
130	0x3e0c1abf	0.13682078
131	0x3e3c50de	0.18390223
132	0x3e1fd05e	0.1560683
133	0x3e82d1f9	0.2555082
134	0x3e666224	0.22498375
135	0x3e47981c	0.19491619
136	0x3de8d91a	0.11369534
137	0x3e10110b	0.14069001
138	0x3e45f688	0.19332325
139	0x3e75b691	0.23995425
140	0x3e015527	0.1263014
141	0x3e484e61	0.19561149
142	0x3e436f14	0.19085342
143	0x3ea4f799	0.32220152
144	0x3e22c19b	0.15894167
145	0x3dd809a4	0.10548714
146	0x3e60f309	0.2196771
147	0x3e8ad177	0.27112934
148	0x3e2df57c	0.16988176
149	0x3e808b9a	0.25106508
150	0x3e08961e	0.13338515
151	0x3e870542	0.263712
152	0x3e864a12	0.26228386
153	0x3e7c9e88	0.2466985
154	0x3e5068e5	0.20352514
155	0x3e82527b	0.25453553
156	0x3e54c8c4	0.20779711
157	0x3dedec6b	0.11617359
158	0x3e6e4dac	0.23271817
159	0x3e365ec1	0.17809583
160	0x3e54065d	0.20705552
161	0x3e971007	0.29504415
162	0x3e180469	0.14845432
163	0x3e621d3a	0.22081462
164	0x3e8f1833	0.2794815
165	0x3e15ddfe	0.14635465
166	0x3e56e8f7	0.20987307
167	0x3e251213	0.16120176
168	0x3e3d051a	0.18458977
169	0x3e215dac	0.15758389
170	0x3e2c724e	0.16840479
171	0x3e312021	0.17297412
172	0x3e86513f	0.2623386
173	0x3df7d8c9	0.12101895
174	0x3e8216fd	0.25408164
175	0x3e113d49	0.14183535
176	0x3e408f2d	0.18804617
177	0x3e4ccafd	0.19999309
178	0x3e37bef2	0.17943934
179	0x3e199c4a	0.15001026
180	0x3eb7c72e	0.3589415
181	0x3e0829f0	0.13297248
182	0x3e09296c	0.13394707
183	0x3e81a5f6	0.2532193
184	0x3e9a92bb	0.3019007
185	0x3e49e2e0	0.19715452
186	0x3e1ebc7d	0.1550159
187	0x3e8107d0	0.25201273
188	0x3e4cd54d	0.20003243
189	0x3e863e51	0.2621942
190	0x3e264580	0.1623745
191	0x3e5547e5	0.20828207
192	0x3e631e36	0.22179493
193	0x3e5072c6	0.20356283
194	0x3e7fa428	0.24964964
195	0x3ea7a3fa	0.32742292
196	0x3e2137ad	0.15743895
197	0x3e70f882	0.23532298
198	0x3e453c45	0.19261272
199	0x3db17cd3	0.086663865
200	0x3e4a127c	0.19733614
201	0x3e3cbfeb	0.18432586
202	0x3e21c09a	0.15796128
203	0x3e0cf410	0.13764977
204	0x3e34b604	0.17647558
205	0x3e5f186e	0.21786663
206	0x3e2d7507	0.16939174
207	0x3dbd934b	0.092566095
208	0x3dec3631	0.11533774
209	0x3e91e0a1	0.2849169
210	0x3e48691a	0.19571343
211	0x3e5264e1	0.20546295
212	0x3e4fa501	0.20277788
213	0x3e3daada	0.18522206
214	0x3e399ce8	0.18126261
215	0x3e9f3b84	0.31100094
216	0x3dc08ad3	0.094014786
217	0x3e273cdd	0.16331811
218	0x3e247441	0.16059972
219	0x3e5ad000	0.21368408
220	0x3e80fafc	0.25191486
221	0x3e198989	0.14993872
222	0x3e934fcb	0.28771815
223	0x3e594e2e	0.2122123
224	0x3e303be7	0.17210351
225	0x3e41d0e3	0.1892734
226	0x3e2a38d3	0.16623239
227	0x3e87f15a	0.26551324
228	0x3df2f0e7	0.11862355
229	0x3e559c35	0.2086037
230	0x3e2183ec	0.1577298
231	0x3e8e599b	0.2780274
232	0x3dea58c3	0.11442711
233	0x3e81416f	0.25245234
234	0x3e59f30b	0.2128412
235	0x3e5c00c2	0.21484664
236	0x3e9a688f	0.30157897
237	0x3e8ad374	0.2711445
238	0x3e9c0516	0.3047263
239	0x3e74a2c3	0.23890214
240	0x3d863dd0	0.065547585
241	0x3e9fc95c	0.31208313
242	0x3e3c4104	0.18384176
243	0x3e2d5217	0.16925846
244	0x3e7d7ce6	0.24754676
245	0x3e81b619	0.25334242
246	0x3e89bec3	0.26903352
247	0x3e11d3cc	0.1424095
248	0x3e5ee4ab	0.21766917
249	0x3e08c07c	0.13354677
250	0x3e8fb1d3	0.28065357
251	0x3e8289df	0.25495812
252	0x3e11e119	0.14246024
253	0x3e17e001	0.14831544
254	0x3e122693	0.14272527
255	0x3e8f3d81	0.2797661

fc2.weight f4 [128, 256]
0	0x3bb798c9	0.00560293
1	0xbd244d68	-0.040112883
2	0x3d1798cb	0.03701095
3	0x3d231517	0.039815035
4	0x3c454c42	0.012042107
5	0x3d3d34c9	0.046192918
6	0xbcb6ef5a	-0.022330929
7	0x3d3b9134	0.045792773
8	0xbc4640b8	-0.012100391
9	0x3d562d9e	0.052289598
10	0x3d29c79e	0.041450135
11	0x3b577d94	0.0032881247
12	0xbad48eb3	-0.0016216844
13	0x3d9c5ef5	0.07635299
14	0xbce104fd	-0.027468199
15	0xbcaa5707	-0.020793451
16	0xbcf9256d	-0.030413354
17	0xbbb42708	-0.005497817
18	0xbd71e65e	-0.059057586
19	0x3d2be620	0.04196751
20	0x3d3b3e3c	0.04571365
21	0x3c6d609f	0.014488368
22	0x3d3362f8	0.043795556
23	0xbc28bf5c	-0.01029953
24	0x3d3a1dcc	0.045438573
25	0x3c97f4e3	0.018549388
26	0x3c899702	0.016795639
27	0x3c9b9506	0.018991958
28	0x3aa2722e	0.0012393647
29	0xbcf7abae	-0.03023323
30	0x3d583a64	0.05279006
31	0xbd3c4bf4	-0.045970872
32	0x3d1465a1	0.036229733
33	0xbcc92c27	-0.024557186
34	0xbc44b4bd	-0.012005982
35	0x3a1e827e	0.00060466665
36	0x3cc44ca5	0.023962328
37	0x3d4a05e3	0.04932202
38	0x3abbcaaf	0.0014327372
39	0x3cf45a4c	0.029828213
40	0x3bb0bd3f	0.0053936536
41	0x3ccf7e92	0.025328908
42	0x3bf9ee6f	0.0076273005
43	0xbcec738a	-0.028863687
44	0xbd0f7ebe	-0.03503298
45	0x3934ad4f	0.000172307
46	0xbc8afe21	-0.016966881
47	0x3c6118af	0.013738795
48	0xbbdf36f4	-0.006811971
49	0x3cc9bbd3	0.024625694
50	0x3d07a662	0.03311766
51	0x3c8d5e9e	0.017257031
52	0x3bf4beac	0.007469019
53	0x3d575149	0.052567754
54	0xb9db80e6	-0.00041866972
55	0x3cde6d9b	0.027151873
56	0xbcc1932f	-0.023629753
57	0xbceb183a	-0.028698076
58	0xbc70d307	-0.01469875
59	0xbd23944f	-0.03993636
60	0xbc5d9735	-0.01352482
61	0xbd1d3500	-0.038380623
62	0x3cae9a45	0.021313796
63	0xbcba57b5	-0.0227469
64	0x3c94284d	0.018085623
65	0xbd76f66f	-0.06029361
66	0xbb481191	-0.0030528049
67	0x3d15a8a5	0.036537785
68	0x3aadc75f	0.001325827
69	0xbd74f051	-0.059799496
70	0x3d117d05	0.03551962
71	0xbb29ff78	-0.0025939625
72	0x3d078cd2	0.03309328
73	0x3be3fb13	0.0069574206
74	0xbdb68b77	-0.089133196
75	0x3cfdab88	0.030965582
76	0xbd15a11d	-0.036530603
77	0x3d6a55e2	0.05721081
78	0xbbac12e8	-0.0052512772
79	0x3c02e4c8	0.007989116
80	0xbd3ca212	-0.046053
81	0xbb19b587	-0.0023454146
82	0xbc1d3f0d	-0.009597552
83	0x3afd46d7	0.001932348
84	0xbd0cd1cf	-0.034379777
85	0x3d004510	0.031315863
86	0xbc893ee2	-0.016753618
87	0xbbd0a5d3	-0.006367424
88	0xbb2a5c82	-0.002599508
89	0xbce0fa44	-0.027463086
90	0xbceae78f	-0.028674869
91	0x3ceca290	0.02888611
92	0xbd177ce0	-0.036984324
93	0xbc32c9eb	-0.010912399
94	0xbc9db64a	-0.019251961
95	0x3d31c35f	0.04339921
96	0x3d15396f	0.036431726
97	0x3d40bdf0	0.04705614
98	0xbcc07a8e	-0.023495939
99	0xbd1baa8c	-0.038004443
100	0x3c8cc1ec	0.017182313
101	0xbb9c3cbb	-0.004767982
102	0x3cd935aa	0.026514847
103	0x3c166343	0.009178939
104	0x3d4b30bc	0.049607024
105	0xbdb7c028	-0.08972198
106	0xbd9a191d	-0.07524321
107	0x3d16d250	0.036821663
108	0x3d5b8c0e	0.053600363
109	0x3db6da12	0.08928312
110	0xbcc6b2dd	-0.02425521
111	0xbca0346f	-0.019556252
112	0xbb4956ba	-0.003072186
113	0x3d46f9db	0.048578124
114	0xbc824def	-0.015906302
115	0x3da4445c	0.08020851
116	0x3cbfe456	0.023424309
117	0xbcb3432e	-0.02188262
118	0x3d5bdab2	0.05367536
119	0x3cd58f52	0.026069317
120	0xbdaad9f6	-0.08342354
121	0xbcb79012	-0.022407565
122	0x3d0e607b	0.03475998
123	0xbca723ba	-0.020402778
124	0x3b0ac820	0.0021176413
125	0xbd004515	-0.03131588
126	0x3cd375d6	0.025813024
127	0xbc0bbd96	-0.0085290875
128	0xbd23c926	-0.039986752
129	0xbcd4b109	-0.025963323
130	0x3d29882a	0.04138962
131	0x3d0f90a2	0.035050042
132	0x3d4cc785	0.049994964
133	0x3cc4b830	0.024013609
134	0x3c02b221	0.00797704
135	0x3c9e4586	0.01932026
136	0xbd663ae3	-0.056208503
137	0x3d124658	0.035711616
138	0xbc17215f	-0.009224265
139	0xbc85e1cc	-0.01634302
140	0xbccd936c	-0.02509471
141	0x3cb1423c	0.021638028
142	0x3d24556d	0.04012053
143	0x3d44d671	0.04805607
144	0x3d25dd73	0.040494394
145	0xbd56051b	-0.052250963
146	0xbc97bc77	-0.018522484
147	0xbdbd3c07	-0.09239965
148	0xbc89346e	-0.016748633
149	0xbbb56cb4	-0.00553664
150	0x3c112082	0.008857848
151	0x3d27945e	0.04091298
152	0xbd5d4b9c	-0.054027185
153	0x3d082876	0.03324171
154	0x3d8aa4da	0.06769724
155	0x3d177941	0.03698087
156	0x3c06210c	0.00818659
157	0xbc0c044e	-0.008545948
158	0x3b4ca195	0.003122424
159	0xbc6ae05d	-0.014335719
160	0x3d102826	0.03519454
161	0x3c91e53f	0.017809508
162	0xbd8029cd	-0.06257973
163	0xbd27b5fe	-0.040945046
164	0x3d27d684	0.040976062
165	0xbcb30934	-0.021854974
166	0x3c9a233c	0.01881563
167	0xbba91c8f	-0.005160875
168	0xbc97c098	-0.018524453
169	0xbb685f4e	-0.0035457197
170	0x3d035945	0.032067556
171	0x3ca4d259	0.020119833
172	0xbc5ea538	-0.013589196
173	0xbcbe6602	-0.023242
174	0x3ca0f6f9	0.019649016
175	0x3c8408a6	0.016117405
176	0x3d36dc60	0.04464376
177	0x3d729d12	0.059231825
178	0xbdceded2	-0.10101093
179	0x3d999908	0.074998915
180	0x3d770d2e	0.060315304
181	0xbcaf75f2	-0.021418545
182	0xbbbec4a9	-0.0058217836
183	0xbc159489	-0.009129652
184	0x3c17134a	0.009220907
185	0xbd5c7dcb	-0.053830903
186	0x3d1166de	0.035498492
187	0xbbc8e206	-0.0061304597
188	0x3d3de329	0.046359215
189	0xbb083f77	-0.002078978
190	0xbd05bb1b	-0.03264914
191	0xbd3d4df3	-0.046216916
192	0xbc9123d6	-0.017717283
193	0x3c5f6bfe	0.013636587
194	0x3d055c68	0.03255883
195	0x3d1dba63	0.03850783
196	0xbcc6723d	-0.024224395
197	0x3cf63a48	0.030057088
198	0xbcd202b9	-0.025636064
199	0x3d3767ed	0.044776846
200	0x3bd419e0	0.006472811
201	0x3c0b98e4	0.008520339
202	0x3ac27859	0.0014836892
203	0x3d6d7133	0.057969283
204	0xbd7243e7	-0.059146788
205	0xbd337be9	-0.04381934
206	0x3d527220	0.05137837
207	0x3975cd2f	0.00023441458
208	0x3da79155	0.08182017
209	0xbd972837	-0.07380717
210	0x3b0237a4	0.001986959
211	0xbd1a47cc	-0.037666127
212	0xbca20787	-0.01977898
213	0xbd401027	-0.046890404
214	0x3b1f3832	0.002429497
215	0x39fff914	0.00048822968
216	0xbc8c4984	-0.017124899
217	0xbd239aca	-0.03994254
218	0xbd2f764e	-0.042837434
219	0xbc09cb02	-0.008410217
220	0xbc2938b5	-0.010328461
221	0xbc2e6129	-0.010643282
222	0x3d504330	0.050845325
223	0x3dbc0777	0.09181111
224	0x3cf311ad	0.029671514
225	0xbd128b74	-0.035777524
226	0x3d4141a1	0.04718173
227	0xbda0aaa7	-0.07845049
228	0xbaedc699	-0.0018140852
229	0xbd936ea6	-0.07198839
230	0x3dac184b	0.08403071
231	0x3c7cb2fd	0.0154235335
232	0xbc259835	-0.01010709
233	0xbc6c72e4	-0.014431689
234	0xbb6dcba0	-0.00362847
235	0xbd1145c0	-0.03546691
236	0xbb775636	-0.0037740595
237	0x3cf1c8eb	0.02951475
238	0x3c3328ef	0.010935052
239	0xbc5ea3b2	-0.013588833
240	0x3c89f35c	0.016839676
241	0xbb6b793d	-0.0035930418
242	0x3bbb98d6	0.0057250066
243	0x3ab89371	0.0014082027
244	0x3bbd5b70	0.0057787225
245	0xbd606a92	-0.054789133
246	0x3c44cf05	0.012012248
247	0x3b63abec	0.0034739925
248	0x3cb1696d	0.021656716
249	0x3c818471	0.015810223
250	0x3c27b367	0.010235644
251	0x3cdb848b	0.0267966
252	0x3db9c0de	0.090699896
253	0x3c3ba530	0.011452958
254	0xbc8719f3	-0.016491866
255	0xbc528df1	-0.012851224
