feedforward_nn/model_saves/fnn_(1024, 1024)_8.pth (torch, 229946 bytes, 19 tensors)

fc1.weight f4 [256, 48]
00000000: ae42 07bd 42ab 863d 4a39 703c 3bd8 aa3c
00000010: 67b5 8b3e a461 dfba 1aa9 233e a824 173d
00000020: a554 08bd b2a4 bd3d 22af d83d d55e 8f3d
00000030: bdb3 7abd bb94 053d 9a71 413d 5d9a 38bc
00000040: 5ef1 083c c916 0c3d 5d47 593d e192 3bbd
00000050: 5f1b cf3d ab63 923c f48f f53b dfb7 aa3d
00000060: 1672 04bd 8227 d83c 878e d5bc 488b d63c
00000070: 82de 173d 2d7b 963d fe66 403d 2ad2 33bd
00000080: 3cb6 bdbc aa2b ab3c 491d 86bc 2474 0b3d
00000090: b463 8e3d a5c7 743a 8d35 d83b 6267 f8bc
000000a0: 1ade b8bc 5e71 b33d 954d 8c3d 7e16 3e3d
000000b0: 3f85 45bc 06e4 863c 664e aa3c 3f29 d9ba
000000c0: 37aa 14bb 5f6d 5bbd e5b3 0abc 13da 1a3e
000000d0: 76f9 7abe 3fa2 26bc de8f c03d 9066 773d
000000e0: dd6c 4e3d fd0c 3f3c b0cd 2b3c f052 313d
000000f0: 2bb5 81bd 9f5e e83c 41d6 72bd e71c 843b
00000100: 9190 f9bc 27c1 8dbb 7ae1 033d e545 26bd
00000110: 8192 e83d 97c9 4b3d 1e09 1e3e f729 273d
00000120: e250 35bc 1f01 6a3c 5dae 8bbc 22b3 bdbc
00000130: 04aa ed3c 0a9f 2cbb de60 6d3c ce5a ba3c
00000140: 51ec 15bd 2b1c c63c d4ae ffbc 6570 b63a
00000150: dd69 84bd 8232 dfb9 cdd7 cb3c 1500 74bc
00000160: d202 d1bb b5f5 fb3c 9692 ab3d 6ac5 9e3d
00000170: d183 0fbd 386e 933d 5b0e 0abd e27d 9ebb
00000180: be13 b5bc 5a2d f13d 9e4c 613c fee3 883e
00000190: febe 053d 0809 18bd 7158 a23d ba4f 9abd
000001a0: 734c d4bd 7011 01bc 5dad b23d cf0c aabc
000001b0: f61e 723c b96f 77bd e1a4 573d 1ea6 5cbb
000001c0: 349c e7bc be2f df3c 19f9 11bc 3189 853d
000001d0: befc e03d a007 cf3c 922c 8dbd a22c 1cbd
000001e0: b311 adbd f5cc 54ba 1322 3a3c 232f e73d
000001f0: 8aa6 0c3d c2cf 62bd 081f b1bc 47ea b13c
00000200: 1533 253c 6e17 a0b9 5cc2 58bd dcc6 323d
00000210: e1b6 e6bc 3bec 763c 1aca 9fbc 1109 243c
00000220: 0cc9 a4bd 4ebe 183d 0b0b ee3d 628f 67bd
00000230: 0e04 a63d c047 aabd e49e 393c 9cbe 39bd
00000240: aea4 4fbe 471c 8abe 6603 973d 0bbd 11be
00000250: cdaa d4bd 34ca 88bd 29f2 533c adf2 f43d
00000260: e6c1 d9bc 2597 95bc 76e2 50bc eb8d d4bc
00000270: 5eb7 3c3d 37b0 0e3d 9323 33bd 87db e2bc
00000280: 2e18 10bd 35b4 3abd 7744 44bd 6ab1 21bd
00000290: e651 0d3d 3915 60bc 3938 a93a 8a52 c0bc
000002a0: 6cbb 2b3c 56c5 9b3d 28fe 28bd 0193 27bd
000002b0: dabf 83bd 2014 4a3d afa6 11bc a6ea 36bd
000002c0: a303 4e3d fcdf 57bc e8d7 08bd ef8f 333d
000002d0: b372 1fbd 18e2 9b3b 274f 643c 6c6d a03a
000002e0: 6560 f93c 3496 80bc c822 4ebd 2c3f 953c
000002f0: b3e7 6dbd e2e4 8a3d d2eb fd3b bf1c 14bd
00000300: f470 82bd cc93 32bd ce4c 27bc 9346 44be
00000310: a848 09bd 5893 283d 9de6 f9bd e845 e1bd
00000320: 45a2 fb3d 50fa d13c 5f13 043d 8773 9dbd
00000330: 1773 a73d ba7b 883d dfd8 a13d 3943 b93d
00000340: 2a5c 563d 2490 c5bb 657d 4fbd a889 a0bd
00000350: 7aa6 1fba 813d 5ebd 1f9d 2d3b 57c2 8fb9
00000360: 5d7c afbc da35 9c3c a247 cabd 71a8 9fba
00000370: 20a8 babd 9f89 cabd fbcd 38bd fab5 573d
00000380: ea96 a4bd b864 fbbb 6cd5 073d 437d acbd
00000390: 61e5 0138 91be b53d 0a88 5cbc 55f8 b73d
000003a0: 23a5 b23d 155e bebb 6de4 2fbc 729f 89bc
000003b0: 634f a7bd c1ee 323d d383 a13c 7fca 26bc
000003c0: 0f67 05be 8ca5 903d 34a9 5a3d f8e1 af3e
000003d0: 9c5a 72bc 4f69 06bd cf0b 5f3d 36e0 34bd
000003e0: acf5 3bbd 37fd 463c 59bc 9abd c7aa a13c
000003f0: 7b8e d33c ebf5 603d d369 8abd d755 29bd
-0.033022575 0.065756336 0.014662096 0.02085506 0.27286837 -0.0017042649 0.15982476 0.036900192
-0.03328385 0.09259929 0.10580279 0.0700051 -0.061206568 0.032612544 0.04722748 -0.011267272
0.008358328 0.034201417 0.053046573 -0.04579437 0.101126425 0.017869791 0.007493967 0.08335852
-0.032335363 0.026386026 -0.026068939 0.026189461 0.037077434 0.07347713 0.04697322 -0.0439016
-0.023158185 0.020894844 -0.016371386 0.034046307 0.069526106 0.00093376107 0.0065981806 -0.030322734
-0.022566844 0.087618575 0.06850735 0.04640817 -0.012055694 0.016466152 0.020789336 -0.0016568078
-0.0022684464 -0.0535711 -0.008465742 0.15122251 -0.24509224 -0.010170518 0.094024405 0.060400546
0.05039679 0.0116608115 0.010486051 0.043291986 -0.06333383 0.028365431 -0.05928636 0.0040317657
-0.030464442 -0.004326004 0.032197453 -0.040594 0.113560684 0.049752798 0.15433165 0.040811505
-0.011066647 0.014282494 -0.017050916 -0.023156706 0.029011734 -0.0026339912 0.014488427 0.022748377
-0.036602322 0.024183353 -0.031211294 0.0013918994 -0.06465504 -0.00042571506 0.024883175 -0.014892598
-0.00637851 0.03075681 0.083775684 0.077524975 -0.03503782 0.07198757 -0.033705097 -0.0048367837
-0.02210414 0.11776228 0.013751177 0.26736444 0.032652847 -0.037117988 0.07927025 -0.07534738
-0.10366144 -0.007877693 0.08724473 -0.02075806 0.0147778895 -0.06040928 0.052647475 -0.003366835
-0.028272726 0.027244445 -0.008909487 0.06520308 0.10985707 0.02527219 -0.06893267 -0.038128503
-0.084506415 -0.0008117699 0.011360663 0.112882875 0.03433851 -0.055373915 -0.021621242 0.021718157
0.01008298 -0.00030535035 -0.05291973 0.04364668 -0.028163375 0.01507097 -0.01950555 0.010011927
-0.08046159 0.037290864 0.116232 -0.056533225 0.08106242 -0.083144665 0.011329386 -0.045347795
-0.20277664 -0.269747 0.07373695 -0.1423227 -0.1038414 -0.06679192 0.012936153 0.11960349
-0.026581716 -0.018260548 -0.012749305 -0.025946578 0.04607331 0.03483602 -0.043735098 -0.02769257
-0.03517931 -0.045582015 -0.047916856 -0.039475836 0.034501933 -0.013676935 0.0012910432 -0.023476858
0.010481697 0.07605998 -0.041258007 -0.04091168 -0.06433077 0.0493356 -0.008889838 -0.044657372
0.050296437 -0.013175961 -0.03340903 0.043838438 -0.038927745 0.004757177 0.013934887 0.0012239642
0.030441472 -0.015696622 -0.05032614 0.0182186 -0.058082294 0.06781937 0.0077490592 -0.036160227
-0.063692 -0.04359798 -0.010211183 -0.19167547 -0.033516556 0.041156143 -0.12202189 -0.10999662
0.1228681 0.025632054 0.032245036 -0.07688051 0.081762485 0.06664224 0.07902693 0.09046025
0.05233399 -0.006029146 -0.050656695 -0.07838756 -0.00060901756 -0.054257873 0.0026491357 -0.0002741988
-0.021421606 0.019068647 -0.09876944 -0.0012180937 -0.091140985 -0.098895304 -0.045118313 0.05266378
-0.08036597 -0.0076719187 0.03316252 -0.08422329 3.0969622e-05 0.08874238 -0.013460169 0.089829125
0.087229036 -0.0058095553 -0.010735613 -0.016799662 -0.08169439 0.043684725 0.019716179 -0.010180115
-0.13027595 0.070628256 0.05338402 0.34352088 -0.014792111 -0.032815274 0.05445462 -0.044159137
-0.045888588 0.012145332 -0.07555456 0.019734753 0.025824776 0.054922026 -0.067584656 -0.04134163

fc1.bias f4 [256]
00000000: 548a c133 f234 dd35 5a99 beb4 ad45 d5b4
00000010: c5a2 01b6 5a68 0f36 3fbc 6c34 a865 aab6
00000020: 82f7 7735 3f0c 09b5 3eb4 c434 3259 b635
00000030: 713f 0536 1a32 0db6 37ed b2b6 aa74 3936
00000040: 74d9 9434 5083 97b5 d4cf 4d35 8335 6836
00000050: 21a7 eb34 de41 16b6 382d 9c34 b716 32b5
00000060: 60c6 a235 fe59 8136 1b6f 8b36 c032 7cb6
00000070: b1be d735 b2d3 a0b6 4e98 52b6 23ce c8b4
00000080: 52f0 23b6 754e 0535 6488 bd35 5b3e 0336
00000090: 5f70 6b35 d1e1 90b5 6e3d b3b5 ee7d c034
000000a0: 96dc 9c34 0d8e 9eb6 c844 af35 184f 9935
000000b0: 11fb 9434 3d99 2435 d2f7 8d33 11f8 7bb5
000000c0: fe91 c834 9def 7535 bb25 27b5 4a28 93b5
000000d0: ea14 81b5 b7c7 ee34 2a9c 9833 0380 2836
000000e0: c5b4 0436 1f12 cf35 f59d bf35 e9f6 8f34
000000f0: 61c8 7db5 71e2 90b5 c5a5 fc34 bf4d 2636
00000100: 994b e6b4 c327 db34 e367 7f34 d14f acb5
00000110: 9aa8 03b5 2f59 f134 ba54 94b5 be21 9735
00000120: a926 4db6 a445 e3b3 de0e aa36 6961 3bb5
00000130: d3d4 2934 1afc 9fb5 f791 5836 724b b3b5
00000140: 74d6 0435 36d2 20b4 a13e a7b6 c0fa 56b6
00000150: 2194 6335 75b2 4935 fcbb a335 2e03 c9b5
00000160: 8f38 bfb6 01d7 7035 3591 e8b3 597f 39b6
00000170: bab9 1eb5 0778 5ab6 002d 33b5 e4e0 a235
00000180: 665e ad33 8f66 ea34 d449 ab35 4a40 a135
00000190: 9dd3 1db6 9832 0d36 633f 91b5 765d 19b6
000001a0: 55a3 3737 f568 1236 0bee 3334 5600 8eb5
000001b0: f8e5 9636 e7df 8035 ad90 43b5 998f 1036
000001c0: a4b0 4636 a220 b435 36dc ee34 8f6a 97b5
000001d0: bc11 1b35 190c f1b5 fa3f b036 d54b 0db5
000001e0: c36e b9b5 a2a8 8d34 6c27 1ab5 e3fd 94b5
000001f0: 5f1f b6b2 6cc3 a2b4 c005 d7b5 36f4 7336
00000200: faf6 df33 3282 3cb4 aeb9 92b6 2889 c635
00000210: 68d5 e5b4 2fa4 35b5 8f98 11b7 0959 07b6
00000220: 4f64 04b5 ea03 f5b5 6715 a9b5 f40e fbb2
00000230: 784b 1e36 c8d5 a735 8e52 5534 4f39 7a34
00000240: ecd8 3f35 bde8 4136 0051 6433 6548 9235
00000250: 8c61 a4b6 ae70 9035 676e 8835 a97e ec35
00000260: dfa2 5f35 f8dc eab4 fc94 41b6 de4f 0b35
00000270: 7078 4bb6 41ba 6136 33c2 2435 0a9b 1f34
00000280: f761 acb6 32e2 a535 8a51 6336 2199 29b6
00000290: 8995 8834 7e30 4bb6 2d10 14b5 5c9b 82b6
000002a0: eb85 8cb4 36c5 6435 f33a 1236 4281 9235
000002b0: 66b7 3535 cd99 a234 6013 2136 2d57 9534
000002c0: aa45 f635 1263 b0b5 e13f 4f36 7a19 bab4
000002d0: ac7e 91b5 cfd5 5d34 2f67 3736 2b84 f835
000002e0: 9efc aeb5 f8cf 1036 4401 a535 08b1 17b7
000002f0: d437 00b5 8e0f 9135 5cf9 97b5 2ec0 8ab5
00000300: 9bc0 8bb4 2a13 1935 358f 1136 052f 7c36
00000310: c07c 8e34 7c21 33b6 bd92 2834 377e 3bb6
00000320: 9ad6 aab5 d695 0836 9fed e635 0370 3336
00000330: 4aaf a135 6795 2d35 8d71 d935 ded2 3435
00000340: f9e4 4f36 7ee6 1335 2453 84b5 713f 4eb6
00000350: fe30 9035 9e2f 4fb5 52ca a734 6471 7336
00000360: b5a0 b836 e6fd 4036 c2fa 5636 4e69 8335
00000370: 6e16 3fb6 eb38 5bb3 e525 d5b5 9fb7 0eb6
00000380: b851 bdb4 26d1 11b7 3a13 05b5 ac1d 7235
00000390: 5cc4 1d35 46b7 1a34 e182 4bb5 9fee abb6
000003a0: 2be5 cd35 a55e 5c36 7c3e c9b3 0ee8 12b6
000003b0: 8317 62b6 c1ab c7b5 05cf 0436 490d 6235
000003c0: 0187 9db6 8202 2436 19b5 0137 d1b2 51b6
000003d0: 771f bc35 29a7 9eb5 7941 59b6 dcea beb5
000003e0: b56c 20b7 df53 b8b5 7ed1 6935 5f36 9335
000003f0: 7308 6ab6 0b11 c634 f31c 39b5 58d8 75b5
9.0124246e-08 1.6481192e-06 -3.5501836e-07 -3.9725037e-07 -1.9317242e-06 2.13694e-06 2.2047696e-07 -5.078229e-06
9.237484e-07 -5.10543e-07 3.6638988e-07 1.3586016e-06 1.9855472e-06 -2.10398e-06 -5.332429e-06 2.7635056e-06
2.7725366e-07 -1.1288594e-06 7.667088e-07 3.4601842e-06 4.3893763e-07 -2.2390082e-06 2.9090165e-07 -6.634322e-07
1.2127675e-06 3.854976e-06 4.155457e-06 -3.7580467e-06 1.6074247e-06 -4.793016e-06 -3.1381092e-06 -3.7402887e-07
-2.4428778e-06 4.966053e-07 1.4121292e-06 1.9556817e-06 8.7707843e-07 -1.0794557e-06 -1.3354418e-06 3.5854413e-07
2.9217762e-07 -4.725304e-06 1.3058534e-06 1.1422408e-06 2.7749823e-07 6.131775e-07 6.6109024e-08 -9.386577e-07
3.7359126e-07 9.1618296e-07 -6.2267253e-07 -1.0964079e-06 -9.617336e-07 4.4476266e-07 7.1064576e-08 2.5108463e-06
1.9774754e-06 1.5427976e-06 1.427658e-06 2.6815476e-07 -9.4541434e-07 -1.0794739e-06 4.705927e-07 2.4781182e-06
-4.2895843e-07 4.082086e-07 2.378652e-07 -1.2838228e-06 -4.904665e-07 4.4954638e-07 -1.1051518e-06 1.1260197e-06
-3.0569884e-06 -1.0583179e-07 5.0681256e-06 -6.980468e-07 1.5816777e-07 -1.1919794e-06 3.227147e-06 -1.3358497e-06
4.94859e-07 -1.4977635e-07 -4.984279e-06 -3.203444e-06 8.4779646e-07 7.5138024e-07 1.2199157e-06 -1.4976592e-06
-5.698828e-06 8.971984e-07 -1.0829755e-07 -2.7641274e-06 -5.9129854e-07 -3.2554397e-06 -6.674818e-07 1.2135392e-06
8.073111e-08 4.3660518e-07 1.276198e-06 1.2014145e-06 -2.3517998e-06 2.1040087e-06 -1.082179e-06 -2.2853178e-06
1.0945679e-05 2.1816788e-06 1.6757274e-07 -1.0579922e-06 4.4971202e-06 9.601907e-07 -7.285369e-07 2.1541257e-06
2.9607118e-06 1.3420542e-06 4.449118e-07 -1.1281389e-06 5.7767807e-07 -1.795942e-06 5.2526566e-06 -5.2636943e-07
-1.381581e-06 2.6385993e-07 -5.7426837e-07 -1.110075e-06 -2.1201854e-08 -3.031704e-07 -1.6020422e-06 3.6351971e-06
1.04291715e-07 -1.7556229e-07 -4.372755e-06 1.4792067e-06 -4.2809847e-07 -6.7666673e-07 -8.678194e-06 -2.0168393e-06
-4.93198e-07 -1.8255062e-06 -1.259771e-06 -2.9227046e-08 2.3587763e-06 1.2504688e-06 1.9867204e-07 2.3303913e-07
7.146871e-07 2.8894713e-06 5.3159056e-08 1.0898917e-06 -4.898937e-06 1.076163e-06 1.0164921e-06 1.7620233e-06
8.331098e-07 -4.3746672e-07 -2.8845961e-06 5.189776e-07 -3.031946e-06 3.3636027e-06 6.137736e-07 1.4864432e-07
-5.137404e-06 1.235929e-06 3.3873098e-06 -2.5272095e-06 2.5440775e-07 -3.0277583e-06 -5.5157835e-07 -3.892388e-06
-2.617447e-07 8.52236e-07 2.1790008e-06 1.0915467e-06 6.7694634e-07 3.0286756e-07 2.4002147e-06 2.7816841e-07
1.8348703e-06 -1.3141855e-06 3.0882586e-06 -3.4663736e-07 -1.0840208e-06 2.0660012e-07 2.7329186e-06 1.8515906e-06
-1.3037532e-06 2.1578726e-06 1.2293826e-06 -9.04152e-06 -4.7764956e-07 1.0807869e-06 -1.132295e-06 -1.0337733e-06
-2.6030906e-07 5.702483e-07 2.1690041e-06 3.7578295e-06 2.654033e-07 -2.669257e-06 1.5699602e-07 -2.7938638e-06
-1.2728444e-06 2.0352795e-06 1.7205492e-06 2.6738278e-06 1.2046451e-06 6.466493e-07 1.6200808e-06 6.736208e-07
3.0978683e-06 5.509718e-07 -9.858963e-07 -3.073332e-06 1.0743095e-06 -7.71828e-07 3.125338e-07 3.6275824e-06
5.502336e-06 2.8758018e-06 3.2034445e-06 9.790908e-07 -2.8474274e-06 -5.1041678e-08 -1.5880765e-06 -2.126653e-06
-3.5263452e-07 -8.69137e-06 -4.957434e-07 9.0195203e-07 5.87728e-07 1.4409042e-07 -7.5813847e-07 -5.1239763e-06
1.5340387e-06 3.2837645e-06 -9.371158e-08 -2.189077e-06 -3.369031e-06 -1.4876642e-06 1.9790034e-06 8.4210893e-07
-4.694681e-06 2.4439364e-06 7.731164e-06 -3.1247512e-06 1.4016249e-06 -1.1820567e-06 -3.237363e-06 -1.4224456e-06
-9.5620535e-06 -1.3733478e-06 8.7104115e-07 1.0968178e-06 -3.4873635e-06 3.6892774e-07 -6.896e-07 -9.1584434e-07

bn1.weight f4 [256]
00000000: 4317 da3e 7812 b23e 4e39 da3e 84ed c03e
00000010: d6a6 843e 4317 133f 2f81 cd3e 4872 003f
00000020: 240f bc3e 2446 a53e c10f d63e 8492 cb3e
00000030: 0a43 f53e eb27 d63e b982 423f b12a ec3e
00000040: fbcb b23e 93bc c73e a323 c63e b76d 013f
00000050: b8dd c83e 1f08 d13e f070 a63e 4e3e dc3e
00000060: 9a77 ca3e c6b6 c33e 5caf f13e 135e b23e
00000070: a60f c03e 4ce1 e13e d89e e73e f8b8 b73e
00000080: 8931 d73e 02a7 b73e 04a1 2b3f e510 b53e
00000090: 6bcf 983e fc1e 613e efd4 e43e a00c bd3e
000000a0: efab 8b3e e2e6 b93e 8b62 4e3f 2730 983e
000000b0: 1542 e73e 1094 b33e 1c5a a23e 6488 773e
000000c0: ce2f 983e 980b 5a3e c13f c83e 4358 1b3f
000000d0: 17b8 b53e f223 b23e 2735 8a3e ebd2 db3e
000000e0: 6663 c93e 5006 703e a531 c33e 74ff 143f
000000f0: 7dbf cf3e 052c cf3e 52d6 dd3e 5c30 b53e
00000100: 9a0f b83e 48ce c83e 9c74 1f3f 35da ea3e
00000110: 7f33 9a3e 825b bd3e 6318 e93e dd80 9b3e
00000120: ae83 c03e 4afd 2f3f 356a 1a3f 1e86 bc3e
00000130: df46 aa3e 8eba 863e dfd3 a73e d98d 9c3e
00000140: 46af a43e 1db9 843e 4266 9a3e 8d5f 223f
00000150: f899 2d3f bbbf af3e 5caa 003f 03aa 8f3e
00000160: d85d f23e 8aab f23e 27fd c93e c581 0f3f
00000170: 9e72 8f3e bfab 9f3e 3bfd 853e 0b38 d23e
00000180: bf18 a83e 3909 c83e 557f 993e 3694 243f
00000190: 9042 fe3e f1ed 023f 86f4 5f3e 2899 e93e
000001a0: ff7c 2f3f ca5e ae3e 756d a93e b6d9 9d3e
000001b0: 4336 f73e a01a d73e 0ef6 943e 0d12 a33e
000001c0: 4843 b53e 6f53 e43e a93e c93e 5f36 a33e
000001d0: 7bf3 e63e 5ca2 b23e 4473 c63e 12e1 873e
000001e0: a866 d53e 191f b23e d14a 923e 70d6 ef3e
000001f0: b096 b73e 7043 af3e 1be7 203f bb05 113f
00000200: b816 3c3e dc24 d73e 05cb 303f 87dd c73e
00000210: 09b7 bc3e f33e 893e f001 db3e b0ae da3e
00000220: dc87 083f 64dc f93e 7f1e a03e fbfb de3e
00000230: 9cb2 f33e 7bcb e93e 0e47 3e3e 7333 393f
00000240: bf5f 223f ee10 cd3e 17af 993e 63de 843e
00000250: 820a e53e 3567 d73e ba92 d63e 348a 9f3e
00000260: 8e15 b63e 9b7d bc3e b72a c63e c56d e73e
00000270: 5de4 c13e 4736 bd3e 3caa 9d3e 9e9a af3e
00000280: 6412 ba3e 74f6 123f f827 153f b898 a83e
00000290: 4907 e13e d829 ca3e 71ea c93e 21ac 693e
000002a0: c528 233f 15e7 dd3e 5bad 023f 5358 d33e
000002b0: ee23 f73e 3080 993e 6158 db3e 4595 9c3e
000002c0: 4691 2a3f e504 0d3f 8966 b63e 2501 a53e
000002d0: 3647 bb3e 3e07 b93e d749 a53e 1725 f73e
000002e0: bac6 983e 6a3c ab3e d260 cc3e 78f1 3f3f
000002f0: 4cde db3e e55e 3a3f 963d a63e 8195 db3e
00000300: 6b8b 873e 746b 9d3e c533 c23e 34ae bc3e
00000310: a44b aa3e a280 cd3e ace0 053f 30af c23e
00000320: be63 a43e 4ab6 293f 4588 f23e 0a54 a53e
00000330: d543 a93e 17d0 293f c617 cb3e aa9e fa3e
00000340: 45b4 a83e bda7 aa3e 8907 7e3e 5d0f fc3e
00000350: a699 b13e 637f bb3e 0a31 ea3e 5dd6 0f3f
00000360: 1646 ee3e d29f a13e 0a64 2a3f fbd7 c43e
00000370: fce4 bf3e b51e b43e 5167 d43e e594 9d3e
00000380: 9588 753e 3c72 003f 73f1 ad3e 965c cd3e
00000390: d3bd c43e 974b e33e fd20 e03e 9774 a53e
000003a0: c0c7 e03e 5000 b53e c9ef d73e a5e4 9b3e
000003b0: 2e93 9b3e 638b bd3e 1f90 153f dceb c43e
000003c0: dc96 be3e 98a7 b73e 92a3 0b3f 5492 a33e
000003d0: e7cb 9a3e beb0 e23e 09a9 d13e 51ec d33e
000003e0: 7be0 133f 0a02 be3e 8d91 a53e 2b01 f13e
000003f0: 0b4b dd3e a94d bb3e 853d 993e e740 9d3e
0.42595872 0.34779716 0.42621845 0.3768121 0.25908536 0.5745737 0.40137622 0.5017438
0.367303 0.32280076 0.41808894 0.3976022 0.4790271 0.4182733 0.75980717 0.4612632
0.3492125 0.39011058 0.38699064 0.50558037 0.39231658 0.40826508 0.3250804 0.43016285
0.39544374 0.38225383 0.472041 0.34837398 0.3751194 0.441172 0.45238376 0.35883307
0.4202998 0.35869604 0.67042565 0.35364452 0.29845747 0.21984476 0.44693705 0.36923695
0.27279612 0.36308962 0.80619115 0.29724237 0.45167604 0.350739 0.31709373 0.24173123
0.29723972 0.21293485 0.3911114 0.6068155 0.35492012 0.3479305 0.26993677 0.42934355
0.39333647 0.23439908 0.38123813 0.5820229 0.4057578 0.40463272 0.43327576 0.35388458
0.35949403 0.3921988 0.62287307 0.45869604 0.30117413 0.36983877 0.45526418 0.30371752
0.37600464 0.68745863 0.6031831 0.36821073 0.33257195 0.26314205 0.32778832 0.3057697
0.32164973 0.2592248 0.30156142 0.6342705 0.6781306 0.34325966 0.5025995 0.28059396
0.47337222 0.473965 0.39450952 0.5605739 0.28017133 0.3118572 0.26169762 0.41058382
0.3283138 0.39069536 0.2997996 0.6428865 0.49660158 0.5114432 0.21870622 0.4562466
0.68550104 0.34056693 0.33091322 0.30830163 0.48283586 0.420125 0.29093975 0.3184971
0.35402894 0.44594905 0.39305618 0.3187742 0.45107636 0.34889495 0.38759816 0.26538903
0.41679883 0.3478935 0.28572705 0.4684329 0.35857153 0.34231138 0.6285264 0.5664937
0.18368042 0.4202031 0.69059783 0.390362 0.36858395 0.2680584 0.42774916 0.427114
0.53332305 0.48800957 0.31273267 0.4355162 0.47597206 0.45663056 0.18581793 0.7234413
0.63427347 0.4005198 0.30016395 0.25950918 0.4473458 0.42070928 0.41908818 0.31160128
0.3556332 0.3681458 0.38704464 0.45200935 0.3786954 0.36955473 0.3079394 0.3429765
0.36342156 0.5740731 0.5826411 0.32929015 0.4395087 0.3948505 0.39436677 0.22819568
0.63734084 0.43340364 0.5104577 0.41278324 0.482696 0.29980612 0.42840865 0.30582634
0.6662792 0.55085593 0.35625103 0.32227436 0.36577767 0.36138338 0.32282898 0.48270485
0.29839116 0.3344453 0.39917618 0.7497783 0.42943037 0.7280105 0.3246886 0.428875
0.26473555 0.30746043 0.37930122 0.36851656 0.33260834 0.40137202 0.5229595 0.38024282
0.32107347 0.66293776 0.4736959 0.3229068 0.33059564 0.66333145 0.39666575 0.48949176
0.32950035 0.333311 0.24807562 0.4923047 0.34687537 0.36620626 0.4574054 0.5618647
0.46537846 0.31567246 0.665589 0.3844603 0.3747939 0.35179678 0.41485074 0.3077766
0.23977883 0.5017431 0.33973274 0.401097 0.38426074 0.44393608 0.43775168 0.32315513
0.43902397 0.353518 0.4217513 0.3044788 0.30385727 0.37020406 0.58423036 0.38461196
0.37224472 0.3587005 0.54546463 0.31947577 0.3023369 0.4427547 0.40949276 0.41391233
0.57764405 0.3711093 0.3233761 0.47071204 0.43221316 0.36582687 0.29929748 0.3071358

bn1.bias f4 [256]
00000000: 3755 5abe 18a2 3dbe 4e7a 07bd 26b8 2abe
00000010: 5d0a 38be 60d6 12be 1a8c 60be f7d5 81bd
00000020: 0f3d 96be f7ed 40be 6847 17be b864 d9be
00000030: 783d b8be 9e4c a5be 486d d5be aacd a0be
00000040: 81ee bcbd 1bb4 51be bce5 d9bd 554b 1abe
00000050: c260 6bbe ac3e e43c ba50 45be c252 2abd
00000060: 4fe1 c4bd 058e debd 3715 14be 9df3 b1be
00000070: 7453 a33d 73bd 97bd 5a86 cbbe ed8b 40be
00000080: ac82 64be 8fb6 24be b88f b4be 1db1 78be
00000090: 3e6a 89be b976 6abe 3465 26be 8765 90be
000000a0: 44be 33be 032a ffbd 2c09 febe 5c44 efbd
000000b0: 9239 7fbe 8e9d 22be 1077 5ebe 2ca7 05be
000000c0: b3bd 53be f032 04be 1f1a a53c 6b80 88be
000000d0: 52f9 5fbe 8da7 05be 6093 87be 8594 e9bd
000000e0: cedc 1fbe 5d97 2bbe 85f7 1fbe e250 a3be
000000f0: 2e45 15be 3620 02be b46d dbbe ce72 94be
00000100: 66ec d4be 6881 aabe 1cc6 e2be 0294 c8be
00000110: ac2c 1fbe 4b58 ddbd bd2e 38be 204c 56be
00000120: ee8b dcbd dd9c c9be 0899 babe a24a a7be
00000130: 3f4e 98be c14c 06be c6c0 87be f86d 6ebe
00000140: ec0c debd bf97 1dbe 8cef 1ebe 4c90 adbe
00000150: 12d6 a0bd 31e6 90be 3d12 d6be 2b25 24be
00000160: d59d 86be 9fd8 f5be 23d9 65be ffdd 8ebe
00000170: 2dd7 3dbe 8887 b5be 7f7d 1cbe b53f a4be
00000180: 1a57 59be b55b 84be 661e b2bd ff4d d1be
00000190: 7bb7 e3be 008b 963d 8614 d4bb ba50 30be
000001a0: 2040 bfbe aded 8abd ad67 7dbe e8ba 79be
000001b0: d97e 0c3d 27b0 40be 2d86 55be 3b32 f8bd
000001c0: dfe9 85be 8605 4ebe 24d8 e2bd 171e 89be
000001d0: 5ea5 9fbe 1bb0 d1bd fd4c 61be d645 19be
000001e0: 3722 24be 5daf 39be 7959 f3bd 2afc cbbe
000001f0: 72cd f2bd 5396 75be 7b8c 92be fc5a babe
00000200: 81ff 00bd bbf2 47bd 01c4 c7be 3dac 95be
00000210: 5e39 58be 6d2f d9bd 3355 02bc e507 40bd
00000220: 209d 77be 6131 71bd f8e7 36be 07e4 b3be
00000230: 3aa3 88be 3416 89be a41e 96bd 6daf edbe
00000240: e84b d4be 256e 96bc 8d9a 3ebe 37de 1abe
00000250: 653d aebe 7156 b6bd d6ad 08be eea2 18be
00000260: cd1a 3fbe 055e 96be a4a7 7fbe 9c3e 1fbd
00000270: e3bd bebc ab66 8dbd d4b0 37be b2df f7bd
00000280: ab71 aabe 8c3a 04be b8f1 04bf a417 47be
00000290: d0a7 acbe 26e9 22be 2ae4 73be d74d f2bd
000002a0: 1888 82be ce9f 38be 39ab 8bbe 1491 54be
000002b0: e65f 9abe 7eb7 82be a359 d4be 2951 91be
000002c0: 0cd3 d0be b194 6dbe ebba 93bd 6c2f 89bd
000002d0: b2e6 ccbd ab9c c2bd e109 32be ab98 31be
000002e0: 3471 e6bd 9ef7 2bbe 260d 08bd 7ee4 04bf
000002f0: 8990 ffbe 822d 03bf d036 a5be 61e7 69be
00000300: 94ba 62be 2809 8abe 367a 25be f023 20bd
00000310: 0779 4dbe c3a6 dfbe ae61 2ebe 2713 83be
00000320: 253e 80be b78d c4be 1747 9abe 8019 8fbe
00000330: 723d 77be 02d5 debe 3f7c 8cbe 17a3 e4be
00000340: 0353 41be ba0c 1fbe 0420 e3bd 546c 50be
00000350: 1fd6 24be bf92 a8be 6223 6ebe 4f4b 8bbe
00000360: c308 dfbd ed09 2f3d aa5f a0be f6ce d0bd
00000370: 33c9 39be c6bf 70be 9def eabe 32c8 45be
00000380: 5200 8abe 1ae1 95bd d261 c3be ccd2 c4be
00000390: 81f7 6fbe 4c9c 89be bd7c 01be bb40 0abe
000003a0: 028c e6be d98e a2be 6da3 88be 2bae 44be
000003b0: e354 01be 1691 c8bd 301b 8ebe 6fc9 83be
000003c0: 87f4 1fbe 9248 45be 5207 09bf eab4 80bd
000003d0: 95cd e7bd 834a 06be 5bca f2bd 0d0e bfbe
000003e0: e8bb a5be 42db 85be 9872 46be 0f84 84be
000003f0: f11d 72be f5ae 9ebe 173e 13be 8a0a 8dbe
-0.2132157 -0.18518865 -0.033075623 -0.1667181 -0.17972703 -0.1433959 -0.21928445 -0.06339639
-0.2934346 -0.18840776 -0.14773333 -0.42459655 -0.35984397 -0.32285017 -0.41684937 -0.3140691
-0.092251785 -0.20478861 -0.106395215 -0.150678 -0.22986129 0.027861916 -0.19269076 -0.04158283
-0.09613287 -0.10866932 -0.14461218 -0.34756175 0.07974902 -0.074091814 -0.3975094 -0.18803377
-0.22315472 -0.16085266 -0.352659 -0.24286313 -0.2683887 -0.22896852 -0.16249543 -0.2820246
-0.1755305 -0.12459185 -0.49616373 -0.116829604 -0.24924305 -0.15880415 -0.21725106 -0.13052052
-0.20677833 -0.12910056 0.020154057 -0.26660475 -0.21872452 -0.13052197 -0.26479626 -0.11405281
-0.15611574 -0.1675696 -0.15621765 -0.31897646 -0.14577171 -0.127076 -0.42857134 -0.2899384
-0.41586608 -0.33301854 -0.4429177 -0.3917542 -0.15544385 -0.10807856 -0.17986579 -0.20927477
-0.10768877 -0.3937749 -0.3644488 -0.32674128 -0.29747197 -0.13115217 -0.26514262 -0.23284137
-0.108423084 -0.15389918 -0.15521067 -0.33899152 -0.07853331 -0.28300622 -0.4181079 -0.16029803
-0.2629229 -0.4801683 -0.22446112 -0.27903745 -0.18539114 -0.35454965 -0.15282248 -0.32079855
-0.21224633 -0.25851217 -0.08697204 -0.4087982 -0.44475922 0.07350731 -0.006472173 -0.17218295
-0.3735361 -0.06783614 -0.2474658 -0.24387705 0.03430066 -0.18817197 -0.20851965 -0.12118956
-0.26154992 -0.20119295 -0.11076382 -0.2678077 -0.31180853 -0.102386676 -0.22002025 -0.14968047
-0.16028677 -0.18133302 -0.118823 -0.39840823 -0.11855592 -0.23983125 -0.28622803 -0.3639754
-0.031493668 -0.04881547 -0.39016727 -0.2923297 -0.21115634 -0.10604749 -0.007954883 -0.04688253
-0.24181032 -0.058884982 -0.17861927 -0.3513491 -0.26687032 -0.26774752 -0.07330063 -0.46422902
-0.41464162 -0.018363068 -0.18613644 -0.1512383 -0.34031215 -0.08903206 -0.13347563 -0.14905903
-0.18662567 -0.29368606 -0.24966294 -0.03887807 -0.023283904 -0.06904348 -0.17938548 -0.12103213
-0.33289847 -0.12912959 -0.51931334 -0.19442612 -0.3372178 -0.15909252 -0.23817506 -0.11831253
-0.25494456 -0.1802971 -0.2727907 -0.20758468 -0.3015129 -0.25530618 -0.41474637 -0.28382233
-0.40786016 -0.23201253 -0.07213386 -0.06698498 -0.10004939 -0.09502538 -0.17386581 -0.17343394
-0.112520605 -0.16793677 -0.033215664 -0.5191115 -0.4991496 -0.51241314 -0.3226838 -0.2284217
-0.22141486 -0.2696011 -0.16159901 -0.039096773 -0.200657 -0.43681917 -0.1702945 -0.2560055
-0.25047413 -0.3838937 -0.30132362 -0.27949142 -0.24144533 -0.43521887 -0.27438542 -0.44655678
-0.18879323 -0.15532199 -0.11090091 -0.20353824 -0.16097306 -0.32924458 -0.23255685 -0.27205893
-0.10890343 0.042734075 -0.31322986 -0.10195725 -0.18143158 -0.23510656 -0.45885935 -0.1931465
-0.2695337 -0.07318325 -0.38160568 -0.38442075 -0.23434259 -0.26877058 -0.1264524 -0.13501255
-0.45028692 -0.3174961 -0.26687184 -0.19207065 -0.12630038 -0.09793298 -0.27755117 -0.2573962
-0.15620624 -0.19265965 -0.53526795 -0.062845066 -0.113185085 -0.13114361 -0.118550025 -0.37315407
-0.32369924 -0.26143843 -0.19379652 -0.25882003 -0.23644234 -0.30992857 -0.14379154 -0.27547103

bn1.running_mean f4 [256]
00000000: be98 2bba 5e14 14ba e376 823a 37fc dcba
00000010: 50b0 7d3a e170 783a 8e90 033b 9551 de39
00000020: dc08 d5b9 2dab b2ba 3b70 54b9 d800 efb9
00000030: c0c1 9aba 33c4 e7b9 fb77 a6ba f94c b839
00000040: a45c 1839 8166 6bb9 d752 4039 7be7 5a3a
00000050: faea 87ba fdbe aa3a 3bb3 443a 419c 723a
00000060: dab5 dcb9 5d81 2fba 2ab1 653a a862 31ba
00000070: 51ac ac3a edef 863a b4ff cab9 61a0 a5ba
00000080: 9f77 07ba 7ed7 c1ba 7cf8 8eba d3fd 0b3a
00000090: 05a2 48ba 7df9 4bba a9c3 a73a 03f6 5a3a
000000a0: 5349 953a 72c9 2abb d8df 9dba 2861 8fba
000000b0: 609e 69ba bdd3 f4ba 01f3 54ba a821 de3a
000000c0: ca80 68ba d702 28bb 076e e03a 7abd ceba
000000d0: 5414 d2b7 c189 363a 45ef 13ba 9473 4cb9
000000e0: ca46 58ba e3fd 6339 bcf1 80ba 60e6 67ba
000000f0: c67e 77b9 aa91 1f3a b757 293a 67a5 8839
00000100: 0633 4cba 82b5 0eba 9c1a e4ba 3b72 04bb
00000110: fd3b d4ba 3399 613a 594a 6fba 8edf 95ba
00000120: 5c5f 2cba f673 94ba 0d53 a9ba 37a5 87ba
00000130: 9f45 8aba 8d6e 73b8 b949 1d3a 2d60 8db9
00000140: d1d9 7b3a f389 bb39 e282 f73a d03f d2ba
00000150: fb42 33b9 6ca6 e23a ea46 a538 170b d1b9
00000160: e830 b5b9 7e6a 37ba 4c14 37bb 65be 07bb
00000170: a681 e039 52de 013a aa53 983a 0880 8a39
00000180: 69e8 90b9 df00 5337 18a9 353a c8cd adba
00000190: 8902 d9ba d144 c13a 3201 12bb 86db 823a
000001a0: 192c b7ba 6d58 36ba e175 113b 3959 45b9
000001b0: fab9 fa3a 58fc a5b9 a98a 45b8 0c81 873a
000001c0: d7ab 2dbb d69f 813a 6592 823a 7ff4 43ba
000001d0: 816e 91ba 1757 a63a a0e0 31bb 96e0 f339
000001e0: f520 ae3a 1f8a 13ba c245 ccba b001 a839
000001f0: dfdf c2ba bded 10bb 738e e2ba 260b c5ba
00000200: 8e63 dbba 79d5 583a e1e3 eeba 6d8f ceba
00000210: c2c9 93ba 0321 fc3a 633e 7d3a 3352 8138
00000220: b063 2aba 95a3 d039 fc9d 2eb9 4217 02bb
00000230: b66d 9937 cf77 453a 27e9 323a 5166 b8ba
00000240: b67b 09bb 2f8c 593a d6d3 c23a 4686 2d3a
00000250: 5cf2 e6b9 9c08 233a 52fc 3ab9 e9f9 bc39
00000260: 4260 c2ba 2bfa 45ba b39b c839 4f1e 8b3a
00000270: 931f 1eb9 6a13 f9b9 f6a2 44ba 422d c73a
00000280: 2a66 c13a beda cd39 c343 a7ba f6c5 0dba
00000290: 0b7a 5339 6820 a6ba 0982 953a 425a 223a
000002a0: 3145 adba d223 68ba 2b5d 08ba 0b95 f139
000002b0: 87fd a1b8 72ee f9ba 0ae1 34ba f6c7 f9ba
000002c0: 3430 66ba b378 faba 3b71 793a 13df bbba
000002d0: 7252 933a a8c1 7737 e085 dbb9 069a faba
000002e0: b667 fdba 6f14 37bb 81b6 243a 514f d1ba
000002f0: 547e b8b9 ce9a e4ba 4e10 a03a 6b77 25b8
00000300: 0f26 21ba 8901 adba db0c 73ba 1845 2fba
00000310: eaeb 29ba 7f64 d6ba b3bd cc39 ecd4 99b9
00000320: b6bd a43a 2e10 10bb f07f 11b9 010c 44b9
00000330: 15b6 49ba a7f7 48ba cafb 35ba 163c 35ba
00000340: cbdd ec3a 59a8 b8ba 7a69 7238 7036 003a
00000350: 8bc2 3e3a eaa0 c3ba 11fa 27ba 8246 a7ba
00000360: 2e25 563a 5885 7f3a 9995 e2ba ab5d 03bb
00000370: e426 393a bbc2 e4ba 03ae abba feb5 76ba
00000380: 17f4 a5b8 67e3 21ba 957f 79ba 80f8 94ba
00000390: 7036 1fb9 4dea d538 c841 b5ba 72ac 003a
000003a0: 633d cdb9 a018 dd39 9ce1 09bb e75b 30ba
000003b0: 99e5 553a 688c cc39 94da 29ba eecf 00ba
000003c0: 8878 82ba 28e7 f1b8 ca16 c5ba fc71 173b
000003d0: da68 c13a 3e9f c2b9 9295 0bba f9c5 22bb
000003e0: 8820 04bb e309 55ba d671 8dba 2125 7cba
000003f0: 23bb b9ba 0140 25b9 95fc a0ba e2cc e1b9
-0.00065458927 -0.0005648787 0.0009953644 -0.0016859834 0.00096774567 0.00094772695 0.0020075175 0.00042403923
-0.00040633127 -0.0013631337 -0.00020259705 -0.0004558626 -0.001180701 -0.00044205933 -0.0012700552 0.00035152564
0.00014530361 -0.00022449532 0.00018341407 0.00083505333 -0.0010369711 0.001302689 0.0007503514 0.0009254851
-0.0004209716 -0.0006694997 0.0008762056 -0.0006766715 0.0013173913 0.0010294892 -0.00038718956 -0.0012636298
-0.0005167666 -0.0014788953 -0.0010907794 0.0005340252 -0.00076535373 -0.0007781012 0.00127994 0.00083526986
0.001138965 -0.0026060012 -0.001204486 -0.0010938989 -0.00089118443 -0.0018678826 -0.00081233686 0.0016947286
-0.0008869289 -0.0025636458 0.0017122634 -0.0015773021 -2.5043417e-05 0.0006963276 -0.0005643259 -0.00019498012
-0.00082502945 0.00021742987 -0.0009837667 -0.0008846279 -0.00023602982 0.0006087074 0.0006459909 0.00026063176
-0.00077895855 -0.0005443917 -0.001740295 -0.0020209688 -0.0016192194 0.00086058973 -0.0009128205 -0.0011434422
-0.0006575489 -0.0011326063 -0.0012918428 -0.001034892 -0.0010549313 -5.8038673e-05 0.000600006 -0.00026965272
0.00096073473 0.000357702 0.0018883611 -0.0016040746 -0.00017095722 0.0017292029 7.881022e-05 -0.0003987185
-0.00034559448 -0.00069967646 -0.0027935682 -0.002071285 0.00042821205 0.0004954088 0.0011621614 0.00026416802
-0.0002763898 1.2576783e-05 0.0006929799 -0.001326018 -0.0016556542 0.001474524 -0.0022278544 0.0009983636
-0.0013974934 -0.00069559255 0.0022195505 -0.00018820622 0.0019128912 -0.00031659263 -4.7097597e-05 0.0010338142
-0.002650013 0.0009889554 0.0009961842 -0.00074750924 -0.0011095555 0.001269075 -0.0027141944 0.000465159
0.0013284968 -0.00056281866 -0.0015584754 0.00032044714 -0.0014867744 -0.002211436 -0.0017284885 -0.001503323
-0.0016738044 0.0008271556 -0.0018225872 -0.0015759297 -0.0011275338 0.0019235912 0.00096604804 6.16651e-05
-0.000649984 0.0003979473 -0.00016652787 -0.0019850289 1.829011e-05 0.00075328065 0.00068249035 -0.0014068579
-0.0020978278 0.0008298782 0.0014864157 0.00066194346 -0.0004404959 0.00062192394 -0.00017832339 0.00036044352
-0.0014829712 -0.00075522315 0.00038262978 0.0010613891 -0.00015079817 -0.00047507446 -0.000750109 0.0015195983
0.0014755179 0.00039263623 -0.0012761283 -0.00054082216 0.00020167993 -0.0012674453 0.0011406551 0.0006193259
-0.0013219473 -0.00088554353 -0.00052018714 0.00046078148 -7.7243014e-05 -0.0019068255 -0.00068999885 -0.0019056785
-0.00087809865 -0.0019109457 0.0009515469 -0.0014333449 0.001123978 1.4767436e-05 -0.0004187068 -0.0019119389
-0.0019333276 -0.0027935763 0.0006283299 -0.0015969073 -0.00035189337 -0.0017441155 0.001221189 -3.9450282e-05
-0.0006147334 -0.001319931 -0.000927163 -0.0006686016 -0.00064819923 -0.0016356854 0.0003905125 -0.00029341073
0.0012568745 -0.00219823 -0.00013875938 -0.00018696488 -0.0007694674 -0.00076662976 -0.00069421215 -0.00069135556
0.001807147 -0.0014088257 5.779553e-05 0.00048909243 0.0007276914 -0.0014925275 -0.0006407807 -0.0012762102
0.00081689924 0.0009747348 -0.0017287015 -0.0020044844 0.0007062985 -0.0017453054 -0.0013098124 -0.0009411274
-7.9132784e-05 -0.0006175548 -0.00095176074 -0.0011365563 -0.00015183701 0.000102002734 -0.0013828808 0.0004908509
-0.00039146384 0.00042170752 -0.0021039015 -0.00067275617 0.0008159518 0.00039014523 -0.0006479409 -0.00049137964
-0.0009954134 -0.00011534832 -0.0015036699 0.0023108711 0.001475598 -0.00037121208 -0.0005324717 -0.002483724
-0.0020160992 -0.00081267784 -0.0010791372 -0.000961857 -0.0014170151 -0.0001575947 -0.0012282307 -0.00043067994

bn1.running_var f4 [256]
00000000: dcd7 e33d 19ac 113e 5919 323e 4f49 323e
00000010: e2cd da3d 0eb4 8c3e e39c 213e e8a6 293e
00000020: f194 103e 070b df3d c170 143e 286c 043e
00000030: 6033 633e 6a4c 383e 5b4f c43e d5b1 1f3e
00000040: e16e d93d 48b9 6b3e ff29 c13d 468b 173e
00000050: e1d7 473e e312 583e 2b52 063e 9e28 003e
00000060: 79d7 5a3e 898d 2f3e 56d9 7a3e 8e16 413d
00000070: 0a65 483e 4f6c 643e 551a 4b3e 0513 373e
00000080: 0560 1f3e fd8c f73d 0146 b43e 91f0 0e3e
00000090: 63e9 013e ab36 cb3d 216b 3d3e 634e 323e
000000a0: d3af c23d 4af3 cd3d 587a b13e 61f2 933d
000000b0: 332a 773e f5b4 243e da57 df3d f901 043e
000000c0: a269 df3d e75f ea3d c1f0 3e3e 2281 a23e
000000d0: e356 df3d 5cb2 b43d 2998 013e a9f6 3c3e
000000e0: 2021 2a3e 1107 ad3d 087b cd3d c6c3 553e
000000f0: a9ad 273e 86c2 043e 72a5 3a3e f194 393e
00000100: 72ab f83d 3a2b 1d3e 5031 b33e 1df6 a53e
00000110: 7573 2f3e 9187 003e af52 163e b5a6 223e
00000120: 6067 b63d 31b7 ae3e e14a bd3e 914e 3a3e
00000130: 34e0 c53d a926 c73d 920f 993d 1a4a ca3d
00000140: 54cf d63d 4ca6 053e b694 813d 9f52 c23e
00000150: b9ca 583e 5a5c ce3d 163b 133e eeb3 e63d
00000160: 9fde 3b3e d542 293e 67be d63d 8db9 a93e
00000170: e30a b23d 100d 9d3d 4ba6 033e 755a 133e
00000180: 1ed7 2f3e 9d0c 393e f10d ce3d a5e8 a23e
00000190: ca27 6f3e f1fd 743e 6a16 cc3d c2a5 f63d
000001a0: 44d8 c33e f098 bd3d 55be 303e dfbf 273e
000001b0: 193c 643e 6ed4 083e cb5f 023e 6b79 b83d
000001c0: e028 393e 07ec 2d3e dd07 123e 9a43 153e
000001d0: b0b2 573e 02ee 2c3e 5378 183e c11f f63d
000001e0: 0b41 e73d 2dbe 003e dc3d 0c3e d6c3 4b3e
000001f0: 20bc dd3d 740d 2b3e f02f ad3e b620 c43e
00000200: f3a2 c13d 13f6 563e cf5e b63e 2268 4d3e
00000210: 82de 383e d230 c83d c5dc 493e 8e2e 1d3e
00000220: 9285 a13e 4d58 2c3e 7ae1 f63d 79a0 073e
00000230: 116e 023e e364 433e 85f0 bf3d e0c3 8a3e
00000240: 62b6 923e 2b97 0c3e a545 d63d 73ab b43d
00000250: 1dc7 113e bf1d 1c3e 3bf8 c83d fa9d f03d
00000260: 0d3d 2c3e 9c8f 6c3e 1863 243e 2764 2c3e
00000270: 1fc6 0f3e c433 ed3d 10d3 fd3d d881 f03d
00000280: a181 c63d d0c6 3a3e 94d5 db3e 90d2 fb3d
00000290: a468 203e d193 1d3e 3956 153e bbc3 b93d
000002a0: 5bd5 b83e 9e9f 203e 15c4 6f3e 508c c53d
000002b0: df88 693e 0ab4 073e d350 463e dc2e da3d
000002c0: 2467 a53e 5754 a13e c10d 413e ba2a f63d
000002d0: 78c9 293e 82a0 ce3d 05ca 0d3e fce6 903e
000002e0: 61d0 e33d 7ca6 093e 6fed 463e b0be c83e
000002f0: 78e4 233e 7a27 ad3e 474f f83d 5590 693e
00000300: 8cbd a03d 60da 303e ce56 e13d 196d e73d
00000310: 74af ca3d 5309 963e a7ca 873e 53ac 093e
00000320: d2ca 123e 3846 ad3e 6fbf 273e 6c6c 603d
00000330: a221 ec3d 6689 983e 6091 003e e44f 4f3e
00000340: aeab 113e 9502 4c3e 2b81 863d b861 513e
00000350: 8e6a 263e 556d 4d3e a8ea 3f3e 4dd0 a43e
00000360: 78c5 053e a9b0 2c3e ba42 d33e 20b8 013e
00000370: e18f fc3d 5dcc d03d a40d 843e 4ad2 0e3e
00000380: bd33 c93d ab9e 1b3e 47db 1e3e b67e e83d
00000390: ed50 243e 9b56 493e d865 0f3e 113a 103e
000003a0: d704 413e e572 1a3e 4eac 453e 54d0 d73d
000003b0: 210b 9b3d 4dc5 0d3e 5b86 b23e 051f ea3d
000003c0: bab6 be3d 71f5 033e 3f8b 943e 9907 0d3e
000003d0: e0fa a83d 677a 333e 0088 e73d 4252 393e
000003e0: 67b3 993e 75c6 b23d a2b9 d23d ce3e 6c3e
000003f0: 7b87 373e 77de 1b3e aa8f 223e d863 283e
0.11125156 0.14225806 0.17392482 0.17410778 0.106838 0.2748112 0.15782504 0.16567576
0.14119317 0.10890775 0.14496137 0.12931883 0.22187567 0.179979 0.38341793 0.15595181
0.106168516 0.23019898 0.09431838 0.14799222 0.19515945 0.21100955 0.13117282 0.12515494
0.21371259 0.17143835 0.2449697 0.04714065 0.19569793 0.22306941 0.19834264 0.17878349
0.15563972 0.12087438 0.3520966 0.13958956 0.12686686 0.099225365 0.18497898 0.17412715
0.09506192 0.10056169 0.34663653 0.072239645 0.24137191 0.16084655 0.10905428 0.12891378
0.1090882 0.11444073 0.18646528 0.31739146 0.10905244 0.08823082 0.126557 0.18453468
0.16614199 0.084486134 0.10033232 0.20875463 0.1637484 0.1296483 0.18227175 0.18123223
0.121420756 0.15348521 0.3499856 0.32414332 0.17133887 0.12551714 0.14679979 0.15883906
0.08906436 0.3412414 0.3697119 0.18194033 0.09661904 0.09724171 0.07473673 0.09877415
0.104887635 0.13051718 0.063271925 0.3795366 0.21171083 0.100762084 0.14378008 0.112647876
0.18346642 0.165294 0.10485535 0.33149377 0.08693483 0.07668507 0.12856404 0.14389975
0.17171904 0.18071218 0.10061253 0.3181812 0.23355022 0.23924996 0.09965213 0.120433345
0.38250935 0.09257686 0.17260106 0.16381787 0.2228855 0.13362285 0.12731855 0.09007534
0.18081999 0.16984569 0.14260812 0.14576569 0.21064258 0.16887668 0.1488965 0.12017775
0.11291703 0.12572546 0.13695472 0.19898924 0.108268976 0.1670435 0.33825636 0.38306206
0.09454908 0.20992307 0.35619208 0.20059255 0.1805363 0.09774937 0.19713123 0.1534979
0.3154722 0.16830559 0.12054725 0.13244809 0.127373 0.19081454 0.09372047 0.27102566
0.28654772 0.13729541 0.104625024 0.08821764 0.14236112 0.15245722 0.09812971 0.11748882
0.16820164 0.23101658 0.16053426 0.1683508 0.14040421 0.11582139 0.123937726 0.11743516
0.096926935 0.18239903 0.42936385 0.12296021 0.15664917 0.15388419 0.14583673 0.09070536
0.36100277 0.15685889 0.23414643 0.09645903 0.22806118 0.13252273 0.1936677 0.10653469
0.32305253 0.3150966 0.18852903 0.12019868 0.1658076 0.10089208 0.13846596 0.28301227
0.111237295 0.13442415 0.19426511 0.39207983 0.16005123 0.3381918 0.12124496 0.22808965
0.07848653 0.17270803 0.11002885 0.113001056 0.09896746 0.2930399 0.265218 0.13444643
0.14335182 0.33842635 0.1638162 0.0547909 0.115298524 0.29792327 0.12555456 0.2024532
0.14225647 0.1992286 0.065676056 0.20447433 0.16251585 0.20061238 0.18741858 0.3219017
0.1306361 0.16864266 0.41261846 0.12667894 0.1233213 0.10195229 0.25791657 0.13947406
0.098243214 0.15197246 0.15513335 0.11352293 0.16046496 0.19661944 0.14003694 0.1408465
0.18849503 0.15082891 0.1930401 0.10537782 0.07570482 0.13844796 0.3486813 0.11431698
0.09312196 0.12886597 0.29012486 0.1377243 0.082509756 0.17527162 0.11305237 0.18097785
0.30019686 0.08729259 0.10289313 0.23070833 0.17922775 0.15221582 0.15875116 0.16444337

fc2.weight f4 [128, 256]
00000000: e2b4 44bd 3955 533c b82e 2d3d 29b6 8e3b
00000010: 63cc 2cbc c883 e7bb 7356 a53c b496 d0bd
00000020: 7b88 96bc 13ba 9bba 9b0e 2cbd 9246 14bd
00000030: 898e 893b d755 8dbd 109a 843c f2d4 58bd
00000040: fd29 2fbd 06d0 05bd 0bb0 e73a 9409 4bbd
00000050: 8b6f 9e3c b893 1e3d c59b 7ebc 134e 0ebd
00000060: 015a 433c 360c eb3c a72f 58bd ed8e b83c
00000070: 25e2 82bc c54f c43c 7ebc 0fbd ec7a 463c
00000080: d9b9 d23c 1056 a63a b167 523b c167 243c
00000090: 4987 a03b 0f31 903c 28b0 eebb 1eaf 72bd
000000a0: 403b 1b3b 4b0c cb3b 8804 d83b 7df0 ad3c
000000b0: 4d15 d93c 7045 30bd 9026 853b a2a8 43bc
000000c0: 622c 703c 9169 ce3c de77 d43c 3377 053b
000000d0: e431 cfbc 9a92 a6bd e281 c83c 4661 82bd
000000e0: 6f5c 6dbb 72a3 963c 4bb1 59bd 9cbc 4837
000000f0: 8655 a33c 3419 883c 2cf9 853d 30e9 47bc
00000100: 7e9e 69bb d6b0 65bd b5c1 963c c0b5 463d
00000110: d102 743c 4881 77bc 424d a03b 2c9e c93c
00000120: 01b5 9bbc 63fa 93ba 90a5 feba 172c 4d3c
00000130: 3031 bf3c 9daf 083c 099a d4bc 9c30 ffbc
00000140: 00cb 7abd 39bf 05bc ad3f 14bd d288 0c3c
00000150: 3f1c 893c 667a aa3b d348 babd e3c7 8dbc
00000160: f518 82bd e156 b93d 2565 613c 42c3 0d3c
00000170: 05da 003d 2377 a93c 2397 bebb a6a2 373c
00000180: 4fd9 af3c 0ef6 ec3a b2de 3f3d 6894 923c
00000190: 6c3b 1e3c 80c7 293c 468b c73b 1807 ea3b
000001a0: 8bbb 253c f3e5 26bb 8ef4 f9bc ab5f de3b
000001b0: 405c cf3c b512 17bd ccc9 03bc db66 afbd
000001c0: c252 b83b 0885 37bc 78c6 9e3b b24b 2a3c
000001d0: 50a0 c23b 21cd 8b3c aa5c bd3b a576 363d
000001e0: c597 be3b 252b 9cbc 4e09 033c 8e1a 0b3d
000001f0: c721 0cbd 2f41 df3b 0b39 ed3b dc6a 75bc
00000200: 8ed7 453c ca0c 81bc a419 983c ecf3 c8bd
00000210: d359 c13b 6e5a fdbd 7c1d 1e3c 7c2b e9bc
00000220: 416f 023c b07c aebd f009 7cbc e012 c83c
00000230: 9c1e ae3b c35d e73b b141 ab3c 2450 2d3c
00000240: e9a3 a83b 7250 f03c 248b e7bd bd4e 193d
00000250: f4ec 62bd 3ea6 87bd e670 fdbb 14f8 8ebc
00000260: 8d77 b03c 53d4 563d a982 b2bd 3bd1 1abd
00000270: 7c0d 2d3c 08dd 493a 1132 a73b 529e d5bc
00000280: 1387 043d 67ad 1a3c 367d 653c 0388 8a3c
00000290: 397b 3bbd 1f27 1fba 83f4 b03c 462f 12bd
000002a0: 07b4 253c 092f 2fbb 3bad 53bb 9bde 3c3c
000002b0: a110 86ba 4a7a 163d a19d 98bc 6df0 07bb
000002c0: 4064 483b 5568 523c 912f cfbc 5b3e 30bc
000002d0: 7120 8bbd 6938 0abd 67e0 e8bc 8861 923c
000002e0: 8ed5 a53c 1ba5 3c3c 7402 98bd 26ef f83b
000002f0: ff17 ec3d 537c 7e3b b4c7 e4bc 1ab0 56bc
00000300: 01a6 193c c905 0cbd ca17 61bb 9bea 10bd
00000310: 4223 26bd 02ef bcbd 8dff 16bd 7e92 9abb
00000320: 50db 1ebd 4608 9a3b 5ba0 a23c ab9a 1d3c
00000330: 2494 8e3c 5642 7d3c b879 c1bc f036 8b3b
00000340: ce66 abbc 27f8 82bc 0c54 f9ba 8e36 8a3c
00000350: 9f74 8dbd caa0 c33c 7d11 6dbd 4b0c f13b
00000360: bff1 63bd d7df bd3c b53e 883c 0614 cc3b
00000370: 2eba 1cbc 81bd 283c 9116 5abd bbec 99ba
00000380: e8af dcbb 86d8 b83c 1f34 383d dc88 313c
00000390: 87fe 8fbc 52bf 3dbd ac86 8a3b d623 a8bd
000003a0: 6ebf 91bd fc68 c4bd 2064 b23c e5a5 1e3d
000003b0: 1331 30bd 954a 87bd 08e6 c53b cc58 30bb
000003c0: 7138 b3bb 0989 c3bc b13f 53bd 09e2 6abd
000003d0: c9c7 18bd fd95 35bc 203a a53c 4721 bd3c
000003e0: 5701 383c f394 79bc db01 413c 63ee 393c
000003f0: e644 8239 4a4b 273c ce92 963c 037b 6b3c
-0.048024066 0.012898737 0.042280883 0.0043552113 -0.0105467765 -0.00706527 0.020182824 -0.10184994
-0.018375626 -0.0011881016 -0.042006116 -0.036200114 0.0041978997 -0.06901138 0.016186744 -0.052937455
-0.042764653 -0.03266909 0.0017676366 -0.04956968 0.019340297 0.038715094 -0.015540068 -0.034742426
0.011923314 0.028692346 -0.05277982 0.02252909 -0.015976975 0.023963818 -0.03509187 0.012114268
0.025723385 0.0012690444 0.0032105262 0.0100345025 0.0048989397 0.017601518 -0.007284183 -0.059249036
0.0023686439 0.006196534 0.006592337 0.021232838 0.026499415 -0.04303497 0.004063435 -0.011942061
0.014659019 0.025196822 0.025936063 0.0020365238 -0.025292344 -0.08133431 0.024475995 -0.0636621
-0.0036218425 0.018388484 -0.053147595 1.1964843e-05 0.019938242 0.01661358 0.065416664 -0.012201592
-0.0035647447 -0.056076847 0.018402914 0.048513174 0.01489325 -0.015106507 0.0048920223 0.024611555
-0.019007208 -0.0011289831 -0.0019428004 0.012522719 0.023338884 0.008342651 -0.025952356 -0.031151108
-0.061228752 -0.008163267 -0.03619354 0.008577542 0.016737102 0.0052025793 -0.09095921 -0.017307227
-0.063524164 0.09049774 0.013757025 0.00865251 0.03145792 0.020686692 -0.0058163567 0.011208212
0.021465925 0.0018078701 0.04684324 0.017893031 0.009657722 0.010362506 0.0060896007 0.007141959
0.0101155145 -0.002546665 -0.03051212 0.006786307 0.025312543 -0.036883075 -0.008043718 -0.0856454
0.0056251 -0.011201151 0.0048454367 0.010394024 0.005939521 0.017065587 0.0057788687 0.044546742
0.005816432 -0.019063542 0.007997824 0.03396087 -0.0342119 0.0068131904 0.007239466 -0.014979091
0.012075318 -0.015753169 0.018566914 -0.098121494 0.0059006005 -0.12370764 0.009650584 -0.028463118
0.007961095 -0.08519876 -0.015383229 0.024423063 0.0053137075 0.007060738 0.020905348 0.010578189
0.0051464927 0.029335234 -0.11305836 0.037428606 -0.055401757 -0.06623505 -0.007734406 -0.017452277
0.021541381 0.052448582 -0.08716328 -0.037797194 0.010562297 0.0007700478 0.005102404 -0.02607647
0.03235538 0.009440756 0.014006903 0.016910559 -0.04577181 -0.0006071198 0.021600967 -0.035689615
0.010113723 -0.0026730916 -0.0032299298 0.011527683 -0.0010228344 0.036737718 -0.01862985 -0.002074267
0.0030577332 0.0128422575 -0.025291236 -0.010757054 -0.06793297 -0.033745203 -0.028427316 0.017868772
0.020243432 0.011513974 -0.07422343 0.007596868 0.115280144 0.0038831427 -0.027927257 -0.013103509
0.009377957 -0.034185205 -0.0034346455 -0.035379987 -0.04056097 -0.092252746 -0.036864806 -0.0047171703
-0.03878337 0.0047006933 0.019851854 0.009619395 0.017404623 0.01545771 -0.02361761 0.0042484924
-0.020923045 -0.015987469 -0.001902224 0.016871717 -0.06907009 0.023880381 -0.057878006 0.0073562018
-0.05565047 0.023178024 0.016631464 0.006227973 -0.009565873 0.0102990875 -0.053244177 -0.0011743525
-0.006734837 0.022564184 0.04497158 0.0108358525 -0.017577423 -0.046325035 0.00422748 -0.0820996
-0.071165904 -0.09590337 0.021776259 0.038732428 -0.04301555 -0.06606022 0.0060393848 -0.0026908396
-0.005469375 -0.023869054 -0.051574413 -0.05734447 -0.037299905 -0.011083123 0.020169318 0.023087157
0.011230788 -0.015233266 0.011780228 0.01134834 0.00024846866 0.010210821 0.018380549 0.01437259

fc2.bias f4 [128]
00000000: 517b 0ab7 102a 1535 3858 afb4 374e 7e36
00000010: 2b79 5037 d8ea b7b7 df6e 3437 638e 2ab6
00000020: 3be2 84b6 8bc4 10b8 f4f4 d235 faf4 17b6
00000030: d382 30b6 4d49 2937 c0f2 1bb6 ba84 b8b6
00000040: c932 64b6 efb7 c736 af56 40b6 5b24 2f36
00000050: c169 f736 b596 9134 d469 4ab7 6f81 41b6
00000060: 67ab 01b8 f767 cfb6 738e 5bb6 09a8 1db7
00000070: 7b95 0838 42fe 27b8 0253 6337 a662 e5b6
00000080: a0c2 d8b6 aa4f 7f37 3b63 c0b7 bec1 8736
00000090: 5bd7 fab5 3983 d5b6 5686 34b6 1347 dcb7
000000a0: 8395 83b7 f779 c5b4 12cb 25b7 e306 1937
000000b0: 5360 0e36 296b 5fb7 344a 3736 c01a a936
000000c0: 821d b5b6 5e56 2035 ef8f 97b7 a2e2 0fb7
000000d0: db5f d536 9bf1 8c36 6f8c b7b6 d58c 4837
000000e0: 4454 d236 cad9 9cb7 19d1 8cb7 8e8a e436
000000f0: a6c5 83b7 7906 3437 a999 7637 2e19 4f36
00000100: 8630 9235 62d6 2036 34f0 9637 a539 6936
00000110: 7b80 0ab7 673c d5b7 36e8 d4b6 5c84 10b7
00000120: 2079 0fb6 1e58 23b7 66b9 5135 9853 3ab6
00000130: 35d0 c837 36b7 34b6 3364 2d36 b0a6 c536
00000140: 7b5f af35 b944 4136 83eb 43b5 47c3 4836
00000150: 9dd7 07b7 b1ec b135 c0e8 7a37 17c7 8b37
00000160: 5d45 51b7 2787 0236 c419 4436 c573 80b6
00000170: 8f81 92b6 db86 8736 cee8 d6b5 dbf2 f2b5
00000180: 4ac6 0c35 b660 5137 e998 ceb6 6a57 edb7
00000190: 7098 f837 7669 e836 d098 5eb7 89f2 1a38
000001a0: fab4 3536 aa15 e233 8582 45b6 6357 20b7
000001b0: 392f 7337 ca6f 94b7 c2ac 58b6 e0a5 66b7
000001c0: e9ce c735 7bb0 0236 42bb 2735 856b c537
000001d0: f75d d5b6 7e89 b3b4 58bd 34b6 ee5e d235
000001e0: f47a 34b7 4947 dcb6 1acb 95b7 6256 8137
000001f0: f424 f636 be62 d335 2e32 f0b5 d50b 7e37
-8.254153e-06 5.5568034e-07 -3.2660478e-07 3.7894476e-06 1.2425978e-05 -2.1924658e-05 1.075465e-05 -2.5414854e-06
-3.9602432e-06 -3.451532e-05 1.571751e-06 -2.2643349e-06 -2.6302193e-06 1.0090252e-05 -2.32381e-06 -5.4990787e-06
-3.4004208e-06 5.952075e-06 -2.8660686e-06 2.6098194e-06 7.373485e-06 2.7118008e-07 -1.2064778e-05 -2.8834581e-06
-3.0915628e-05 -6.181184e-06 -3.271646e-06 -9.397053e-06 3.256414e-05 -4.00527e-05 1.3549581e-05 -6.836216e-06
-6.459959e-06 1.5217733e-05 -2.2934391e-05 4.045868e-06 -1.8689128e-06 -6.363171e-06 -2.6900284e-06 -2.625914e-05
-1.5686039e-05 -3.678285e-07 -9.882047e-06 9.121114e-06 2.1215717e-06 -1.3316786e-05 2.7312317e-06 5.0397066e-06
-5.3976555e-06 5.9730326e-07 -1.8067627e-05 -8.576231e-06 6.3590537e-06 4.2004517e-06 -5.4701736e-06 1.1953719e-05
6.2682975e-06 -1.8698065e-05 -1.678667e-05 6.8110594e-06 -1.5708454e-05 1.0730343e-05 1.4698519e-05 3.086006e-06
1.089197e-06 2.3966645e-06 1.7993247e-05 3.475326e-06 -8.255355e-06 -2.5419706e-05 -6.3451253e-06 -8.613886e-06
-2.1379165e-06 -9.7360735e-06 7.812836e-07 -2.7764818e-06 2.3938812e-05 -2.6928733e-06 2.5837332e-06 5.8904625e-06
1.3066305e-06 2.8799243e-06 -7.2985875e-07 2.9915989e-06 -8.096828e-06 1.3256414e-06 1.49553525e-05 1.66628e-05
-1.2473521e-05 1.9450179e-06 2.9221274e-06 -3.8281746e-06 -4.3662217e-06 4.0390128e-06 -1.6011998e-06 -1.8101085e-06
5.244261e-07 1.2479888e-05 -6.1570795e-06 -2.8293307e-05 2.9634888e-05 6.926416e-06 -1.3267811e-05 3.694234e-05
2.7076444e-06 1.0527886e-07 -2.943126e-06 -9.5570895e-06 1.4494924e-05 -1.769503e-05 -3.2287066e-06 -1.3747689e-05
1.4886874e-06 1.9474235e-06 6.2484844e-07 2.3534298e-05 -6.3588336e-06 -3.3441387e-07 -2.6932303e-06 1.5673847e-06
-1.0757463e-05 -6.5648096e-06 -1.785676e-05 1.5418223e-05 7.335673e-06 1.5749463e-06 -1.7895998e-06 1.5142335e-05
