feedforward_nn/model_saves/fnn_(1024, 1024)_8.pth (torch, 229946 bytes, 19 tensors)

fc1.weight f4 [256, 48]
0	0x3cc6797b	0.024227848
1	0x3c9fd0a9	0.019508677
2	0x3b5934f9	0.0033143146
3	0xbde1fbbc	-0.11034343
4	0xbd306ccc	-0.043072507
5	0x3c05dd1d	0.008170393
6	0x3dba9b9b	0.09111711
7	0xbc69403f	-0.014236509
8	0xbcbb5343	-0.02286685
9	0x3eddf2fe	0.4334945
10	0xbd4dd279	-0.05024955
11	0x3da8d03c	0.082428426
12	0x3d0ac001	0.033874515
13	0x3cba053c	0.022707574
14	0x3d2647ff	0.040596005
15	0xbca12be5	-0.01967425
16	0xbcb1f532	-0.021723364
17	0x3c9e1a84	0.019299753
18	0xbc5f7016	-0.013637563
19	0x3a651e5f	0.00087401824
20	0xbd6a08ee	-0.057137422
21	0x3b42ccb2	0.0029724059
22	0xbbf7b091	-0.00755889
23	0x3d42d9ba	0.04757092
24	0xbd591197	-0.05299529
25	0x3d4f223e	0.050569765
26	0x3d0c5b5e	0.034266822
27	0xbd380ca5	-0.044933934
28	0x3a4fb66f	0.0007923608
29	0x3a67be3d	0.00088402984
30	0xbc7c4b61	-0.015398831
31	0xbd131342	-0.035907038
32	0x3d04c48e	0.03241401
33	0xbd0e9f6f	-0.034820016
34	0x3bfb8501	0.0076757674
35	0x3aacf6cb	0.0013196109
36	0xbbc3700f	-0.005964286
37	0xbb4c7bde	-0.003120176
38	0xbbbda0d6	-0.0057869954
39	0x3ca9f363	0.020745939
40	0x3d06c717	0.03290471
41	0xbb060799	-0.0020451306
42	0xbd266f46	-0.040633462
43	0xbb81bd1f	-0.0039593126
44	0xbc97ae3f	-0.018515704
45	0x3c6dc397	0.014511964
46	0x3c34643d	0.011010227
47	0xbd0bd392	-0.034137316
48	0xbe19ac7f	-0.15007208
49	0xbdcb2bef	-0.09920489
50	0xbbdb11ba	-0.006685463
51	0xbc5a9a3d	-0.013342437
52	0xbe663b8e	-0.22483656
53	0xbbb6eb52	-0.0055822516
54	0xbb3e1056	-0.0029001436
55	0x3d689f00	0.05679226
56	0x3e95c8a9	0.29254654
57	0x3d89dd44	0.06731656
58	0x3d87b525	0.066263475
59	0xba35ede8	-0.0006940053
60	0xbd68d24a	-0.056841172
61	0x3b6c9cf3	0.0036104291
62	0xbd8211b0	-0.0635103
63	0x3ca13963	0.019680684
64	0xbc526d73	-0.012843478
65	0xbbe0fc5b	-0.0068660206
66	0x3cf64dfb	0.03006648
67	0xbd95c9a8	-0.073138535
68	0xbc9b934c	-0.018991135
69	0x3c25608f	0.010093822
70	0x3d87c7d8	0.06629914
71	0xbce20681	-0.027590992
72	0xbe8662f0	-0.26247358
73	0x3cda5d9e	0.026655968
74	0x3bac1356	0.0052513285
75	0xbcf55b46	-0.02995075
76	0x3bfc0794	0.007691333
77	0x3c903e28	0.017607763
78	0x3d079ff7	0.03311154
79	0x3cc5ffa5	0.024169752
80	0x3b6c5ebb	0.0036067206
81	0xbd31bd37	-0.04339334
82	0x3d2a5bc4	0.04159142
83	0x3c9de256	0.019272964
84	0x3b9b6b13	0.004742989
85	0xbc1691fe	-0.009190081
86	0x3c310831	0.010805176
87	0x3ce4d4e0	0.027933538
88	0xbc6f09d1	-0.014589743
89	0x3c359754	0.011083443
90	0x3d3467d6	0.04404434
91	0xbcb3de0e	-0.02195647
92	0x3d0bfa57	0.03417429
93	0x3cc507d4	0.024051584
94	0x3d0a1647	0.03371265
95	0xbc1e9364	-0.009678695
96	0x3d9a047a	0.07520385
97	0xbd0a6d8e	-0.033795886
98	0x3dcfc481	0.10144902
99	0x3e529fa5	0.20568712
100	0x3c510f31	0.01275997
101	0x3df5130b	0.11966523
102	0x3e1ad557	0.15120445
103	0xbda4eb5c	-0.08052704
104	0x3d9b04e4	0.07569292
105	0xbcb9310e	-0.022606399
106	0xbd67724e	-0.056505494
107	0xbd1ac5a8	-0.037786156
108	0xbc82b73a	-0.01595651
109	0xbcf12403	-0.029436117
110	0xbcf8137b	-0.030282727
111	0x3d58b5af	0.052907642
112	0x3dfee3d4	0.124457985
113	0x3d8c4a41	0.068501
114	0x3c929e38	0.01789771
115	0xbc825565	-0.01590986
116	0xbc2b721e	-0.010464219
117	0x3d83743c	0.06418654
118	0x3d07d766	0.033164404
119	0x3d8dd782	0.069258705
120	0x3de7a48b	0.11310681
121	0x3da12656	0.0786864
122	0x3d0e1b7a	0.034694172
123	0xbdcee652	-0.10102524
124	0x3d471319	0.048602197
125	0x3c0335c0	0.0080084205
126	0x3d164838	0.036689967
127	0x3d924292	0.071416035
128	0x3d194a0e	0.03742414
129	0x3d464960	0.04840982
130	0xbd9fed11	-0.07808889
131	0xbdf3bf69	-0.11901743
132	0xbd63bf7e	-0.055602543
133	0xbbfec7c8	-0.0077752806
134	0xbbb3f5b9	-0.005491939
135	0x3cf1b317	0.029504342
136	0x3d3cd693	0.04610307
137	0x3b2a597f	0.0025993285
138	0xbdbab511	-0.09116567
139	0xbd00a548	-0.031407624
140	0x3b25d57d	0.002530425
141	0xbcae4b4e	-0.021276142
142	0x3cb66be5	0.022268245
143	0x3cf5f153	0.030022299
144	0xbdd72df6	-0.10506813
145	0xbcb40d94	-0.02197913
146	0x3c77883d	0.015108165
147	0x3e714edc	0.23565239
148	0x3c1d0d4f	0.009585693
149	0x3c18fb31	0.009337232
150	0x3e23f10c	0.16009921
151	0xbd94a562	-0.07258107
152	0xbdba2b05	-0.090902366
153	0x3c2af0c6	0.010433381
154	0xbc8c4303	-0.017121797
155	0x3d4605f8	0.048345536
156	0xbcb9a48e	-0.022661474
157	0x3c268df5	0.010165681
158	0xbda06377	-0.078314714
159	0xbd5c765d	-0.053823818
160	0xbd810822	-0.06300379
161	0x3e632472	0.22181872
162	0xbc6d463c	-0.014482077
163	0x3d77c929	0.060494576
164	0x3bd6dea9	0.006557305
165	0x3d69e95e	0.057107322
166	0xbd17cb8e	-0.03705936
167	0xbd9adfd5	-0.07562224
168	0xbdbc58b2	-0.09196605
169	0x3ca70823	0.020389622
170	0xbb340d7f	-0.0027473865
171	0xbe4cc9d7	-0.19998871
172	0x3ca132a5	0.01967747
173	0xb9253933	-0.00015756935
174	0xbca7d308	-0.02048637
175	0x3bab06f0	0.005219333
176	0xbcdce836	-0.026966196
177	0xbde29f74	-0.110655695
178	0x3c3e2caf	0.011607333
179	0x3d5af422	0.05345548
180	0x3b21176e	0.0024580616
181	0xbd1a9a90	-0.03774506
182	0xbca08e48	-0.019599095
183	0xbd8145af	-0.06312119
184	0xbbcfc374	-0.0063404385
185	0xbc410857	-0.0117817735
186	0xbdfe94db	-0.12430736
187	0x3c652260	0.013985246
188	0xbced9917	-0.029003663
189	0x3c38b06a	0.011272529
190	0x3ce71467	0.02820797
191	0xbbd380c8	-0.006454561
192	0xbc58bbcf	-0.013228371
193	0x3da27d4e	0.07934056
194	0x3d10497d	0.035226334
195	0xbf02f8ad	-0.511607
196	0x3eaa0f91	0.33215
197	0xbd1b1adf	-0.037867423
198	0x3e0e340a	0.13887039
199	0x3d0bb207	0.034105327
200	0xbcdb55c7	-0.0267743
201	0x3db25762	0.08708073
202	0xbc04785a	-0.008085335
203	0xbce960f6	-0.028488617
204	0xbaf5723e	-0.0018726063
205	0xbc77ca5a	-0.015123928
206	0x3d6330c9	0.055466447
207	0x3cb1ef49	0.021720545
208	0xbc3a70b4	-0.01137941
209	0x3d734bd0	0.059398472
210	0xbc7b2cdc	-0.0153305195
211	0x3d07da45	0.033167142
212	0x3cbb1a48	0.02283968
213	0x3cc8251f	0.024431763
214	0xbd2da79e	-0.04239618
215	0x3d9b1db7	0.07574027
216	0xbceacce2	-0.028662149
217	0xbb4e1d9b	-0.0031450752
218	0xbc947849	-0.018123763
219	0x3c59bf7a	0.0132902805
220	0x3d5f0f08	0.054457694
221	0x3d3ba5d2	0.045812435
222	0x3d1a8a1a	0.03772936
223	0xbb6d06c5	-0.0036167365
224	0xbba205d2	-0.0049445415
225	0xbd465a36	-0.048425876
226	0xbd2ac0b5	-0.041687686
227	0x3b260f8c	0.0025338857
228	0x3cbb9424	0.022897787
229	0xbc281618	-0.010259174
230	0x3c14668c	0.009057652
231	0xbd005b04	-0.0313368
232	0x3cb24e10	0.021765739
233	0xbc67b2a2	-0.0141417105
234	0x3d960fbc	0.0732722
235	0x3d18fd79	0.037351105
236	0x3da5a236	0.0808758
237	0x3bfe9009	0.007768635
238	0x3af78872	0.0018885268
239	0x3c1db355	0.009625276
240	0x3cffd540	0.031229615
241	0xbd369a7b	-0.044580918
242	0xb9bbc6b6	-0.0003581547
243	0x3eb9289a	0.3616379
244	0x3e873e88	0.26414895
245	0xba04384d	-0.000504379
246	0x3e0b21bd	0.13587089
247	0x3d43a558	0.047765106
248	0x3ce1b866	0.027553748
249	0xbcdb13ec	-0.026742898
250	0x3e245eaa	0.16051736
251	0xbd4919ac	-0.04909675
252	0x3b51ca2f	0.003201138
253	0x3cbdc512	0.02316526
254	0xbdd2abf4	-0.10286704
255	0x3d97bdd0	0.07409251

fc1.bias f4 [256]
0	0x36b60cfe	5.425535e-06
1	0xb6d67a36	-6.391924e-06
2	0x3667f640	3.4565019e-06
3	0x36995663	4.569812e-06
4	0x369dd914	4.704236e-06
5	0xb720320a	-9.548394e-06
6	0x36d88721	6.4530327e-06
7	0x36af4f06	5.224606e-06
8	0x35cb2b9f	1.5137374e-06
9	0x35cd96d3	1.5317586e-06
10	0xb593d24d	-1.1013559e-06
11	0x3633353d	2.6704067e-06
12	0xb5d37224	-1.5753944e-06
13	0x35690f45	8.6821484e-07
14	0xb6d41c7a	-6.3214075e-06
15	0x36b66804	5.4361317e-06
16	0x3583818b	9.797963e-07
17	0x36f4ae99	7.2920925e-06
18	0x3729201e	1.0080663e-05
19	0x36ec1f7c	7.0370133e-06
20	0xb6b827fe	-5.488283e-06
21	0xb607a38b	-2.0211762e-06
22	0x36f01811	7.155359e-06
23	0x36634fd1	3.3872095e-06
24	0xb7276f5d	-9.9799045e-06
25	0x3679e42a	3.72367e-06
26	0xb62c1d13	-2.564692e-06
27	0x360a8b9f	2.0644873e-06
28	0xb61d439b	-2.3434175e-06
29	0xb692911f	-4.3680334e-06
30	0xb7a6152d	-1.9798603e-05
31	0xb7565581	-1.2775302e-05
32	0xb654dc1c	-3.1718582e-06
33	0xb6e2dfef	-6.761394e-06
34	0x363834cc	2.7448868e-06
35	0x355c856c	8.215054e-07
36	0x356bc97d	8.7837526e-07
37	0xb716f9cf	-8.99886e-06
38	0xb6594f56	-3.23817e-06
39	0xb64e8ce2	-3.0778397e-06
40	0x333f9bac	4.4612236e-08
41	0x36c50a82	5.872281e-06
42	0x371b2d1c	9.249223e-06
43	0xb6c2f8b0	-5.8106016e-06
44	0x36ad44c5	5.1638076e-06
45	0xb53f5030	-7.1269733e-07
46	0xb5f43325	-1.8194302e-06
47	0x361ab2ea	2.305193e-06
48	0xb6bf3874	-5.6988156e-06
49	0x3785c0f2	1.5944683e-05
50	0xb5c0bba0	-1.4359721e-06
51	0xb696d5e3	-4.495248e-06
52	0xb75933e6	-1.29462915e-05
53	0xb603a3ee	-1.961594e-06
54	0x361eb6b5	2.3650184e-06
55	0xb56cd31d	-8.822406e-07
56	0x3772c921	1.4471153e-05
57	0x36d6722f	6.3909897e-06
58	0xb6caed0d	-6.0476655e-06
59	0xb78cafea	-1.6771217e-05
60	0xb6d5f8be	-6.376852e-06
61	0x35c6a12f	1.479906e-06
62	0x36e12b18	6.7105393e-06
63	0x35c45d3d	1.4630274e-06
64	0xb6060996	-1.9973136e-06
65	0x37208c0c	9.56935e-06
66	0x362ed848	2.6053913e-06
67	0xb5854763	-9.930048e-07
68	0xb6b254c8	-5.314683e-06
69	0xb72f22a3	-1.0438877e-05
70	0xb65b36f7	-3.2665537e-06
71	0x365d0e95	3.2940054e-06
72	0xb6b08477	-5.2606297e-06
73	0xb7669899	-1.3744598e-05
74	0xb6aaac35	-5.0864423e-06
75	0xb7319e83	-1.05869285e-05
76	0x362fead4	2.621372e-06
77	0x36a5ae4c	4.937674e-06
78	0x3745d4df	1.1791678e-05
79	0x36472ad9	2.9678251e-06
80	0x36f9d9d3	7.4461364e-06
81	0x35599699	8.105795e-07
82	0x36ea9a72	6.9917232e-06
83	0x33e81b1a	1.08082716e-07
84	0x37165215	8.959808e-06
85	0xb58fdddf	-1.0718903e-06
86	0x36e883dd	6.9294897e-06
87	0xb2a26fef	-1.8910184e-08
88	0x3641f67a	2.890271e-06
89	0xb6330f07	-2.6681826e-06
90	0x354852c6	7.462626e-07
91	0x3621eda4	2.4129195e-06
92	0x3622c63d	2.425527e-06
93	0xb3a4884a	-7.661636e-08
94	0x36324518	2.6564285e-06
95	0xb5eec262	-1.7788955e-06
96	0xb667f7ee	-3.4565996e-06
97	0x35e96278	1.7388511e-06
98	0xb67fb424	-3.8102817e-06
99	0xb74185b8	-1.153483e-05
100	0xb5a54df3	-1.2316144e-06
101	0xb6c45148	-5.8507176e-06
102	0x36d551ec	6.3574316e-06
103	0xb657a5a5	-3.2133914e-06
104	0xb5dba194	-1.6363797e-06
105	0x3697bcbe	4.522123e-06
106	0xb6ce2c18	-6.1444116e-06
107	0xb6e1235c	-6.709639e-06
108	0xb65ecc95	-3.319966e-06
109	0x374490c0	1.1716213e-05
110	0xb59635f0	-1.1191569e-06
111	0x36f12543	7.1866975e-06
112	0x369a54c7	4.599427e-06
113	0x3714c31c	8.866915e-06
114	0xb6eda2fc	-7.0821243e-06
115	0xb6dc8295	-6.5717127e-06
116	0x3691fd40	4.350819e-06
117	0x376b67a5	1.4031223e-05
118	0xb79bd3df	-1.85761e-05
119	0xb579d538	-9.307e-07
120	0x375f3f8b	1.33066305e-05
121	0xb72b09ea	-1.0194703e-05
122	0x35415f1b	7.20365e-07
123	0x364164a0	2.8817813e-06
124	0x36b8dd2d	5.5093756e-06
125	0xb60a57b9	-2.0614664e-06
126	0xb658a6b8	-3.2283551e-06
127	0xb718f0d4	-9.115978e-06
128	0x35997402	1.1433151e-06
129	0xb615c74b	-2.2318734e-06
130	0x36d1aca6	6.2487843e-06
131	0x360e4524	2.1199894e-06
132	0xb5c48e73	-1.4644596e-06
133	0x366e3de9	3.55008e-06
134	0xb7213b0d	-9.610097e-06
135	0x36291bdf	2.5199186e-06
136	0x355669e9	7.987533e-07
137	0xb73fc4c2	-1.1430298e-05
138	0x36a796a9	4.994527e-06
139	0xb68c5120	-4.1817693e-06
140	0xb6a490d2	-4.90444e-06
141	0x3615359b	2.2233933e-06
142	0x36d99bff	6.4852643e-06
143	0x36b07482	5.258772e-06
144	0x363fe505	2.8594525e-06
145	0xb689e8b1	-4.110007e-06
146	0xb5a5fe22	-1.236742e-06
147	0xb563afca	-8.4819897e-07
148	0x3593d80a	1.1015229e-06
149	0xb69a1c66	-4.5928637e-06
150	0x36dff0ba	6.673942e-06
151	0xb5301fa3	-6.5611147e-07
152	0x371bcb13	9.286002e-06
153	0x35dc17a9	1.6398163e-06
154	0x3591154f	1.0809543e-06
155	0xb60b8af8	-2.0793505e-06
156	0xb7102858	-8.592462e-06
157	0xb6b05ab2	-5.255767e-06
158	0xb6d73c91	-6.41455e-06
159	0x3677d5a0	3.6930214e-06
160	0x356589a5	8.5509447e-07
161	0x3655e5a3	3.187314e-06
162	0xb6c063b6	-5.733654e-06
163	0xb6b6c4bc	-5.4469256e-06
164	0xb63d8ed4	-2.8246332e-06
165	0x36e8b3e9	6.935083e-06
166	0x34a08cec	2.9904857e-07
167	0xb6ba86d6	-5.558929e-06
168	0x37b40ade	2.1462733e-05
169	0x35dafe2e	1.6316242e-06
170	0xb7145676	-8.841618e-06
171	0x35fabb27	1.868092e-06
172	0x36928f2e	4.3678074e-06
173	0xb511ee6b	-5.4363653e-07
174	0xb74faefe	-1.2378905e-05
175	0x3725dbf5	9.885979e-06
176	0x35d26a1f	1.5677105e-06
177	0x36480d79	2.9810165e-06
178	0x36b52d24	5.3994754e-06
179	0xb5c38d8e	-1.456983e-06
180	0x3772a432	1.4462554e-05
181	0xb60200a8	-1.9371892e-06
182	0x3672a70e	3.6158049e-06
183	0x363a13df	2.7727726e-06
184	0xb6f34ccf	-7.250906e-06
185	0xb6339dba	-2.6764887e-06
186	0xb712776e	-8.730085e-06
187	0xb5e7a493	-1.7258739e-06
188	0xb7717a24	-1.43931575e-05
189	0xb60d2ed8	-2.1037904e-06
190	0x35c55fa1	1.4705475e-06
191	0x352e6612	6.4968583e-07
192	0x350e35f8	5.2977657e-07
193	0xb68d2352	-4.2062393e-06
194	0xb540f22a	-7.187797e-07
195	0x36a86ac5	5.0192198e-06
196	0xb6710401	-3.591413e-06
197	0xb60ecb82	-2.1278106e-06
198	0xb653a951	-3.1540005e-06
199	0xb58c55ef	-1.0455823e-06
200	0x365aeac6	3.2621188e-06
201	0x36df12c6	6.6481034e-06
202	0xb6b4cb38	-5.388076e-06
203	0x35b2a4ce	1.3309998e-06
204	0x36fe8053	7.584729e-06
205	0x34df8956	4.1636912e-07
206	0xb61e8ec6	-2.362694e-06
207	0xb722d610	-9.705793e-06
208	0xb6ddf716	-6.615078e-06
209	0x3594f6a9	1.1098647e-06
210	0xb5319676	-6.615659e-07
211	0xb5f6e56e	-1.8395201e-06
212	0x3503e9e9	4.9141687e-07
213	0xb58e2077	-1.0589273e-06
214	0xb5e6c24a	-1.7192881e-06
215	0x35176586	5.639962e-07
216	0xb682898d	-3.890315e-06
217	0xb6ab2474	-5.100441e-06
218	0xb701848e	-7.719862e-06
219	0x375eeb6e	1.3287046e-05
220	0xb73cace1	-1.1245925e-05
221	0xb7ae92af	-2.0810721e-05
222	0x3640eb9f	2.874738e-06
223	0x36c9611d	6.0015723e-06
224	0xb6f06e65	-7.165409e-06
225	0xb5b6725b	-1.3593339e-06
226	0x36eefe83	7.122582e-06
227	0x36336969	2.6734435e-06
228	0xb63d2949	-2.8187226e-06
229	0xb69416b9	-4.413389e-06
230	0x3691a48a	4.3404916e-06
231	0xb669fc5b	-3.4866596e-06
232	0xb58c674f	-1.046088e-06
233	0xb699061f	-4.560468e-06
234	0xb616aae7	-2.245122e-06
235	0x35e5daaa	1.7125469e-06
236	0xb62f63b6	-2.6135071e-06
237	0x356f5111	8.9152405e-07
238	0x35be0ef4	1.4160455e-06
239	0xb6683718	-3.4602763e-06
240	0x362691d1	2.4820804e-06
241	0xb6bb7ce0	-5.5875716e-06
242	0xb486c809	-2.510499e-07
243	0xb70482a6	-7.898232e-06
244	0xb729a9d2	-1.0112724e-05
245	0xb5dc487a	-1.6412371e-06
246	0xb69d4fd8	-4.6882597e-06
247	0xb7652ed6	-1.36603685e-05
248	0xb6dee110	-6.6423163e-06
249	0xb657169a	-3.2050652e-06
250	0xb65af98d	-3.262979e-06
251	0xb62d6b3e	-2.5841432e-06
252	0xb66b9014	-3.5101593e-06
253	0xb729bc77	-1.0117065e-05
254	0x3708ffb6	8.165769e-06
255	0xb65080f1	-3.106947e-06

bn1.weight f4 [256]
0	0x3e3fb090	0.18719697
1	0x3e316219	0.17322578
2	0x3e2aaddd	0.16667886
3	0x3e428c3e	0.1899881
4	0x3ebb1d92	0.36545998
5	0x3e5f3ad0	0.21799779
6	0x3e8aef55	0.2713572
7	0x3e48a9e6	0.19596061
8	0x3f2a1843	0.6644327
9	0x3eaf63e4	0.34255898
10	0x3e80118b	0.25013384
11	0x3e6cd5ef	0.23128484
12	0x3e136ccd	0.14396973
13	0x3e87aeb1	0.26500466
14	0x3e58791a	0.21139947
15	0x3e490e6c	0.19634408
16	0x3e81b890	0.25336123
17	0x3e4f4dbb	0.20244496
18	0x3eaffaf6	0.34371156
19	0x3e4ab278	0.19794643
20	0x3e03e6e1	0.12881042
21	0x3e5b99c9	0.21445383
22	0x3ea14e6f	0.31505153
23	0x3f110ef2	0.5666343
24	0x3e9da73b	0.3079165
25	0x3e930c03	0.28720102
26	0x3e2c2515	0.1681102
27	0x3ececb7d	0.40389624
28	0x3e707c81	0.23484994
29	0x3e499b18	0.1968807
30	0x3eed1c4c	0.4631065
31	0x3e94159c	0.28922737
32	0x3e5c41d2	0.21509483
33	0x3ea66311	0.32497457
34	0x3e833f06	0.2563402
35	0x3e32c141	0.17456533
36	0x3e861500	0.26187897
37	0x3e6f6272	0.23377398
38	0x3e0f3803	0.1398621
39	0x3e9d74a9	0.30753067
40	0x3ed6972e	0.41912216
41	0x3eab73fa	0.3348692
42	0x3e90b371	0.28261903
43	0x3e865e0e	0.26243633
44	0x3da76528	0.08173591
45	0x3e67ad85	0.22624786
46	0x3dd5e20d	0.104435064
47	0x3e24d47c	0.16096681
48	0x3ea9fd4c	0.33201063
49	0x3e6206e4	0.22072941
50	0x3e4484fc	0.19191355
51	0x3db4258e	0.087962255
52	0x3f1c1b46	0.60979116
53	0x3e4b7be7	0.19871484
54	0x3ebbc5e5	0.3667442
55	0x3e680901	0.22659685
56	0x3e68bf8f	0.22729324
57	0x3dca7724	0.098860055
58	0x3e0feb08	0.14054501
59	0x3e8ca525	0.27469745
60	0x3ece0060	0.4023466
61	0x3ed4830b	0.41506228
62	0x3eb197e8	0.34686208
63	0x3e1c022d	0.15235205
64	0x3e62ac41	0.22136022
65	0x3e5997e3	0.21249346
66	0x3dde7891	0.1086284
67	0x3e99ec9b	0.30063328
68	0x3eb3faa4	0.3515216
69	0x3ef04e15	0.46934572
70	0x3e80867e	0.2510261
71	0x3e5074d9	0.20357074
72	0x3ecdb2f8	0.40175605
73	0x3eebf03b	0.4608172
74	0x3df27b0a	0.11839874
75	0x3e09ac85	0.13444717
76	0x3e2c2c45	0.16813762
77	0x3e819488	0.25308633
78	0x3eca7d0f	0.39548537
79	0x3e72991a	0.23691216
80	0x3e4dfb56	0.20115408
81	0x3dd8dac6	0.10588603
82	0x3e8cd68a	0.2750743
83	0x3e3ada19	0.1824726
84	0x3e2fa2d8	0.17151964
85	0x3ea75b4b	0.32686839
86	0x3df8de00	0.12151718
87	0x3e8221b1	0.2541633
88	0x3e1ede87	0.15514575
89	0x3e8cceec	0.2750162
90	0x3e282082	0.16418651
91	0x3e2839a9	0.16428246
92	0x3e32aed2	0.17449501
93	0x3eb3cdc1	0.35117915
94	0x3e421807	0.18954478
95	0x3e6d8ff7	0.2319945
96	0x3e99b31c	0.30019462
97	0x3ea5d16f	0.32386348
98	0x3ea1d9f8	0.3161161
99	0x3e8f94dc	0.28043258
100	0x3e43df38	0.1912812
101	0x3efd3d80	0.49460983
102	0x3e8514ce	0.25992435
103	0x3e1e81a9	0.15479149
104	0x3e081dc8	0.1329261
105	0x3e8416cf	0.25798652
106	0x3e7f3bf7	0.24925219
107	0x3e7af76c	0.24508446
108	0x3e409738	0.18807685
109	0x3e1ec2df	0.15504025
110	0x3e32eeb6	0.17473873
111	0x3e37d710	0.17953134
112	0x3e707e0e	0.23485586
113	0x3f0f4d87	0.5597767
114	0x3e9138db	0.2836369
115	0x3e0a9cf7	0.1353644
116	0x3e5ce185	0.21570404
117	0x3ef13ce4	0.47116768
118	0x3eab7ec7	0.3349516
119	0x3e6de724	0.23232704
120	0x3e8374bd	0.25675002
121	0x3e29826b	0.16553657
122	0x3eda1620	0.42595005
123	0x3e5248a2	0.2053552
124	0x3e95b9a5	0.29243198
125	0x3e568e29	0.20952667
126	0x3e9ad385	0.30239502
127	0x3f1051fe	0.5637511
128	0x3f04af98	0.51830435
129	0x3da23de9	0.07921965
130	0x3e6ebf81	0.2331524
131	0x3e936ecb	0.28795466
132	0x3f1d38e1	0.61414915
133	0x3e62456f	0.220968
134	0x3e8020ce	0.25025028
135	0x3e7c18a9	0.24618782
136	0x3e85e055	0.26147714
137	0x3e819c78	0.2531469
138	0x3e7831f0	0.242378
139	0x3e03207a	0.12805358
140	0x3e500aa8	0.20316565
141	0x3e406eb8	0.18792236
142	0x3e710af3	0.23539333
143	0x3e603909	0.21896757
144	0x3e2cc80e	0.1687319
145	0x3e78c598	0.24294126
146	0x3ded6022	0.115906015
147	0x3e8be271	0.273212
148	0x3e61a430	0.22035289
149	0x3ea04089	0.31299236
150	0x3e9f47be	0.31109422
151	0x3e900a7e	0.28133005
152	0x3e6b38dd	0.2297091
153	0x3e4ddaf7	0.2010306
154	0x3e570674	0.20998555
155	0x3e5cdb4b	0.21568029
156	0x3e85dd00	0.26145172
157	0x3ed601ca	0.4179824
158	0x3e7a1be5	0.24424703
159	0x3e535969	0.20639576
160	0x3f128f01	0.57249457
161	0x3e6694da	0.2251772
162	0x3eaaa2f5	0.3332745
163	0x3e75c314	0.24000198
164	0x3e1f5a8d	0.15561886
165	0x3e8643ef	0.26223704
166	0x3e4e0b66	0.20121536
167	0x3e991a75	0.29902998
168	0x3ee52fd8	0.44763064
169	0x3e812209	0.2522128
170	0x3ea2aacc	0.31770933
171	0x3e36c410	0.1784823
172	0x3e42a9b3	0.19010048
173	0x3e19cd20	0.15019655
174	0x3ef34d41	0.47519878
175	0x3e8e0462	0.2773772
176	0x3e6f30f9	0.23358525
177	0x3e0952c7	0.13410483
178	0x3e48c7bf	0.19607447
179	0x3e68374d	0.22677346
180	0x3ef89d63	0.48557577
181	0x3e6cf5fc	0.2314071
182	0x3e7a8a26	0.24466762
183	0x3dfe0b1e	0.12404464
184	0x3ec4e1cd	0.38453522
185	0x3e007e71	0.12548234
186	0x3e6a0396	0.2285293
187	0x3dfffde1	0.124995954
188	0x3f17b693	0.5926296
189	0x3ef469e9	0.47737053
190	0x3e6f31c7	0.23358832
191	0x3e6641ed	0.22486086
192	0x3e8027ed	0.2503046
193	0x3e8ccb73	0.2749897
194	0x3ef0c36b	0.47024092
195	0x3e3d002f	0.18457101
196	0x3e1d8c5a	0.15385571
197	0x3ebf050f	0.37308547
198	0x3e243416	0.16035494
199	0x3ec39a0b	0.38203463
200	0x3e0fa228	0.14026701
201	0x3ea2efd9	0.31823614
202	0x3eb72ccd	0.35776368
203	0x3ea3ae9a	0.31969148
204	0x3e7380d6	0.23779616
205	0x3e538f51	0.2066014
206	0x3ed0ebdd	0.4080495
207	0x3f0ac842	0.5421182
208	0x3e9dc207	0.30812094
209	0x3eb29346	0.34877986
210	0x3f000e6a	0.50021994
211	0x3ea74481	0.32669452
212	0x3e83c437	0.25735638
213	0x3e2aa372	0.16663912
214	0x3e5862c9	0.21131434
215	0x3e8391c3	0.25697145
216	0x3e42ce4c	0.19024009
217	0x3e5be05b	0.21472304
218	0x3e72d244	0.23713022
219	0x3f0ecf7d	0.5578535
220	0x3f089f05	0.53367645
221	0x3eecdd6a	0.46262676
222	0x3e5e20da	0.2169222
223	0x3ec8a652	0.39189392
224	0x3e75fb6e	0.24021694
225	0x3e432c84	0.1905995
226	0x3f110793	0.5665218
227	0x3ea6e4b8	0.32596374
228	0x3e4a6b5c	0.19767517
229	0x3e4d59cd	0.20053788
230	0x3ea6041e	0.32425016
231	0x3e4bb9a2	0.19895032
232	0x3e639d9f	0.22228096
233	0x3ddb6db6	0.10714285
234	0x3e87188b	0.26385912
235	0x3ec05f36	0.3757264
236	0x3ef76e42	0.48326308
237	0x3eb5419d	0.3540162
238	0x3de811d5	0.11331526
239	0x3f251a3b	0.6449315
240	0x3f210a08	0.6290593
241	0x3e3142e6	0.17310676
242	0x3e33eb44	0.17570215
243	0x3e29e0d8	0.16589677
244	0x3ea8ec0c	0.3299259
245	0x3e5dfc10	0.21678185
246	0x3ee3b3a7	0.44473
247	0x3e354b84	0.17704588
248	0x3e9b0dc3	0.30283937
249	0x3e77a758	0.2418493
250	0x3f0baceb	0.54560727
251	0x3e5b5ec7	0.21422873
252	0x3e5c97f6	0.21542343
253	0x3e523b52	0.20530441
254	0x3e723e2a	0.23656526
255	0x3f0221f2	0.50833046

bn1.bias f4 [256]
0	0xbdf95438	-0.121742666
1	0xbd7bdbcb	-0.061488908
2	0xbe37dfb1	-0.17956425
3	0xbdcc7e00	-0.0998497
4	0xbeaf6c24	-0.34262192
5	0xbde6ac84	-0.112633735
6	0xbdde6bb5	-0.10860387
7	0xbdf7c714	-0.12098518
8	0xbef2bfaa	-0.47411853
9	0xbe874f35	-0.26427618
10	0xbcc9a370	-0.024614066
11	0xbddf9553	-0.10917153
12	0xbd44499a	-0.047921754
13	0xbe54bb63	-0.20774607
14	0xbe21da96	-0.1580604
15	0xbe1e7b36	-0.15476689
16	0xbe32abfa	-0.17448416
17	0xbdee94c2	-0.11649467
18	0xbe8b9def	-0.2726893
19	0xbdb26759	-0.08711118
20	0xba6e3f27	-0.000908839
21	0xbd8902dd	-0.06689999
22	0xbe54b787	-0.20773135
23	0xbe81909e	-0.25305647
24	0xbe8f1eb8	-0.27953124
25	0xbe816159	-0.25269583
26	0xbe060bdb	-0.1309046
27	0xbee5c6ad	-0.4487814
28	0xbe206281	-0.15662576
29	0xbce819eb	-0.028332671
30	0xbe5457df	-0.20736645
31	0xbe02a4c7	-0.1275817
32	0xbc57d33f	-0.013172924
33	0xbd95e216	-0.07318513
34	0xbe29dbf7	-0.16587816
35	0xbe3c9318	-0.18415487
36	0xbe278dc1	-0.16362669
37	0x3c83c09a	0.01608305
38	0xbdbd1cc6	-0.09234004
39	0xbe8b2733	-0.27178344
40	0xbf005606	-0.5013126
41	0xbe1dc8d1	-0.15408637
42	0xbe5f544a	-0.21809497
43	0xbe8d8428	-0.2763989
44	0xbc65c93f	-0.014025032
45	0xbe176058	-0.14782846
46	0xbd098ec6	-0.033583425
47	0xbe225ea7	-0.1585642
48	0xbe177892	-0.14792088
49	0xbe18d20e	-0.1492388
50	0xbe2ed5c9	-0.1707374
51	0x3b93a900	0.0045062304
52	0xbeb9696c	-0.36213243
53	0xbd5959f9	-0.05306432
54	0xbe22158c	-0.15828532
55	0xbe8a707b	-0.2703894
56	0xbe02a38a	-0.12757698
57	0xbc1b452b	-0.00947694
58	0xbd923187	-0.07138353
59	0xba3368cc	-0.0006843924
60	0xbe6a83e0	-0.22901869
61	0xbe4db75e	-0.2008948
62	0xbe283be1	-0.16429092
63	0xbe092591	-0.13393237
64	0xbe4f6662	-0.202539
65	0xbdd65745	-0.10465864
66	0xbd80d393	-0.062903546
67	0xbe9e2b00	-0.3089218
68	0xbe500938	-0.20316017
69	0xbe7238c4	-0.23654467
70	0x3b3d0177	0.0028839984
71	0xbd5d7dd1	-0.054075066
72	0xbec39f5b	-0.38207516
73	0xbe0d9b3c	-0.13828748
74	0xbd24bfa4	-0.040221825
75	0xbd2d4c2c	-0.04230897
76	0xbda0a388	-0.07843691
77	0xbe401709	-0.18758787
78	0xbe832fb9	-0.25622347
79	0xbe04cd00	-0.12968826
80	0xbde5960d	-0.112102605
81	0xbce1269f	-0.027484236
82	0xbe775ab8	-0.241557
83	0xbe71572d	-0.23568411
84	0xbe3d5444	-0.18489176
85	0xbea15a2b	-0.31514105
86	0xbd008c7b	-0.031383973
87	0xbda761f2	-0.081729785
88	0xbe099915	-0.13437302
89	0xbe0a9f1e	-0.13537261
90	0xbda14077	-0.07873624
91	0xbe0fd83e	-0.14047334
92	0xba8db28d	-0.0010810659
93	0xbed6e990	-0.4197507
94	0xbdb973ed	-0.09055314
95	0xbe0f1d1c	-0.13975948
96	0xbdb5e41f	-0.08881401
97	0xbe8b43c3	-0.27200136
98	0xbd924476	-0.07141964
99	0xbe4f41ef	-0.20239995
100	0xbd88194b	-0.06645449
101	0xbe63b767	-0.22237931
102	0xbdd7e4d8	-0.10541695
103	0xbe2a50cc	-0.16632384
104	0xbdb66da6	-0.089076325
105	0xbe0f872f	-0.14016412
106	0xbe5943f5	-0.2121733
107	0xbe2613b8	-0.1621846
108	0xbe23d188	-0.15997899
109	0xbd8596a5	-0.06522874
110	0xbdb3b714	-0.08775154
111	0xbde8d61e	-0.113689646
112	0xbe350ae4	-0.17679936
113	0xbe9bd064	-0.30432427
114	0xbe791d86	-0.24327669
115	0xbcf2c403	-0.029634481
116	0xbdc333ef	-0.0953139
117	0xbe6a75e1	-0.2289653
118	0xbde92190	-0.11383355
119	0xbd725511	-0.059163157
120	0xbd936db2	-0.07198657
121	0xbda4db7d	-0.080496766
122	0xbeb66fb3	-0.35632095
123	0xbe34d63c	-0.17659849
124	0xbe88845c	-0.26663482
125	0xbdc77313	-0.097387455
126	0xbe61a5a7	-0.22035848
127	0xbe8fbd15	-0.28073946
128	0xbef4aaf2	-0.4778667
129	0xbba96166	-0.0051690815
130	0xbe24a496	-0.1607841
131	0xbe88d77d	-0.26726905
132	0xbeb26d71	-0.34849122
133	0xbe2df9f9	-0.16989888
134	0xbdc61093	-0.0967113
135	0xbe6edb01	-0.23325731
136	0xbe1d2e97	-0.15349804
137	0xbe05c9f3	-0.13065319
138	0xbcf76f0d	-0.03020432
139	0xbd8d80f0	-0.069093585
140	0xbd8c0029	-0.06835968
141	0xbe202517	-0.15639149
142	0xbdf0e114	-0.1176168
143	0xbdaa2f87	-0.08309846
144	0xbd9f9270	-0.077916026
145	0xbe3a2e05	-0.18181618
146	0xbdcf1edf	-0.1011331
147	0xbe2ec527	-0.17067395
148	0xbe2b7b95	-0.16746362
149	0xbe552c2c	-0.20817631
150	0xbe278470	-0.16359115
151	0xbe1ffc76	-0.1562365
152	0xbdf3902a	-0.118927315
153	0xbddd2266	-0.107975766
154	0xbd77d5d3	-0.060506653
155	0xbe3bb6ec	-0.18331498
156	0xbd749c72	-0.05971951
157	0xbd820418	-0.06348437
158	0xbe184818	-0.14871252
159	0xbd863f24	-0.06555012
160	0xbf11f815	-0.5701917
161	0xbe32d31b	-0.17463343
162	0xbe9b169c	-0.30290687
163	0xbe17043d	-0.1474771
164	0xbdd33a3e	-0.10313843
165	0xbde593f5	-0.11209861
166	0xbe87b34d	-0.26503983
167	0xbe55e2c1	-0.20887281
168	0xbd8dc555	-0.06922404
169	0xbde74dfc	-0.11294171
170	0xbeadf0cb	-0.33972773
171	0xbd0b21b8	-0.033967704
172	0xbcaa456e	-0.02078506
173	0xbe0b6a94	-0.13614875
174	0xbe1ed5ec	-0.15511292
175	0xbe9ced0a	-0.30649596
176	0xbd47b9a5	-0.04876103
177	0xbd697074	-0.05699201
178	0xbd81c64b	-0.063366495
179	0xbd91cd79	-0.07119269
180	0xbe85da04	-0.26142895
181	0xbe35093e	-0.17679307
182	0xbe3b41d1	-0.18286826
183	0xbba22beb	-0.004949083
184	0xbec6b509	-0.38809994
185	0xbde0e787	-0.1098166
186	0xbdde98f7	-0.108690195
187	0xbd6ac76b	-0.057319086
188	0xbf0023e4	-0.50054765
189	0xbecf96f1	-0.40544847
190	0xbd90d4b9	-0.070718236
191	0xbe72eb67	-0.23722611
192	0xbe005317	-0.12531696
193	0xbe88a4ee	-0.2668833
194	0xbea81376	-0.32827348
195	0xbdfbd50d	-0.122964956
196	0xbdb73e9a	-0.08947487
197	0xbe607128	-0.21918166
198	0xbd25585f	-0.04036748
199	0xbe8051de	-0.2506246
200	0xbd85969c	-0.06522867
201	0xbe723d2d	-0.23656149
202	0xbe041b72	-0.12901095
203	0xbebfb49f	-0.3744249
204	0xbd5d58b3	-0.05403967
205	0xbdd08657	-0.10181873
206	0xbe201474	-0.15632802
207	0xbe990633	-0.29887542
208	0xbe827e4f	-0.2548699
209	0xbe0e8858	-0.13919199
210	0xbe6441a7	-0.2229067
211	0xbea7f75a	-0.32805902
212	0xbe065f5c	-0.13122314
213	0xbdbc7bc5	-0.09203295
214	0xbe1bcb80	-0.15214348
215	0xbe383d6d	-0.17992182
216	0xbd838433	-0.064216994
217	0xbd9bd1b7	-0.07608359
218	0xbe71cbf4	-0.23612958
219	0xbea57bfb	-0.32321152
220	0xbe97cf25	-0.29650226
221	0xbe5ca254	-0.21546298
222	0xbdc0bb44	-0.09410718
223	0xbe11a2d5	-0.14222272
224	0xbe59c90b	-0.21268098
225	0xbe5f6ace	-0.21818087
226	0xbebce367	-0.36892244
227	0xbe5618e7	-0.20907937
228	0xbe61bafa	-0.22043982
229	0xbe50c876	-0.2038897
230	0xbe2a12f2	-0.1660879
231	0xbddb27ca	-0.107009485
232	0x3ccbffb2	0.024902198
233	0xbd175e0d	-0.03695493
234	0xbe3a30bf	-0.18182658
235	0xbeb7255a	-0.35770684
236	0xbe4e2840	-0.20132542
237	0xbed14d8f	-0.40879485
238	0xbb9c9bb6	-0.0047793044
239	0xbeba7ef0	-0.3642497
240	0xbedf451f	-0.43607423
241	0xbd733f1d	-0.05938636
242	0xbe461517	-0.19343983
243	0xbcc2df8c	-0.023788236
244	0xbeb16a03	-0.34651193
245	0xbe4c551d	-0.19954343
246	0xbe718431	-0.23585583
247	0xbc11ca30	-0.008898303
248	0xbd92d129	-0.071688004
249	0xbe8629e1	-0.26203826
250	0xbec78172	-0.38965946
251	0xbe80960a	-0.2511447
252	0xbdbd23f2	-0.09235372
253	0xbd85182a	-0.064987496
254	0xbda1fee6	-0.07909946
255	0xbe507d63	-0.20360331

bn1.running_mean f4 [256]
0	0xbba490cf	-0.0050221453
1	0x3bb37827	0.0054769698
2	0xbb2b73b1	-0.0026161487
3	0xbbfdf183	-0.0077497377
4	0xbb94bef9	-0.0045393673
5	0xbb9caf36	-0.004781629
6	0xbb88e5ee	-0.0041778004
7	0xbbda6bf1	-0.0066656996
8	0xba85c03b	-0.0010204384
9	0xb9c20d3e	-0.0003701243
10	0x399eb09e	0.00030267698
11	0xbb9c2787	-0.004765454
12	0xbc05b9bb	-0.008161957
13	0xbc19bbda	-0.009383166
14	0xbb584f22	-0.0033006151
15	0x3bd36d69	0.0064522517
16	0x3bb0012a	0.0053712325
17	0xbc184a48	-0.009295054
18	0x3b5d1bd4	0.003373851
19	0xbb858993	-0.004075238
20	0x3b33dbf5	0.0027444337
21	0x3a129f06	0.00055931543
22	0xbaa64b2a	-0.0012687196
23	0x38cd86a1	9.800238e-05
24	0x3a4d13c0	0.00078230724
25	0x3b40aa44	0.0029398361
26	0x3ad07a19	0.0015905529
27	0x3ad4f28a	0.0016246599
28	0xba991987	-0.0011680581
29	0x3a94107b	0.0011296415
30	0xb7810596	-1.53806e-05
31	0xb9970ed3	-0.0002881201
32	0x3bc19fc4	0.005908938
33	0xba88baf2	-0.0010431691
34	0x398a7347	0.000264073
35	0xbb138fe7	-0.0022516192
36	0xbb6ad05a	-0.0035829754
37	0xbb31cf36	-0.0027131564
38	0xbb5aaa27	-0.003336558
39	0xb94917bc	-0.00019177696
40	0x3bb1f52a	0.005430837
41	0xbb0ebcff	-0.002178013
42	0x3b6caefd	0.0036115043
43	0xbbb56f91	-0.0055369814
44	0xba4e108d	-0.00078607426
45	0xba27c931	-0.0006400524
46	0xbb60a7ff	-0.003427982
47	0xbb204715	-0.002445643
48	0x3a699d6a	0.0008911701
49	0xbc24c569	-0.010056832
50	0xbaf86e39	-0.0018953747
51	0x3bd63bce	0.006537891
52	0xba3756fa	-0.00069938565
53	0xb9ed977c	-0.00045317027
54	0x3aea7198	0.0017886637
55	0xbb7716da	-0.003770283
56	0xbb9d633a	-0.0048030885
57	0x3b3d0751	0.0028843472
58	0xbbac6a69	-0.0052617085
59	0xb953d500	-0.00020201877
60	0xba8af930	-0.0010602828
61	0xbbab0728	-0.005219359
62	0x39a31af8	0.00031109876
63	0xba97564e	-0.0011546107
64	0xbbf51ee2	-0.007480488
65	0xbb48793c	-0.003058984
66	0x3baee152	0.005336919
67	0xbb66f32a	-0.0035240152
68	0xbb1291ab	-0.0022364657
69	0x39a53a09	0.00031514492
70	0x3840c9e6	4.59644e-05
71	0xbbce78f6	-0.0063010408
72	0x3b87da1a	0.004145873
73	0x3abbcd76	0.00143282
74	0xbb9b9949	-0.0047484976
75	0xbad472a5	-0.0016208483
76	0xbb3b6da1	-0.002859928
77	0x3bd1f524	0.006407397
78	0x3aedd0fe	0.001814395
79	0x3b56a4aa	0.0032751956
80	0xbb34ce6d	-0.002758886
81	0xbb1eb98d	-0.0024219484
82	0xbbd55bdf	-0.006511196
83	0xba4fb044	-0.0007922689
84	0x3b231ecb	0.002489018
85	0xbb85fdf0	-0.0040891096
86	0xbbca5767	-0.00617497
87	0xbba76293	-0.0051081865
88	0xbc8d93e6	-0.017282438
89	0x395f9e14	0.00021325826
90	0xbb97c8bd	-0.004632084
91	0xbaec765d	-0.0018040646
92	0xbbadc63c	-0.0053031724
93	0x399bdb80	0.00029727444
94	0x3ba8bfe0	0.0051498264
95	0xbb2840e5	-0.0025673446
96	0xbbe88ce5	-0.007096874
97	0x3b6d5274	0.0036212476
98	0x39ae5cb3	0.00033256933
99	0x3b24787d	0.002509623
100	0x3afd51fb	0.00193268
101	0xbabcfd4c	-0.001441875
102	0xb5f03441	-1.7896601e-06
103	0xb9998de5	-0.00029288154
104	0x3ad79110	0.001644643
105	0x3a888c86	0.0010417856
106	0x3b2ee3af	0.0026686003
107	0xbab7b049	-0.0014014329
108	0x3a19e265	0.0005870222
109	0x3bd1a06a	0.0063972967
110	0xbbda5491	-0.006662913
111	0xbc286a3e	-0.010279236
112	0xbb9f2b66	-0.0048574684
113	0xb9c59e29	-0.00037692607
114	0xbb0f8332	-0.0021898267
115	0x3b6bd53b	0.003598525
116	0xbb933b6f	-0.004493169
117	0x3a97454d	0.0011541039
118	0xbbc07155	-0.005872885
119	0x3a7e204a	0.00096941425
120	0xbbc0f9c2	-0.0058891485
121	0xbaa66511	-0.0012694915
122	0xbb32e338	-0.0027296077
123	0xbbd80e5a	-0.0065935077
124	0xbc0dcfcc	-0.0086555
125	0xb6a58500	-4.9328664e-06
126	0xbac1964f	-0.0014769527
127	0x39f3dbee	0.00046512432
128	0xbb2c01ea	-0.0026246258
129	0xbaa25861	-0.0012385958
130	0x3be53d4c	0.0069958325
131	0x3b7fa350	0.0039007254
132	0x39b18dbd	0.00033865674
133	0x3bbfde3b	0.0058553494
134	0xbb849ec3	-0.004047246
135	0xbaa70aea	-0.0012744342
136	0xbb104643	-0.0022014535
137	0x3b017d67	0.0019758584
138	0xbacd1640	-0.001564689
139	0xbb27c111	-0.0025597254
140	0xbae62200	-0.001755774
141	0xbb274d6d	-0.0025528327
142	0x3ac60736	0.001510835
143	0xbaa16bd9	-0.0012315466
144	0xb9d60f08	-0.0004082846
145	0x3becd83b	0.007227925
146	0x3bf0de4c	0.0073507186
147	0xbbceb600	-0.006308317
148	0xbba6c6c3	-0.005089612
149	0xbb9b2560	-0.00473468
150	0xbb835126	-0.0040074764
151	0x3bc36e62	0.0059640864
152	0xbac8c12e	-0.0015316361
153	0x3b67b8ca	0.0035357946
154	0xbaac0432	-0.0013123809
155	0x3beb512c	0.0071813073
156	0xba5e9e87	-0.00084922503
157	0x3b0a0f71	0.0021066333
158	0xb8a7886d	-7.988592e-05
159	0xbb784b9c	-0.0037886864
160	0xb9f23238	-0.00046195253
161	0x3b382208	0.0028096456
162	0x3b14f218	0.0022727307
163	0x3ab28520	0.0013619997
164	0x3b264173	0.00253686
165	0xbb80380c	-0.0039129313
166	0x3b983711	0.0046452363
167	0xbbab26a3	-0.0052231117
168	0xbad94d5b	-0.001657884
169	0x3adc2bf5	0.0016797768
170	0x3b23c582	0.002498955
171	0x3bf72c6a	0.0075431364
172	0xba174b84	-0.00057714456
173	0x3b866191	0.0041009863
174	0xbaa48597	-0.001255202
175	0xbbc770bb	-0.0060864366
176	0xbb90da4e	-0.004420555
177	0x3bab8614	0.005234489
178	0x3b1026c8	0.0021995772
179	0x383fcb62	4.5727364e-05
180	0xbb6a90d3	-0.0035791888
181	0xbb896e77	-0.0041940766
182	0x3b9b3462	0.004736469
183	0xbb228e15	-0.0024803926
184	0x3b94e811	0.004544266
185	0xbaa92e92	-0.0012907556
186	0xbba0fc77	-0.0049129087
187	0x3b31f6fe	0.0027155275
188	0x3aff1e2e	0.001946395
189	0xba697de3	-0.0008907003
190	0xbafffe45	-0.0019530734
191	0xbc036a11	-0.008020894
192	0x3aa8ba28	0.0012872862
193	0x3b647df8	0.0034865122
194	0x393cc204	0.00018001354
195	0x3b76212f	0.00375564
196	0x3b6f503e	0.0036516334
197	0xba23fc53	-0.0006255556
198	0xba816b50	-0.00098739
199	0xbb4f0324	-0.0031587565
200	0xbac310c5	-0.0014882317
201	0xbb5e738f	-0.003394339
202	0xbba13a9a	-0.004920316
203	0x3ba0a13e	0.004902034
204	0xbb74854c	-0.0037310896
205	0x3a00675e	0.00048982154
206	0xbbc21137	-0.0059224623
207	0x3ac840b0	0.0015278067
208	0x3ba46d08	0.0050178804
209	0xb8e5447a	-0.00010932326
210	0xba6fb89d	-0.0009144636
211	0x3c024f96	0.007953545
212	0x3a2808d2	0.0006410006
213	0xbbcc64ff	-0.0062376256
214	0x3ac70587	0.0015184142
215	0xbbec1495	-0.007204602
216	0xbb68ef14	-0.0035542892
217	0xbaa88c33	-0.0012859165
218	0xbb42d6c0	-0.0029730052
219	0xba968387	-0.001148329
220	0xba648a3f	-0.000871811
221	0x3911fca1	0.00013922389
222	0xbbb44b24	-0.0055021215
223	0x39f334d7	0.0004638794
224	0xbbb15055	-0.0054111877
225	0x3bb9c13f	0.0056687887
226	0xbabad25f	-0.0014253369
227	0xbae7b40e	-0.0017677562
228	0xbb91a7e8	-0.004445065
229	0xbc22ffe5	-0.009948705
230	0xbbd285f8	-0.0064246617
231	0x3aa3815c	0.0012474465
232	0x3a5f21fd	0.00085118396
233	0x3b9ac7ac	0.00472351
234	0x37422037	1.1570802e-05
235	0x3b75a17b	0.0037480283
236	0xba380968	-0.00070204446
237	0x3b473803	0.0030398376
238	0x3bd15c4a	0.0063891755
239	0x3a30ecef	0.0006749173
240	0x3a525386	0.000802331
241	0xb9508b11	-0.00019888232
242	0xbadf194d	-0.001702109
243	0x3bbb6d6f	0.0057198326
244	0x3ac3f512	0.0014950356
245	0xbbb87b7e	-0.005629956
246	0xba339c82	-0.00068516296
247	0xbbe46b1a	-0.0069707753
248	0x3b42ab75	0.0029704247
249	0xbbe74a4b	-0.007058417
250	0x3a84b3b5	0.0010124358
251	0xbb7e5a11	-0.0038811008
252	0xbb0f2da2	-0.0021847268
253	0xbbb5e8df	-0.005551442
254	0xbc225b12	-0.009909408
255	0x3a09864b	0.00052461465

bn1.running_var f4 [256]
0	0x3e725d08	0.23668301
1	0x3e3da11d	0.18518491
2	0x3e6370fe	0.22211072
3	0x3e6391c4	0.22223574
4	0x3ecfe12b	0.40601477
5	0x3e9ee48c	0.31033742
6	0x3e794c2f	0.24345468
7	0x3e9bda47	0.3043997
8	0x3f4652d8	0.7747016
9	0x3e21d40f	0.1580355
10	0x3e4deef5	0.20110686
11	0x3e9932a9	0.29921463
12	0x3e46f773	0.19430332
13	0x3ea7f937	0.32807323
14	0x3e847651	0.25871518
15	0x3e73205e	0.23742816
16	0x3eb57d9e	0.354474
17	0x3e51a346	0.2047244
18	0x3ecb1905	0.39667526
19	0x3e80b23b	0.2513598
20	0x3e41946d	0.18904276
21	0x3e1f59b2	0.1556156
22	0x3ecc66fb	0.39922318
23	0x3f3be286	0.7339252
24	0x3e8e35d8	0.27775455
25	0x3e8b55a8	0.27213788
26	0x3e9e2279	0.30885676
27	0x3ed67404	0.41885388
28	0x3e619c74	0.22032338
29	0x3eb095a8	0.3448918
30	0x3f2101ab	0.6289317
31	0x3e9fc140	0.31202126
32	0x3e9e03c8	0.3086226
33	0x3ec9d0f0	0.3941722
34	0x3e9d3a46	0.30708522
35	0x3e86a363	0.2629653
36	0x3e640c19	0.2227024
37	0x3ea250d7	0.317023
38	0x3e6cb654	0.23116428
39	0x3e60f3bd	0.21967979
40	0x3f21dd27	0.63228077
41	0x3e52595d	0.20541902
42	0x3ec9bd2a	0.39402133
43	0x3e483e18	0.19554937
44	0x3e277a39	0.16355218
45	0x3e713d12	0.23558453
46	0x3e4e6e0b	0.20159166
47	0x3e831cd9	0.25607947
48	0x3f059e70	0.5219488
49	0x3e46d1f3	0.19416027
50	0x3e95af4b	0.292353
51	0x3e501d3b	0.2032365
52	0x3f36d0f6	0.714126
53	0x3e8a90e5	0.2706367
54	0x3f0fc054	0.56152844
55	0x3e9be394	0.30447066
56	0x3e917ed4	0.28417075
57	0x3e22fa9a	0.1591591
58	0x3e227965	0.15866621
59	0x3e7d7daa	0.24754968
60	0x3eff2c4a	0.49838477
61	0x3ed0c3b1	0.407743
62	0x3ee04ea3	0.43809995
63	0x3e5cba5f	0.2155547
64	0x3e9faf3c	0.3118838
65	0x3e9818f5	0.2970654
66	0x3e6e7cd9	0.23289813
67	0x3ebc4244	0.36769307
68	0x3edb2c96	0.42807454
69	0x3f24d5ca	0.64388716
70	0x3e8cdd83	0.2751275
71	0x3e8677e8	0.26263356
72	0x3ec4a1ec	0.38404787
73	0x3f3c48fb	0.7354886
74	0x3e811a42	0.25215346
75	0x3e6f5908	0.23373806
76	0x3e965571	0.29362062
77	0x3e83d077	0.25744984
78	0x3f099014	0.5373547
79	0x3eae58db	0.34052166
80	0x3e912c41	0.28354076
81	0x3e07dab8	0.13267028
82	0x3e999d08	0.30002618
83	0x3e387989	0.18015112
84	0x3e92f565	0.28702846
85	0x3ec4cbd4	0.3843676
86	0x3e45881d	0.19290204
87	0x3ebc3fe7	0.36767504
88	0x3e8c9eac	0.27464807
89	0x3ebeef8c	0.37292135
90	0x3ea01017	0.31262276
91	0x3e4953bc	0.19660848
92	0x3e35eed3	0.17766885
93	0x3f003ed8	0.5009589
94	0x3ea82a7f	0.32844922
95	0x3e83d26d	0.2574648
96	0x3e91b7cd	0.2846054
97	0x3e8dff8c	0.2773403
98	0x3e903ce4	0.28171456
99	0x3e82e26f	0.2556338
100	0x3e0bd6b4	0.13656121
101	0x3f58eb5a	0.8473412
102	0x3e826a60	0.25471783
103	0x3e5048d8	0.20340288
104	0x3e75129b	0.23932879
105	0x3e53b918	0.20676076
106	0x3e78d73d	0.24300857
107	0x3edd081e	0.43170255
108	0x3eb12bce	0.34603733
109	0x3e1630b4	0.14667016
110	0x3e1fd3bd	0.15608115
111	0x3e7bc26a	0.24585882
112	0x3e8878bd	0.26654616
113	0x3f40ae86	0.752663
114	0x3e88c966	0.26716155
115	0x3ea098f0	0.31366682
116	0x3e3bf7cc	0.18356246
117	0x3f3cacb4	0.73701024
118	0x3ec8aec6	0.39195842
119	0x3e8334b6	0.25626153
120	0x3e3473cc	0.17622298
121	0x3e8138e3	0.25238714
122	0x3f24c4b3	0.6436264
123	0x3e9a5add	0.30147448
124	0x3e873673	0.2640873
125	0x3e98a47c	0.29812992
126	0x3ef90855	0.4863917
127	0x3f493888	0.78601885
128	0x3f54c711	0.8311625
129	0x3e24dece	0.16100618
130	0x3e92db9c	0.28683174
131	0x3e9802ef	0.29689738
132	0x3f4e6ef0	0.8063803
133	0x3e6d13b3	0.23152046
134	0x3ea01ba0	0.31271076
135	0x3ea7f22b	0.32801947
136	0x3e38c665	0.18044432
137	0x3eab2a89	0.3343089
138	0x3e8156d5	0.2526156
139	0x3e84af36	0.25914925
140	0x3e2b5748	0.16732514
141	0x3e4113c6	0.18855199
142	0x3e805e6f	0.25072047
143	0x3e8aa6b4	0.2708031
144	0x3edae17a	0.4275015
145	0x3e8d71c3	0.27625856
146	0x3e2b7ab9	0.16746034
147	0x3ea50b8d	0.32235375
148	0x3e6f3904	0.23361593
149	0x3ec263cf	0.37966773
150	0x3ece255c	0.40262878
151	0x3eaac39e	0.3335237
152	0x3e5cd976	0.2156733
153	0x3e8ed717	0.27898476
154	0x3e8039f5	0.25044218
155	0x3e41289a	0.18863145
156	0x3e4a285a	0.19741955
157	0x3eedf5c9	0.46476582
158	0x3e78b043	0.24285989
159	0x3e62a24d	0.22132225
160	0x3f50472d	0.81358606
161	0x3ec13889	0.37738445
162	0x3e801e1b	0.2502297
163	0x3e50e1a0	0.20398569
164	0x3ea38b1c	0.3194207
165	0x3e96b1c1	0.2943249
166	0x3e370ebe	0.17876717
167	0x3e90a293	0.28249034
168	0x3e9d98e7	0.30780718
169	0x3eb3ed53	0.35142002
170	0x3f025314	0.5090802
171	0x3ebedfba	0.37280065
172	0x3ea6ae3b	0.32554802
173	0x3e93bebc	0.28856456
174	0x3f1878f6	0.5955957
175	0x3e3a46a7	0.18191014
176	0x3e8e500f	0.27795455
177	0x3ebbc34d	0.3667244
178	0x3e8af38e	0.27138942
179	0x3eb72349	0.35769108
180	0x3f2c99b9	0.6742206
181	0x3e9c431f	0.3051996
182	0x3e79e16f	0.24402402
183	0x3e4e3827	0.20138608
184	0x3f1a3551	0.60237604
185	0x3e551175	0.2080744
186	0x3ea21bc1	0.316618
187	0x3e8641e1	0.26222137
188	0x3f5c8fc5	0.86156875
189	0x3f32f101	0.6989899
190	0x3e6cc654	0.23122531
191	0x3e74be04	0.2390061
192	0x3e6718d3	0.22568063
193	0x3eae2681	0.3401375
194	0x3f431040	0.7619667
195	0x3e863e08	0.262192
196	0x3eb43247	0.3519461
197	0x3e98ddb8	0.29856658
198	0x3e844c1d	0.2583932
199	0x3ef65850	0.48114252
200	0x3e671523	0.22566657
201	0x3e7ddf9a	0.24792328
202	0x3f16305a	0.5866753
203	0x3ebbb35e	0.36660284
204	0x3e6757a7	0.2259203
205	0x3e4597f3	0.19296245
206	0x3f1bfbb7	0.6093096
207	0x3f3e18c9	0.7425657
208	0x3ead0ae4	0.3379737
209	0x3f160876	0.5860666
210	0x3f398543	0.72468966
211	0x3ec45089	0.38342693
212	0x3e880adc	0.26570785
213	0x3e23e0ce	0.16003725
214	0x3e63057a	0.22170058
215	0x3e7925af	0.24330781
216	0x3e0e973e	0.13924882
217	0x3e6c2fea	0.23065153
218	0x3e8631c1	0.26209834
219	0x3f48ac66	0.7838806
220	0x3f478286	0.7793354
221	0x3f25680e	0.646119
222	0x3e85fcc9	0.26169422
223	0x3f233fb3	0.6376907
224	0x3e55bc33	0.20872574
225	0x3eaa5ae8	0.3327248
226	0x3f4541d1	0.7705355
227	0x3efa092f	0.48835132
228	0x3eb05dfe	0.3444671
229	0x3e82460b	0.25444064
230	0x3e98e6cd	0.29863587
231	0x3e7a9de2	0.2447429
232	0x3e5432f8	0.20722568
233	0x3e84c0c2	0.25928313
234	0x3ec977f5	0.39349332
235	0x3f089638	0.53354216
236	0x3f2c5d75	0.67330104
237	0x3f1c7926	0.6112236
238	0x3e3ebe07	0.18627177
239	0x3f54e687	0.83164257
240	0x3f54f01d	0.83178884
241	0x3e3a9017	0.18219028
242	0x3e8f2f27	0.27965662
243	0x3e971c24	0.29513657
244	0x3ec48ccc	0.3838867
245	0x3e92566d	0.28581563
246	0x3f0cbe92	0.5497829
247	0x3e8ff166	0.2811386
248	0x3ec2fd8c	0.38084066
249	0x3e900bce	0.28134006
250	0x3f34bd3e	0.7060126
251	0x3eaf1045	0.341921
252	0x3e73813a	0.23779765
253	0x3e9f719a	0.3114136
254	0x3e9222ee	0.28542274
255	0x3f4f09f2	0.8087455

fc2.weight f4 [128, 256]
0	0xbcd27d92	-0.025694642
1	0xbd9d117e	-0.07669352
2	0xbd0cc5cd	-0.034368325
3	0xbb64c09b	-0.003490484
4	0xbd56c5e5	-0.05243482
5	0x3cfc8fb8	0.03083025
6	0xbbd83d6f	-0.0065991203
7	0xbd6adc82	-0.0573392
8	0x3d16200a	0.03665165
9	0xbdc232b8	-0.0948233
10	0xbd8c6894	-0.06855884
11	0xbbdd0b97	-0.0067457664
12	0x3cdd2c38	0.026998624
13	0xbb4ff8d6	-0.003173401
14	0x3d815381	0.06314755
15	0x3cbba5ca	0.022906203
16	0xbc930f45	-0.017951617
17	0x3c122e5d	0.008922187
18	0xbd530254	-0.051515892
19	0xbc2c502d	-0.010517162
20	0x3d3c66c1	0.04599643
21	0xbdb9f9d3	-0.09080853
22	0x3d3c9641	0.04604173
23	0xbdae8ecf	-0.08523332
24	0xbd136f0c	-0.035994574
25	0x3d0d0a6c	0.034433767
26	0x3d6280f2	0.055298753
27	0xbc1d1794	-0.009588141
28	0xbba5371f	-0.0050419713
29	0x3d751039	0.059829924
30	0xbd275aaf	-0.040857967
31	0x3d87d548	0.06632477
32	0xbca42268	-0.020035937
33	0xbe31432e	-0.17310783
34	0x3cdafc01	0.026731493
35	0x3ca9fd35	0.020750621
36	0x3c3477c5	0.011014883
37	0x3d0291bc	0.031877264
38	0xbc3b6962	-0.011438699
39	0x3c0b57f7	0.008504859
40	0xbca501cf	-0.020142464
41	0x3c3ded03	0.0115921525
42	0xbb38ac69	-0.0028178936
43	0x3ccb77b0	0.024837345
44	0x3c96b75c	0.01839798
45	0xbd648307	-0.05578902
46	0x3c2ca8ed	0.010538322
47	0xbc7f9a63	-0.0156007735
48	0x3a4fb951	0.00079240376
49	0x3d9fc0fa	0.07800479
50	0x3d8f19f4	0.06987372
51	0xbbe06d8d	-0.006848997
52	0xbe2734c7	-0.16328727
53	0x3a2c691d	0.00065769424
54	0xbbfa8d9e	-0.0076462766
55	0x3ccc9216	0.024972003
56	0xbd4f57d6	-0.050620876
57	0x3c1a87da	0.009431804
58	0xbb7762bb	-0.0037748057
59	0xbe130a29	-0.14359345
60	0xbcbe4e00	-0.023230553
61	0xbd588b8b	-0.052867454
62	0xbcbd5cd9	-0.023115562
63	0x3cf65c3e	0.030073281
64	0x3c21bb19	0.009871268
65	0xbd101ef3	-0.035185765
66	0x3d020be0	0.031749606
67	0x3e00b0ec	0.1256749
68	0xbd4ceaf1	-0.050028745
69	0xbdeceb03	-0.115682624
70	0xbd8cb194	-0.06869808
71	0x3d82645e	0.063668
72	0x3d56ae03	0.052412044
73	0xbe38a655	-0.180322
74	0x3c930e8a	0.017951269
75	0x39837870	0.00025076
76	0x3d306295	0.043062765
77	0x3c1a2898	0.009409092
78	0x3c810007	0.015747083
79	0xbd0c6190	-0.03427273
80	0x3d2c6f58	0.042098373
81	0xbcf69e68	-0.03010483
82	0x3d122746	0.035681985
83	0x3c7ea561	0.015542359
84	0xbbef7ee0	-0.007308826
85	0x3cc286ee	0.02374598
86	0x3c1e08cd	0.009645653
87	0xbd8d9455	-0.06913058
88	0x3b98e7f8	0.0046663247
89	0xbcc5a118	-0.024124667
90	0x3cd1a4ae	0.02559122
91	0x3cb35bb7	0.021894319
92	0xbc1028c7	-0.008798785
93	0x3cc86f6d	0.024467194
94	0xbcbe4816	-0.023227733
95	0xbcb04acd	-0.021520043
96	0x3c90e08c	0.017685197
97	0x3cbff3b6	0.02343164
98	0xbdf4dc0f	-0.11956035
99	0xbcd7aa81	-0.02632642
100	0xbd7ae2dd	-0.06125151
101	0xbd82f5b7	-0.06394523
102	0xbe18702f	-0.14886545
103	0x3c4c1f78	0.012458675
104	0xbd2e67c2	-0.04257942
105	0xbcb717ae	-0.022350159
106	0x3cd7bbe8	0.026334718
107	0xbcc036f5	-0.023463706
108	0x3d009f0d	0.031401683
109	0xbcad8081	-0.02117944
110	0xbd0d728a	-0.03453306
111	0x3c3668b0	0.011133358
112	0x3c135dc2	0.008994522
113	0xbd39ced6	-0.04536327
114	0xbda424bf	-0.08014821
115	0x3cd18450	0.025575787
116	0x3c3f6032	0.01168065
117	0xbbd72251	-0.00656537
118	0xbdb00fdd	-0.08596776
119	0xbd19b4c5	-0.03752591
120	0xb92b861b	-0.00016357789
121	0xbc62ba5c	-0.013838377
122	0xbda84b8a	-0.08217533
123	0xbd2292c3	-0.039690744
124	0xbd93a983	-0.07210066
125	0x3d874601	0.06605149
126	0xbd22fd5b	-0.0397924
127	0x3cce44f3	0.025179362
128	0x3c3cb669	0.011518099
129	0x39c23aca	0.00037046365
130	0xb90bfca7	-0.00013350193
131	0xbd65362b	-0.05595986
132	0xbcd1a0a9	-0.025589304
133	0x3b2dea1d	0.0026537247
134	0x3c15734d	0.009121728
135	0x3d81ee30	0.06344259
136	0xbdf57004	-0.11984256
137	0xbc387581	-0.011258484
138	0xbd63bb7e	-0.05559873
139	0x3d5b9c42	0.053615816
140	0xbd8360f2	-0.06414975
141	0xbcca095d	-0.024662668
142	0xbbe2a937	-0.0069171446
143	0xbc762f57	-0.015025935
144	0xbc10ff2d	-0.008849901
145	0xbccba671	-0.024859639
146	0xbd41c809	-0.04730991
147	0xbd617c46	-0.055050157
148	0x3d4510c6	0.0481117
149	0xbdfbff5a	-0.12304564
150	0xbcb353e8	-0.021890596
151	0x3c221035	0.009891559
152	0xbd89164d	-0.06693707
153	0x3cac526c	0.021035396
154	0x39b5bbee	0.0003466303
155	0xbd0f64e3	-0.035008322
156	0xbcd31b26	-0.025769781
157	0xbd43e2c0	-0.047823668
158	0xba828dbd	-0.0009960454
159	0xbc9616b7	-0.018321378
160	0x3d27b2f0	0.040942132
161	0x3d3f58ec	0.046715662
162	0xbc87458e	-0.016512658
163	0xbcdb68f9	-0.026783453
164	0x3c9cad65	0.01912565
165	0x3ca82b35	0.020528415
166	0xbd67063f	-0.05640244
167	0xbd3160b7	-0.043305125
168	0xbd0d02be	-0.034426443
169	0xbbefc90b	-0.0073176674
170	0x3d24e519	0.040257547
171	0x3c36e0c9	0.011161991
172	0xbc9050a9	-0.017616587
173	0x3d094cbb	0.03352044
174	0xbdaef0d0	-0.08542025
175	0xbd404231	-0.046938125
176	0xbc973543	-0.018458014
177	0x3c3efc6b	0.011656861
178	0x3c72fa6a	0.014830211
179	0x3bd750b6	0.006570901
180	0xbd7f3585	-0.0623069
181	0x3cd66369	0.02617045
182	0x3d08c322	0.03338922
183	0x3c3ec70b	0.011644135
184	0xbd035f70	-0.03207344
185	0x3cb36d4d	0.021902705
186	0xbb33f885	-0.0027461362
187	0x3c6c3e14	0.014419097
188	0xbcc41c96	-0.023939412
189	0xbd8847e2	-0.066543356
190	0x3bf7884c	0.0075540897
191	0x3d564b67	0.052318003
192	0x3c0c7aaa	0.008574167
193	0xbbef2ef9	-0.0072993007
194	0xbd00d7de	-0.031455867
195	0x3d78a3c3	0.06070305
196	0x3c982aae	0.018575039
197	0xbcfd3dcc	-0.030913256
198	0xbcbecc3b	-0.023290744
199	0xbdda84e5	-0.10669879
200	0x3d325e3b	0.043546896
201	0xbd3f4786	-0.04669907
202	0xbdfa54a1	-0.12223173
203	0xbce3c712	-0.027804885
204	0x3cff4ec5	0.03116549
205	0xbb7bdf8b	-0.0038432803
206	0xbd9ac197	-0.075564556
207	0x3d2b5d0d	0.041836787
208	0x3d12aeac	0.03581111
209	0xbd6bc970	-0.057565153
210	0xbd9a5104	-0.07534984
211	0x3bd631e6	0.00653671
212	0xbc38dabf	-0.011282622
213	0x3d3080b6	0.0430915
214	0xbdaceb80	-0.084433556
215	0x3c9e4ba1	0.019323172
216	0xbb9f315e	-0.00485818
217	0xbc0b1617	-0.008489153
218	0x3d1b1e59	0.03787074
219	0xbd760470	-0.060062826
220	0xbdedec7e	-0.11617373
221	0xbb87f104	-0.0041486043
222	0xbc2e8d42	-0.010653796
223	0xbb5e0597	-0.0033877844
224	0xbb965eca	-0.0045889365
225	0x3cc1914b	0.023628851
226	0x3d0f03af	0.034915622
227	0xbbb73d9c	-0.005592061
228	0x3c57f55d	0.013181058
229	0x3c8e3c94	0.01736287
230	0xb9e7501f	-0.00044119448
231	0xbabc68a3	-0.0014374446
232	0xbac3f9d0	-0.0014951769
233	0x3d184090	0.037170947
234	0x3cb9e9a8	0.022694424
235	0x3c62325a	0.01380595
236	0xbe09de6c	-0.13463753
237	0x3d3c8880	0.046028614
238	0x3d0a828e	0.033815913
239	0xbd23ffc1	-0.040038828
240	0x3c87f17d	0.016594643
241	0x3c5ac35b	0.01335224
242	0x3db2be39	0.08727688
243	0xbca0bec3	-0.019622212
244	0x3c7e4705	0.015519862
245	0x3d4deb64	0.050273314
246	0xbdf1f37b	-0.11814018
247	0xbb61e08d	-0.0034466118
248	0xbe3e4aea	-0.18583265
249	0xbb829c2e	-0.003985903
250	0x3cc0fcfb	0.02355813
251	0x3daed166	0.08536033
252	0x3d17cf31	0.037062827
253	0x3cb7a7ea	0.022418935
254	0x3c0f8ebf	0.008762061
255	0xbdf27bd0	-0.118400216
