feedforward_nn/model_saves/fnn_(512, 512)_8.pth (torch, 229892 bytes, 19 tensors)

fc1.weight f4 [256, 48]
00000000: 3dbe 5bbf 4d14 f3bd f271 37be f1e0 b13f
00000010: 1f72 06bf 5452 80be 8fed 623f 8acf b7bf
00000020: d605 1fbf 2bbc bf3e a68d a5be 59fa cabd
00000030: a114 8bbf 6125 253f 71e2 af3e efa9 80bf
00000040: 1cc3 59bf 4b91 0d3f d276 83bf 94d7 283f
00000050: c8d2 e9be 0e95 e3be ba78 b13e 1d5f b8be
00000060: 9542 393f 2e25 063f 939a db3e 882e 60bf
00000070: e8c2 9bbe 0879 9fbe e30c 4ebf f21b c23d
00000080: 195d 613d 89ab ddbd 2a20 af3e ef94 953e
00000090: a10a c7be 651d 973e a8ba 393e 3d08 5bbf
000000a0: 8d76 29bd 356c 1b3e bf75 f8be 81ec 013f
000000b0: 089a f13e 0ca8 edbf e54f bebe 0256 73be
000000c0: 2ecd 03bf 444c 29bf 1f94 c6bd 634a 5bbd
000000d0: 9cdf 1e40 eb09 51be c13f 503f 1496 493f
000000e0: 4e53 8ebf 95ac 943f d711 3a3e 4f47 803e
000000f0: 8380 e63e d5d0 9bbe f660 4bbf d6a5 1a3f
00000100: ee8c 0bc0 c7e0 ffbd 61b5 e63e 7070 45be
00000110: d47e 4c3e a245 09be b2e7 adbe 0346 5abe
00000120: ba43 7fbf a315 a03d da61 823c 1116 90be
00000130: adb3 293d 280a 7a3d 92cc 9f3c 0fb9 d3bd
00000140: 4fef c13c ebb6 80be 0c21 923e 3409 c83d
00000150: d6d0 e63f 716f babe 21a7 b8bd 5834 7abe
00000160: 170a 103b 0af7 9ebc 82d2 383e 5e7d a2bd
00000170: 784c 2c3d 94d7 ac3e 6619 243e 37c2 f43d
00000180: 12ba e63e 37b7 84bf e86a 26bd 7fee cebc
00000190: 5bf3 ccbf ee85 a2bb 6b64 6a3f 3780 7f3f
000001a0: c3f0 a0bf 2632 dfbe 90f5 ec3d 6f96 373f
000001b0: ed9e 083e 62f8 38be 9124 c7bf e61b 133f
000001c0: 80dc 50be d60b a23f d973 e13d 4fe1 95be
000001d0: 01ab 2ebe a46d cfbf 47e1 ac3e 3c70 0d3f
000001e0: 11ef 24bf 2b30 09bf f38e 22bf 8ddc 4dbf
000001f0: f053 76bf 9d79 7bbf 7fe4 a63e 1492 64bd
00000200: f7cf 713d 7114 213e f34d a13e b38f d13e
00000210: fb35 c83e 75c3 53be 38be 24bd 7810 a33e
00000220: fe70 a5bd f1be 21bd 59b0 883f 56c0 17bb
00000230: f7e7 0e3e 0c7c 4b3f 85bd 193d 21d2 583e
00000240: a7b9 073f 9fa1 563f 94c4 ae3d ac22 213f
00000250: 9257 ba3f c67d ec3d 2618 ba3e fb68 963e
00000260: fb71 80be e9f1 0140 4185 213f dd26 443f
00000270: 0238 78be 0f57 27bd f97d 90be 957f a7bf
00000280: 28c2 36be 29f9 25bf 1095 9bbe 3953 4e3e
00000290: 4cf2 b53d 8716 aabf 1d94 ba3f 1b84 7f3f
000002a0: 379b 4c3d 7c5d 98be 44b1 b5be 063d b53f
000002b0: a057 88bc dca6 7d3e f563 ba3c f513 b5bd
000002c0: ac26 37bd 761e 07bf 1d9c 3ebd e620 7dbc
000002d0: b2e3 5d3f cb01 3dbe 31df 813d 069f c93c
000002e0: fd93 46be d13d 12be 93c1 0b3f e39c 213f
000002f0: eee0 e93e 3382 803f e631 19bf 0f6b 1ebf
00000300: 721a 0c3f ee11 9e3f e227 ad3d 5ea7 b4bc
00000310: 4d0a ec3e 95bf 1f3e dbba 513e b3e5 07bf
00000320: bcba cf3e babc bfbf ff62 13be ea38 b4bf
00000330: 93ce 27be f849 c13e 797d 06bf d0ef d33e
00000340: ef89 46be cebf acbe d4c9 d8bd aeb9 473e
00000350: dacc 79be b44b 253d c64b ebbf da73 8bbf
00000360: ce79 ca3e 2e6a 773e 0756 bb3e 3d62 f1bd
00000370: 39ed 5e3f e6bc 3e3f f10a 1bbe c1f1 91bc
00000380: cacb 8f3d f6b6 993e b561 14be 210c 8abe
00000390: eb62 52be 260f aabe cf83 96be 07fa af3c
000003a0: 12e0 a13d d44c 90bc 2e0e 16bf 2023 613f
000003b0: f93e 453f 7551 22c0 c7b1 d0be 7625 9abe
000003c0: 6088 59bf 0ff1 003f 7cc9 fd3d bfef 543f
000003d0: 45df d83e efa9 19be 54c3 1abe e646 b2bd
000003e0: 2ef0 f63e 7876 bf3f c108 3ebe 0373 f23d
000003f0: ab09 413f e198 e43d 1d02 eb3d 0934 48bf
-0.85837156 -0.118691064 -0.1791456 1.3896772 -0.52517885 -0.2506281 0.88643736 -1.4360211
-0.6211828 0.37448248 -0.32334632 -0.09911031 -1.086567 0.6451016 0.3435245 -1.005186
-0.8506334 0.55299824 -1.0270636 0.65953946 -0.45668626 -0.44449657 0.3466242 -0.36010066
0.7236722 0.5240048 0.42891368 -0.87571 -0.3042214 -0.31147027 -0.80488414 0.094779864
0.055020425 -0.10823733 0.34204227 0.2921519 -0.38875297 0.29514614 0.1813761 -0.85559446
-0.041372824 0.15177996 -0.48527333 0.507515 0.4718783 -1.8566909 -0.3717033 -0.23763278
-0.51484954 -0.66132 -0.096962206 -0.053537738 2.482398 -0.2041394 0.8134728 0.78744626
-1.1119173 1.1615168 0.18170868 0.25054404 0.45019922 -0.30432764 -0.79444826 0.60409296
-2.1804767 -0.12494045 0.45060256 -0.19281173 0.19970256 -0.13405469 -0.33965832 -0.2131577
-0.9971272 0.07816627 0.0159158 -0.28141835 0.041431118 0.061044842 0.019506726 -0.103380315
0.023673682 -0.25139555 0.28540838 0.0976738 1.8032482 -0.36413148 -0.09016252 -0.2443403
0.002197867 -0.019404907 0.18049052 -0.07934068 0.042065114 0.33758223 0.16025314 0.11951106
0.45063835 -1.0368413 -0.040629297 -0.025260208 -1.6011766 -0.0049598133 0.91559476 0.99805015
-1.2573475 -0.43592948 0.11570275 0.7171392 0.13341875 -0.180635 -1.5558034 0.57464445
-0.20396614 1.2659862 0.11008424 -0.2927346 -0.1705742 -1.6205335 0.33765623 0.5524938
-0.64427286 -0.53589123 -0.63499373 -0.8041466 -0.9622183 -0.9823244 0.32596204 -0.055803373
0.05903622 0.15730454 0.31504783 0.40929946 0.39103684 -0.2068003 -0.04022047 0.31848502
-0.08078192 -0.039488737 1.0678817 -0.0023155413 0.13955675 0.79486156 0.037534256 0.21173908
0.5301766 0.83840364 0.08533588 0.6294353 1.4557974 0.11547427 0.3634655 0.2937697
-0.2508696 2.03039 0.63093954 0.766218 -0.24240115 -0.04085451 -0.2822111 -1.308581
-0.17847502 -0.64833313 -0.30387163 0.20148934 0.08884105 -1.3288125 1.457645 0.9981095
0.049952712 -0.29758823 -0.35486805 1.4159248 -0.016643345 0.24770683 0.022752741 -0.08841697
-0.044714615 -0.52780855 -0.0465356 -0.015449738 0.8667556 -0.18457715 0.063413985 0.024611961
-0.1939239 -0.14281394 0.54592246 0.63130015 0.4567942 1.0039734 -0.59841764 -0.6188211
0.5472785 1.2349222 0.08454873 -0.022052463 0.4610161 0.15600426 0.20481436 -0.5308487
0.40572155 -1.497947 -0.14393233 -1.4079869 -0.16387396 0.37751746 -0.52535206 0.413939
-0.19388555 -0.33740085 -0.10585371 0.19504425 -0.24394551 0.0403554 -1.8382499 -1.089473
0.39546055 0.24161598 0.3658907 -0.117863156 0.87080723 0.74506986 -0.15140893 -0.017815473
0.070212916 0.300224 -0.14490397 -0.2696238 -0.20545547 -0.33214682 -0.29397437 0.021481527
0.07904066 -0.01761476 -0.58615386 0.8794422 0.77049214 -2.5362217 -0.40760633 -0.30106705
-0.84973717 0.50367826 0.12391946 0.83178324 0.4235784 -0.15006231 -0.15113574 -0.08704929
0.48230118 1.4958029 -0.18558027 0.11838343 0.7540538 0.11161972 0.114750125 -0.782044

fc1.bias f4 [256]
00000000: 613e 083d b686 973d d9d6 1a3e fd15 353e
00000010: be79 fbbc a708 cb3d e2bf 793d 2137 ddbc
00000020: aac9 013e 3cfd 993c e0e5 d33d 7485 093e
00000030: 9753 99bd d547 83bd bedd 5dbd 5786 f23c
00000040: b60c 2abd e57d d03d 126c 0fbe 6889 263d
00000050: f9db 02bd e3cf 083e 508f a2bc a012 b53d
00000060: 6294 b13d 9e39 92bd fe27 733d 8f10 933d
00000070: 1653 563d 39be eb3d bd44 0f3e f159 063d
00000080: f673 25bd 1267 873d 8a0b 653d 179c cc3d
00000090: 0149 9cbd b784 17bd bcb6 bb3d e0f2 2dbe
000000a0: 7807 863d 6566 06be f28e ef3a 0cfd 0ebd
000000b0: 3fd3 be3d 7c09 5bbd 76b6 f43d 894f e33d
000000c0: c05a 8c3c a5d0 4ebb 6396 be3d 166b a6bd
000000d0: 6102 91bc 130c cb3d 7332 993c ea7c 253d
000000e0: d9ff 7a3c 464f 9ebd 9d3f e2bd 6bc5 cc3d
000000f0: 093e f53d d6e2 803c 433d 763d a149 5abd
00000100: ddd1 f53d 175a 4bbd 74f8 8e3d a662 37bd
00000110: b9b6 3fbc 0d42 eb3d 7e7a 1b3e 4ca4 8d3d
00000120: c996 123e 6222 9c3d f1e8 7abc 0e41 bfbd
00000130: 3680 583d c32d 90bd 97ca ff3c e7b2 a1bd
00000140: c339 ffbd d14f 623c 7304 52bd 7c38 a9bc
00000150: 5e9c a03d 7ae0 193e 764a 593e 4cf2 003e
00000160: 569e 003e d7e5 a53d 58c8 7fbc bb99 0d3e
00000170: 0c21 1bbd cab3 5e3d a7b5 d8bd 01e5 0d3e
00000180: 175c 113e 13e0 7f3d 6920 f6ba 91fa dfbb
00000190: 95bc a93d 740e a33b 6aaa d03d 162a c83d
000001a0: b1ab 4fbd cf6f 513d ad55 32bd 6171 113e
000001b0: abea 99bd 89c2 52bd 05ad 963d 3d25 00be
000001c0: 4ce6 9ebd 2ee3 42bd de1d b93d 3c47 05be
000001d0: dab6 a6bd f340 0c3e e875 a43d 859c c8bc
000001e0: e841 9e3d 45fc 123e 8c75 ae3d bacc c1bd
000001f0: f9ca d63d 6ab5 ecbd e70f a2bd d2e5 c5bd
00000200: e970 7abd 276d e23d fb2e dabd 7286 8fbd
00000210: 41c3 8a3d 46b0 8937 6413 9fbd 78f1 cabd
00000220: 86d8 d2bd 8c20 8e3d bc1c 073c 7501 85bb
00000230: 34e4 e03d 774b 7b3d 4609 8ebd b23d a43d
00000240: 2e52 463e 0ec1 633d 10ce 7a3d 895e 9dbc
00000250: d6c0 9ebd 497d 46bc 0c40 3bbd 9a77 aa3d
00000260: 36e8 ecbd 1aed 9fbd b113 9abd f0ac 903d
00000270: 5381 293e 920b 0a3e 5c10 14be b381 47bb
00000280: 6e9b 13b9 4f58 a03d 5497 bf3d 8a0e eabd
00000290: 2150 0dbe 4933 0a3e 9d94 463e 7473 f03a
000002a0: 3571 6dbd 952a 893d 8e5a e73d 391b d7bd
000002b0: 8fcf dcbd 6802 b5bd cf47 23be 52d3 763d
000002c0: 3454 d8bb ccb5 833d 7871 07be 6c77 abbd
000002d0: b993 bb3d b9d7 9c3d 5f2d d03d f1d4 c33a
000002e0: 28d8 85bd 1476 34bd f342 debd 75a4 4ebd
000002f0: 646d 26bd af99 6c3d 6d7e 143d 1c39 383e
00000300: 2381 b2bd e803 723d 1976 fb3d c704 98bc
00000310: c5c1 56bc 05ea dc3d 7bce 813d 1d47 8cbd
00000320: b25a 0c3e 40a4 043e 850e c63c ad2b cabc
00000330: 046f 82bd 5059 803d 9676 97bd 8c3c 95bd
00000340: ea8c 42bd dd3c 063e acc0 c13d 55ae 453d
00000350: adf4 513d fa6d debd 1271 6abd 02a8 54bd
00000360: e349 8c3c d809 713d 7683 6b3d e17b db3d
00000370: dcd1 a8bd fef4 903d d57e 7dbc abfd d6bd
00000380: d393 ab3d 7a42 173e 2606 9e3d a7d6 3e3d
00000390: 145e 02be 32ea e83d f280 09be 69ae 263c
000003a0: 10dc 8fbd ffd1 f9bc 5372 74bd 9136 033d
000003b0: d239 08bc 1a0a 88bd 508c 23be bf76 623c
000003c0: 8337 0b3e b511 363c 5658 f2bd f461 1d3a
000003d0: d48a 123e 3d1c a03d 70df debb 52b4 b93d
000003e0: e37f 2dbd 2fb2 a7bd fa8b d13c ebf4 b73c
000003f0: 4c6b 7ebd 6cf0 4c3d a283 2dbd 5b98 183e
0.033262614 0.07398741 0.1512102 0.17684169 -0.0306977 0.0991376 0.06097401 -0.027003827
0.12674585 0.01879751 0.103465796 0.13429815 -0.074866466 -0.06410185 -0.054166548 0.029605074
-0.04151603 0.101802625 -0.1400607 0.040658385 -0.031948064 0.13360552 -0.019843727 0.08841443
0.0867088 -0.07139896 0.05936431 0.07180893 0.05232533 0.115108915 0.13991065 0.03280062
-0.040393792 0.06611456 0.055919208 0.09990709 -0.07631112 -0.0369918 0.09165713 -0.1698718
0.06544393 -0.13124998 0.0018276854 -0.034909293 0.09317636 -0.053475842 0.11948864 0.110991545
0.017133117 -0.0031557467 0.09306028 -0.08125894 -0.01770133 0.09914412 0.018700814 0.04040233
0.015319788 -0.07729964 -0.110472895 0.09998592 0.11974723 0.015733164 0.060117017 -0.053292874
0.12002919 -0.049646463 0.069809824 -0.044771813 -0.011701279 0.114872076 0.15183446 0.06916103
0.14315332 0.076237455 -0.015314327 -0.0933858 0.052856646 -0.07039978 0.031224532 -0.07895451
-0.12462189 0.013812975 -0.051273774 -0.020656817 0.07842325 0.15027037 0.21219811 0.12592429
0.125604 0.08100479 -0.0156117305 0.13828175 -0.037873313 0.05437068 -0.105815224 0.1385689
0.14195286 0.062469553 -0.001877797 -0.0068352898 0.08287922 0.004976088 0.10188754 0.09773652
-0.050700847 0.05113202 -0.043538738 0.14203407 -0.075154625 -0.051455054 0.073572196 -0.12514205
-0.077587694 -0.047579937 0.090389 -0.13015455 -0.08140345 0.13696651 0.08030301 -0.024488697
0.07727414 0.14354046 0.08518514 -0.094628766 0.10487933 -0.115580395 -0.079131894 -0.09662975
-0.061142836 0.110559754 -0.10653492 -0.07008065 0.06775523 1.6413756e-05 -0.0776737 -0.09909338
-0.10295205 0.069398016 0.008246597 -0.0040590116 0.10981026 0.061351266 -0.069353625 0.0801958
0.19367287 0.055604033 0.061231673 -0.019210117 -0.07751624 -0.012114831 -0.045715377 0.083235934
-0.11567728 -0.078088954 -0.07523287 0.07064235 0.1655324 0.13480976 -0.14459366 -0.0030442297
-0.00014076915 0.078293435 0.093550354 -0.11428554 -0.13800098 0.13496126 0.19392629 0.0018344955
-0.05796929 0.06697575 0.11296569 -0.10503239 -0.10781776 -0.088383496 -0.15945362 0.060260125
-0.0066018347 0.064311594 -0.13226879 -0.08372387 0.09159035 0.07658333 0.10164904 0.0014940781
-0.06535369 -0.04405792 -0.10852613 -0.050449807 -0.040631667 0.05776375 0.03625338 0.17990535
-0.08716037 0.059085757 0.12278385 -0.018556966 -0.013107722 0.10786823 0.06338211 -0.06849501
0.13706473 0.12953281 0.024176845 -0.02467903 -0.06368831 0.06267035 -0.07395665 -0.07286939
-0.047497667 0.13109155 0.09460577 0.04826196 0.05125873 -0.1086082 -0.05723674 -0.051918037
0.017125076 0.05884728 0.057498418 0.107169874 -0.082431525 0.070779786 -0.015472134 -0.10497602
0.083778046 0.14771453 0.077160165 0.046591427 -0.127312 0.11372794 -0.13428095 0.010173419
-0.070243955 -0.030495642 -0.05967934 0.03203446 -0.008314567 -0.06642552 -0.15971494 0.013822257
0.13595395 0.01111262 -0.11833255 0.0006003671 0.14310771 0.07817886 -0.006801538 0.090675965
-0.04235829 -0.08188283 0.025579441 0.022455653 -0.062114045 0.05003397 -0.042361863 0.14901869

bn1.weight f4 [256]
00000000: 2fd5 8e3f 752d 4a3f 713e 673f 58c3 9a3f
00000010: 4e04 9a3f a5c2 a63f f3e6 a73f ca66 873f
00000020: 1ffa a33f e4d3 853f 24cd a23f f4ca 983f
00000030: 82dd 963f af35 883f 5500 943f 1f4d 953f
00000040: 46f8 933f 7977 903f be36 9f3f 78c6 e63f
00000050: 5816 a53f 8f96 7f3f 54f3 703f 9ca7 5a3f
00000060: baca 813f c6cb cc3f 67c2 993f 9561 a83f
00000070: 1929 9e3f 9914 873f 7681 8b3f 1f04 ab3f
00000080: 1e45 8c3f e021 763f f592 8f3f abad a03f
00000090: b68a 853f 8a9e c33f ce6b a03f c212 b33f
000000a0: c9fa d23f dda9 923f 60a1 fa3f b014 933f
000000b0: 0ac7 9d3f e036 af3f 3bd5 853f 85e3 a53f
000000c0: 5b00 693f e143 d13f 509f 6f3f ae90 953f
000000d0: 6483 db3f f5ac 8d3f c4b6 a33f 4d42 703f
000000e0: 579a e13f f9dd 923f 76a7 833f 08a1 943f
000000f0: eccd a93f 1207 b13f 20b1 a43f 916e c43f
00000100: 9409 983f ecd7 973f ca06 293f 9857 a43f
00000110: 1019 cd3f efe9 a23f dc66 9d3f b762 ad3f
00000120: 31cb 8e3f 691b 9a3f 7f75 a53f 0ce0 673f
00000130: 1df7 9c3f a796 633f 0c66 a23f 7948 5c3f
00000140: 3ce2 ba3f 30a8 a33f e684 b03f b715 883f
00000150: d805 a33f 9a35 813f a8ca 703f ba9a d23f
00000160: 3500 b23f 6ce5 6c3f f37b ac3f 9390 a53f
00000170: c053 953f 90ea 883f e7cd fa3f fe15 833f
00000180: 2c14 af3f 5ffc 9f3f 0a08 a13f 4ffa a93f
00000190: 81f4 d13f 20ee de3f ffc7 713f eca6 923f
000001a0: 982c dd3f c2f2 803f 0aa6 ab3f bbb4 8c3f
000001b0: 7903 983f 11a3 c93f aa09 333f 8a88 c93f
000001c0: b452 a13f 2e19 b03f 38d6 a83f 3fa4 983f
000001d0: 592b 973f cb5d ac3f ff82 bf3f f266 823f
000001e0: dd4e b73f 0906 a03f 2073 ae3f 4769 733f
000001f0: 8231 913f 8ace 633f 0b26 8e3f 21a6 8c3f
00000200: 7426 903f 2b06 953f 4a96 883f c8cb ff3f
00000210: ed4d e63f 1193 903f 27a1 a13f 55d2 8c3f
00000220: 3d7a 933f 6a6f 653f aeac ab3f 0ed8 873f
00000230: a6cf b43f 61a7 923f 008e a33f 3688 ab3f
00000240: a265 c53f 034e a93f a924 8d3f 7237 953f
00000250: e746 8b3f 70f4 b83f b7bb 8e3f 0371 a83f
00000260: 5cce 533f 2a96 a23f db13 993f eb4b cf3f
00000270: 8402 993f a865 963f 9e23 a13f 33c3 923f
00000280: fac4 b73f 4d91 903f fffa b33f b8be 613f
00000290: 50c2 983f c1d8 993f 49dc c73f 8ee7 793f
000002a0: 8d98 a43f 6356 843f 8251 a93f 7206 953f
000002b0: 70e8 6c3f 1ef6 833f e828 983f c357 b13f
000002c0: 7a6c 843f 34ba 893f a858 8a3f c476 a03f
000002d0: fc18 873f f1f0 a13f 6848 b23f 2bd1 9f3f
000002e0: 2b2c 423f df36 a03f 2d9e 983f ccb4 9e3f
000002f0: b616 fa3f 8f14 a63f 071b a83f 922d be3f
00000300: d88f 863f 5177 b33f ebbb cb3f 0854 a03f
00000310: 1e26 b03f 8434 6b3f 8e99 a63f 9c44 9d3f
00000320: f66d 963f 5ded 7c3f c241 a03f e20f fb3f
00000330: 17a0 a33f c2a7 a53f b005 c23f 8bb9 d33f
00000340: 909d b13f 521a e03f 7e49 b33f 3797 813f
00000350: e758 8e3f aaea 983f 5df0 803f b897 7a3f
00000360: 30d0 c23f e9ef 933f b307 cb3f 1d3a 9d3f
00000370: cc0e a13f b2cc b43f 4872 a73f b87c b33f
00000380: b10d 893f c956 5e3f 8b9c a53f 825c 933f
00000390: d358 813f c0bc 973f 10ed a13f fae1 b43f
000003a0: 6ab4 ab3f 2a47 aa3f 4e40 693f 1600 b33f
000003b0: b18c 863f 01f0 a23f 59bd 983f 69b3 963f
000003c0: 8ecd 8a3f 34f3 b83f 076c 9c3f 9a58 573f
000003d0: ffde 843f 77f5 7e3f 07b3 b43f 2442 a63f
000003e0: 2374 a43f 403a 513f 44c1 993f 96fe a63f
000003f0: 7a54 593f bdc5 973f c049 a23f ed13 9d3f
1.1158808 0.7897561 0.90329653 1.2090864 1.2032564 1.3028151 1.3117355 1.0578244
1.2810706 1.0455289 1.2718854 1.1936936 1.1786349 1.0641383 1.1562601 1.166416
1.1560142 1.128646 1.2438581 1.8029318 1.2897444 0.9983911 0.9412129 0.85412
1.0139992 1.5999687 1.2012452 1.315478 1.2356292 1.0553161 1.0898883 1.3360633
1.0958593 0.9614544 1.1216723 1.2552999 1.0432956 1.5282757 1.2532899 1.39901
1.6482784 1.1458088 1.9580498 1.1490688 1.2326367 1.3688622 1.0455698 1.2960058
0.9101617 1.634884 0.93602467 1.1684778 1.7149472 1.1068407 1.2790151 0.93851167
1.7625226 1.1473991 1.028548 1.1611643 1.3265967 1.3830283 1.2866554 1.5346242
1.1877923 1.1862769 0.66025984 1.2839231 1.6023273 1.2727641 1.2297015 1.354575
1.1155759 1.2039615 1.2926482 0.90576243 1.2262913 0.8890175 1.2687392 0.86048084
1.4600291 1.2785702 1.3790557 1.0631627 1.2736158 1.0094483 0.9405923 1.6453469
1.3906313 0.9253757 1.3475326 1.2934746 1.1666183 1.0696583 1.9594086 1.0241086
1.3678031 1.2498893 1.2580578 1.3279513 1.6402742 1.741642 0.94445795 1.145719
1.7279234 1.0074084 1.3410046 1.0992655 1.187606 1.5752889 0.6993662 1.5744793
1.2603364 1.3757684 1.3190374 1.1925124 1.1810104 1.3466123 1.4961852 1.0187666
1.4320942 1.2501842 1.3628883 0.95082515 1.1343234 0.8898703 1.110536 1.0988199
1.1261735 1.1642507 1.0670865 1.9984064 1.7992531 1.1294881 1.2627305 1.1001688
1.1521679 0.8962313 1.3412073 1.061281 1.4125869 1.145733 1.277771 1.3400943
1.5421641 1.3226932 1.1026813 1.1657546 1.0881013 1.4449596 1.1151036 1.3159488
0.82736754 1.2702076 1.1959184 1.6195043 1.1953893 1.1749773 1.2588995 1.146582
1.4356987 1.1294342 1.4060973 0.8818164 1.19343 1.2019273 1.5614101 0.9761895
1.2859055 1.0338863 1.3227999 1.1642592 0.9254217 1.0309484 1.1887484 1.3854908
1.0345604 1.075995 1.0808306 1.2536244 1.05545 1.2651654 1.3928347 1.2485708
0.75848645 1.2516745 1.1923271 1.2398925 1.9538181 1.2975024 1.3133248 1.4857657
1.0512648 1.4020787 1.5916723 1.2525644 1.3761632 0.9187701 1.3015611 1.2286563
1.1752307 0.9879969 1.2520068 1.9614222 1.278323 1.2941821 1.5157986 1.6540998
1.3876209 1.7508032 1.4006803 1.0124272 1.1120881 1.1946614 1.0073353 0.97887754
1.5219784 1.155759 1.5861725 1.228336 1.2582641 1.4124968 1.3081751 1.4022436
1.0707303 0.86851174 1.2938398 1.1512606 1.0105232 1.1854477 1.2650471 1.4131463
1.3414433 1.3302968 0.91113746 1.3984401 1.0511686 1.2729493 1.1932784 1.1773502
1.084398 1.444922 1.2220467 0.8411957 1.0380553 0.995933 1.4117135 1.2988935
1.2847942 0.8172951 1.2012105 1.3046443 0.84894526 1.185722 1.2678757 1.2271706

bn1.bias f4 [256]
00000000: 7926 c6be 590f 3b3d 3fad 19bf 3c75 47bf
00000010: d319 1ebf 9aa3 61bf f0e4 58bf 984c 423e
00000020: f13e 86be 80f4 92be 5442 b7be ce1f 06bf
00000030: 43c9 52be a396 ecbd 7511 0dbf d883 d0bd
00000040: 1747 14bf 538c 82bf 2f17 9dbe a7c5 47bf
00000050: 604b 1bbf 6f3e acbe 34d5 29be 5f53 0abe
00000060: edd1 e3be c119 0dbf 1119 f5be 614c 35bf
00000070: 0503 3dbf 2b15 0cbf 11f3 0dbe 5da5 03bf
00000080: f703 9ebe 045f febe 23e9 adbe 9aca c2be
00000090: 9b2f 83be a698 18bf 7416 23bf fe98 a1be
000000a0: 31cc 58bf 409e e1be 9d0b 2bbf 465f 3fbf
000000b0: 4ad6 debe 7f61 02bf 8f7e ccbe 0b49 30bf
000000c0: b2fa 9ebe d96d 2bbf 6072 ecbe 3955 3bbe
000000d0: 5e5c 32bf 366f e2be 3518 3dbf c659 cabe
000000e0: c4e5 6fbf bf65 aebe 5146 4cbe f184 4abf
000000f0: e9c2 46bf a895 40bf 7a8c 22bf c97a 2cbf
00000100: bf89 d6be 2a0e 39bf 31cb 523d 1977 21bf
00000110: 24f8 a2be dc3d 45bf fee8 0cbf e5ca 49bf
00000120: cec3 a5be cf8a 00bf 08d3 48be 43a1 62be
00000130: b0b5 1cbf f12e fabb a219 41bf dd4d 54bd
00000140: b71f 27bf 5be4 5bbf 6f5b b5be a60e 30be
00000150: 8001 ffbe 92f7 95be 2a1f c4be 80d0 3bbf
00000160: fedb 46bf d8b0 b6be 4790 32bf feeb 31bf
00000170: 0445 03bf f69e bdbe 8770 70bf b77e 9ebe
00000180: 24a5 0abf 7454 23bf 0a5f 6abe e9ac 66bf
00000190: 5089 2fbf dd06 7bbf 5854 16bf a3ac 87be
000001a0: d4ea 4fbf 3f35 42be 5f84 00bf f6ee 11be
000001b0: b892 20bf 9d75 4bbf 8735 11be f478 1dbf
000001c0: dc88 14bf 700a 38bf 6ff6 8dbe 1d5f 88be
000001d0: fbe8 cebe 92db d8be d397 1ebf 596d d6be
000001e0: fdcd ebbf dc7d 3cbf affa 03bf 2475 67be
000001f0: f5dc 99be dca9 5cbe c6aa 00bf 1da6 1ebf
00000200: d13f a0be 60ff 9fbe 09a8 20bf 8151 dfbe
00000210: eabc 23bf fbe0 2ebf 5d47 e2be 23d5 6fbe
00000220: 879d 94be c919 14be 74e8 33bf 39c0 fbbe
00000230: 6974 c7be 00c9 2bbf 169c 9bbe 38de 43bf
00000240: 5838 17bf 7c3d 43be 85db 9dbe 8049 f6be
00000250: 61f2 ffbe 8ca1 05bf fbc0 40bf d17b 0fbf
00000260: a14f eabd 7614 13bf 7863 d1be 5d16 98bf
00000270: 54f0 9dbe ace5 e1be 78e6 adbe dd5f bfbe
00000280: ca9a 90be 5ddb 43bf 8916 09bf e210 67bd
00000290: ea2c 1abf 9a3f ddbe 36fc 2fbf bb32 eebb
000002a0: e441 2abf be63 17bf d4d9 17bf a8a5 ecbe
000002b0: 141b a8bc 5e80 ebbe c2d3 d9be dc5f 68bf
000002c0: d333 08bf 8543 f4be d447 ccbe 81b9 19bf
000002d0: 7682 edbe 94ac b6be 99f2 2dbf 56c4 9abe
000002e0: c6fc 5abe fd98 08bf 3561 b8bf 4672 e2be
000002f0: e0ed 5cbf f4a8 63bf 410c ffbd fc20 48bf
00000300: dfa5 f4be c750 02bf 4781 3fbf fa0c cabe
00000310: b936 2bbf eecf d6be dde6 b8be b8aa 13bf
00000320: 7603 24bf b4a9 83be 295d 7ebf 5dea 37bf
00000330: 238b 1fbf b707 4abf b855 0abf 27fb 20bf
00000340: 8efa c4be f6b3 53bf a08b 02bf f4f8 90be
00000350: 02c8 fdbe be1e 47bf 5b9c d8be 238f 8ebe
00000360: a0e3 52bf 6ed1 08bf 55a5 16bf f44c 09bf
00000370: 1cfa 39be 1afd 72bf 3274 00bf fd38 a0be
00000380: 425b 17bf 68e7 04bf 21ce 53bf ae00 75be
00000390: c95c 96be 50e6 5cbf 33b7 0fbe a7ee 34bf
000003a0: 4da4 3dbf 7833 e4be f419 97be 7203 0bbf
000003b0: 0379 7a3d 9081 08bf 4b0e 91be 2727 78be
000003c0: 1a74 fabe c491 47bf 3261 04bf 9935 8dbe
000003d0: 6f0c 10be 8636 11be 8648 bbbe 303d 10bf
000003e0: b6a4 f8be a863 aabe 02a3 f3be 9f7e 0cbf
000003f0: dc95 6ebd 68db edbe 0fe0 5fbf dd1f 5cbf
-0.38701227 0.045668934 -0.6002998 -0.7791326 -0.61758155 -0.8814026 -0.8472433 0.1897453
-0.26219895 -0.28702164 -0.35792792 -0.5239228 -0.20584588 -0.11552169 -0.5510476 -0.10181397
-0.57920974 -1.0199074 -0.3068175 -0.7803597 -0.6066189 -0.33641383 -0.16585237 -0.13508366
-0.44496098 -0.5511742 -0.47870687 -0.7081967 -0.7383273 -0.547198 -0.13862254 -0.514242
-0.308624 -0.49681866 -0.33966932 -0.38045198 -0.25622258 -0.59607923 -0.63706136 -0.31562036
-0.8468657 -0.44066048 -0.66814595 -0.7475475 -0.43522865 -0.5093002 -0.39940307 -0.68861455
-0.3105064 -0.6696449 -0.4618101 -0.18294229 -0.6967219 -0.44225472 -0.7386506 -0.39521617
-0.9370997 -0.34062 -0.19948699 -0.791091 -0.7764116 -0.7522836 -0.634956 -0.67374855
-0.41901967 -0.7228724 0.05146331 -0.63072354 -0.3182994 -0.77047515 -0.5504302 -0.7882522
-0.3237595 -0.50211805 -0.19611752 -0.22131829 -0.61214733 -0.0076349904 -0.7542974 -0.05183207
-0.6528277 -0.8589532 -0.3542132 -0.17193088 -0.49805832 -0.29290444 -0.38305026 -0.7336502
-0.7767943 -0.35681796 -0.697514 -0.6950072 -0.51277184 -0.3703534 -0.93921703 -0.3095605
-0.54158235 -0.6380074 -0.22887817 -0.9010759 -0.685689 -0.9805735 -0.5872245 -0.264989
-0.81217694 -0.18965624 -0.5020198 -0.14251313 -0.62723875 -0.7947634 -0.14180575 -0.61512685
-0.5802133 -0.71890926 -0.27727076 -0.26635066 -0.40412125 -0.4235502 -0.61950415 -0.418803
-1.8422238 -0.73629546 -0.5155439 -0.2260328 -0.3005139 -0.21549171 -0.5026058 -0.6197222
-0.31298688 -0.31249523 -0.627564 -0.4361687 -0.63960135 -0.6831204 -0.4419507 -0.23421149
-0.29026434 -0.14462961 -0.7027657 -0.49170092 -0.38956 -0.67103577 -0.30392522 -0.76510954
-0.5907035 -0.19066423 -0.30831543 -0.4810295 -0.49989608 -0.52199626 -0.75294465 -0.56048304
-0.11440969 -0.57453096 -0.408962 -1.1881825 -0.30847418 -0.44120538 -0.33964896 -0.37377825
-0.28243095 -0.76506597 -0.5355001 -0.056412585 -0.60224783 -0.43212587 -0.6874422 -0.007269231
-0.6650679 -0.5913657 -0.59316754 -0.46220136 -0.020520724 -0.45996374 -0.4254437 -0.9077127
-0.5320408 -0.47707763 -0.3989855 -0.6004868 -0.46388596 -0.35678542 -0.679483 -0.30227917
-0.21385488 -0.5335844 -1.4404665 -0.4422781 -0.8630047 -0.88929677 -0.12453509 -0.7817533
-0.477828 -0.50904506 -0.74806637 -0.39463025 -0.66880375 -0.41955513 -0.36113635 -0.5768237
-0.6406778 -0.2571541 -0.993609 -0.71841985 -0.6232168 -0.7891802 -0.54037046 -0.6288323
-0.38472408 -0.82696474 -0.509943 -0.28314936 -0.49566656 -0.77781284 -0.4230679 -0.2784358
-0.8237858 -0.53444564 -0.58846027 -0.53633046 -0.18161815 -0.9491745 -0.501773 -0.3129348
-0.59123623 -0.519156 -0.827364 -0.2392604 -0.29367664 -0.8628893 -0.14034729 -0.70676655
-0.7407883 -0.44570518 -0.29511988 -0.5430213 0.061150562 -0.53322697 -0.28331217 -0.24233685
-0.48916703 -0.77956796 -0.5171081 -0.27579954 -0.14067243 -0.14180955 -0.36578768 -0.56343365
-0.48563164 -0.33279157 -0.47585303 -0.5488071 -0.058248386 -0.46456456 -0.8745126 -0.8598612

bn1.running_mean f4 [256]
00000000: 3a52 473e 577d e23c f466 783e 74fa 8b3e
00000010: a236 273c 3b1a 35be 3065 1f3d 1cfe 26bf
00000020: 3714 3c3d 1b86 5f3e 8cf9 a9be 2516 25be
00000030: c17c c8bd d0bc e9bd 35f6 c1be ec9e 92bd
00000040: 6202 7c3e 9062 af3e 565c 75be 83ff 3fbe
00000050: 6b7c b93d 5633 f23a be05 ac3e 93f9 123b
00000060: 3212 923d f47c 44be 117f 173e d5de 0bbe
00000070: ee11 babd 8003 b1bc 7a71 c43e 8b55 c3be
00000080: cdbe 92be af6a de3d 7aeb a73d 70c0 043e
00000090: ca47 21be 5618 9ebe 519f a63e 8e5d 20be
000000a0: 3545 1abd 6be9 9cbe 5f68 a6bd 6439 803d
000000b0: 889a b7bd 8ce2 f7be 3093 993e 344d a9bd
000000c0: 63d7 913e dcf2 b7be c411 503d a4c3 b9bd
000000d0: 30c6 99be 9641 a8bd dd34 e53d 32d4 9f3e
000000e0: ef94 0fbe b9c6 19be 9b5c c03d af88 cf3d
000000f0: e26e 3ebe 3bbc 123d feec 523d eb47 c6be
00000100: 97e2 913e 90c4 57be 6d68 5cbd 1e2d 9dbe
00000110: 35cb dfbd a306 c6bc 60a2 8d3e cb60 f93e
00000120: 08f2 3a3e 750e 83bd 889e 4abd 60b8 4f3e
00000130: aef6 2e3e ac49 d3bc 83c8 863e 9ef1 703e
00000140: 0c99 013e 7ad0 c13d 752c 113e db2d 18be
00000150: 66ac 573e 4d39 ce3d 3a86 0a3f 6ba5 1bbe
00000160: 7f02 4abe 27b1 b4bc 91c7 6db9 1c90 f73e
00000170: 7f62 773e bbe8 9e3d ca22 5ebf ec9e 3dbe
00000180: 1996 04bd 2760 57bd c555 19be 719c 92be
00000190: c0a6 9cbd c0a0 34bf ad38 e73d 9656 c2bb
000001a0: 440e 21bf 9d1f 153e 1d27 8dbe 0ff8 d4be
000001b0: 1b93 273d ac89 0bbf 9289 26be f35a 0d3c
000001c0: dfba d9bd 2d77 3b3d 324c 82be e49b 1cbf
000001d0: 85ec 53be c589 873e 853e d5bb 069c 963d
000001e0: b923 7d3e 2e3f 9f3c 9226 473e 6d28 3c3d
000001f0: 8ba6 8c3e 01f9 d8be cc3d 81bd 1689 8cbe
00000200: 8cb3 513e 07a3 0a3d a4c1 bebe 769a 93be
00000210: c01d 05bf e6dc 153e d9f0 cfbe a4d0 9fbe
00000220: e914 4c3e 92cd 053e c469 55bc bb0d 553c
00000230: 690f aabd 4dca 833b cd5b bbbe 82e6 4bbc
00000240: 16ff 30bd 5cbb 43bd f809 113d e3fd 183e
00000250: 38fb a23e c892 013d ef25 2abe 8fe6 9abe
00000260: 0f0d 8fbe 64a0 a9be 6b92 eabd a067 6d3e
00000270: 97f3 10be e5dd 373e a51e dfbe ca47 113e
00000280: 54f7 9c3e f01d 0ebf af46 c6bd 5ba4 a2bd
00000290: c92f 72bd 73f3 a23c 442a 40be c6fa 98be
000002a0: a062 f13d 317f 523e bac5 d23d 3a47 d1be
000002b0: 9700 7cbe 945d 0dbe eeb4 fcbd 3d8b 063f
000002c0: 4539 2c3c 982e 453a fc66 e5be 0f90 2dbc
000002d0: d316 92bd 3a33 863e b187 17bd 8dc1 edbe
000002e0: 6be6 bbbd 7077 423d 3809 a23d 426e 38be
000002f0: 8abe 863e f77d 95bd 714d cebe 6349 08be
00000300: d219 46be 8fc0 8c3c e6bb fe3d 2529 943b
00000310: c84a 87bd 20df 043f be42 453c e25c cabe
00000320: fddf d63d 5c20 81be 235b 973e 0ea1 66be
00000330: 894e 533e 094b 853e db83 85bd dbff 22bf
00000340: dd16 a4be da1d 8cbe 39e5 31be a216 013e
00000350: cf2c c63e a077 a33a 5ea1 e5be c3a5 183d
00000360: fcd5 143d d172 de3d cc67 0b3e d1fe 9f3d
00000370: 361b 91be e068 063d ff36 4abe d266 b7be
00000380: 7157 ad3e 7971 823d cb64 8a3d 7c15 9c3e
00000390: 55da 173e 94bf a53d 441a e4be 0f1d 8bbe
000003a0: eb54 703e e190 1a3d 20a4 653e 3e96 0abe
000003b0: bf1e 28be b6cc 2f3e 8c31 a5be 2658 283e
000003c0: 8525 f23e 7730 05be 0bf5 f1be 27a4 bd3d
000003d0: 63ec e4bd ccb4 9ebe ee7f 40be 9abc 29be
000003e0: 61fb 39bd b3e4 8c3e db7a ecbd 26af 953e
000003f0: af08 1b3e 397d 713e 20b3 7cbe 0839 f13d
0.1946496 0.027647657 0.24258024 0.27339518 0.010205897 -0.17685787 0.03891486 -0.6523149
0.045917716 0.21828501 -0.33198202 -0.16121729 -0.0978942 -0.11412966 -0.37883154 -0.07159218
0.24610284 0.34254885 -0.23961005 -0.18749814 0.09056934 0.0018478434 0.3359813 0.002242659
0.07132377 -0.19188291 0.14794566 -0.13659222 -0.09085451 -0.021608114 0.38367826 -0.38151202
-0.28661194 0.10860192 0.081992105 0.12964034 -0.15750042 -0.30877942 0.32543424 -0.15660688
-0.037663657 -0.30646834 -0.08125376 0.062609464 -0.08965021 -0.4841503 0.29995108 -0.082666785
0.2848464 -0.35927474 0.050798193 -0.090705186 -0.30034018 -0.082156345 0.111917235 0.3121658
-0.14021657 -0.15017213 0.09392663 0.10133492 -0.18596986 0.03582404 0.051495545 -0.38726744
0.28493187 -0.21071076 -0.053810526 -0.30698484 -0.109274305 -0.024173087 0.27662945 0.4870666
0.1825639 -0.06399242 -0.049467593 0.20285177 0.17086288 -0.025791965 0.26324853 0.2352967
0.12656039 0.09463592 0.14177115 -0.14861242 0.21061859 0.10069523 0.54111063 -0.1519982
-0.19727515 -0.02205713 -0.00022676426 0.48352134 0.24158667 0.077592336 -0.86771834 -0.18517655
-0.032369707 -0.052581932 -0.14974125 -0.2863498 -0.076489925 -0.70557785 0.11290107 -0.005930732
-0.6291239 0.14562841 -0.27568904 -0.41595504 0.040911775 -0.54506946 -0.16263416 0.008627641
-0.10631346 0.04576795 -0.25448757 -0.6117537 -0.20695694 0.26472297 -0.006507697 0.07353978
0.24720658 0.019439306 0.19448307 0.04593699 0.27470812 -0.42377475 -0.06310615 -0.27448338
0.20478648 0.03384688 -0.3725711 -0.28828782 -0.5199852 0.14635047 -0.4061344 -0.31213868
0.19929852 0.130667 -0.013025705 0.013003762 -0.083037205 0.004021919 -0.36593476 -0.012445094
-0.04321202 -0.0477861 0.035409898 0.149406 0.3183229 0.031634122 -0.16616033 -0.30254027
-0.2793965 -0.3313018 -0.11453708 0.23184061 -0.14155422 0.1795574 -0.43578067 0.14187542
0.30657446 -0.5551443 -0.096814506 -0.079415046 -0.059127603 0.019891476 -0.18766123 -0.29878825
0.11786389 0.20556332 0.102916196 -0.40874654 -0.246096 -0.13805228 -0.12339197 0.5255621
0.010511701 0.00075218966 -0.44805133 -0.010593428 -0.071332596 0.26210958 -0.03699464 -0.4643673
-0.09174808 0.047477186 0.079119146 -0.1801081 0.26317245 -0.072994165 -0.40293458 -0.13309245
-0.19345787 0.017181663 0.124381825 0.0045215064 -0.0660606 0.5190296 0.012039838 -0.3952399
0.10491941 -0.2522 0.2956172 -0.22522375 0.20635428 0.2603381 -0.0651929 -0.63671654
-0.32048693 -0.27366525 -0.17372598 0.1260629 0.3870606 0.0012471564 -0.44849676 0.037267458
0.036336884 0.10861743 0.13613814 0.07812274 -0.28341073 0.03281486 -0.19747542 -0.35820633
0.33855775 0.063692994 0.06757506 0.3048514 0.14829381 0.08093181 -0.4455129 -0.27170607
0.23469894 0.037735824 0.2242589 -0.13533875 -0.16417979 0.17167935 -0.32264364 0.16439876
0.4729425 -0.13006769 -0.47257265 0.09259825 -0.111779 -0.30997312 -0.18798801 -0.16575852
-0.04540575 0.27518234 -0.1154687 0.2923519 0.15140031 0.23582925 -0.24677706 0.11778456

bn1.running_var f4 [256]
00000000: e3ba a341 d39a 9641 8c78 df41 5d53 2741
00000010: 79bb 7d41 eb6f fc41 bdcb 9241 2ed7 c441
00000020: 7fe8 e341 2e9a 2f41 607a 9c41 5f73 bb41
00000030: f5d7 a541 0a88 9241 f797 9741 a5ff 3f41
00000040: eba1 6341 b5dd 1a42 ac37 9d41 89fd 2e42
00000050: ec7a 4941 0932 0d42 a8fa 7a41 ac55 d241
00000060: 1f84 1342 7f7d 5641 b754 fb41 914c 8841
00000070: 7fa1 7841 f75d e541 c3e6 1241 4d34 c841
00000080: d2a1 6341 21f7 7641 de5a 3741 c534 bd41
00000090: e8a1 7e41 783d 9c41 f2f8 9d41 f903 6941
000000a0: 93d5 0b42 f800 0142 97d2 9941 bc42 9041
000000b0: 8dd5 9141 f18c ec41 ce77 c941 8641 1642
000000c0: 02a2 7641 2d4b e041 767c 8341 737e 3141
000000d0: 334e 2b42 04a7 8b41 43dc 7541 7062 d241
000000e0: 267d 1242 8ce1 7041 41f0 6a41 9fac b241
000000f0: bc0c 3e42 c491 dc41 c835 4541 63f2 f841
00000100: 9499 6641 613a 8041 16bc fe41 c084 9841
00000110: 81e2 9641 4bae f341 a1e0 9c41 f88e 2842
00000120: 740f da41 ad72 c241 3cc9 8c41 9254 6c41
00000130: bfd5 9a41 bc62 1041 c5ac b141 8e5c 8441
00000140: 906d 1042 afec 9b41 6d46 f741 eb17 3d41
00000150: a3aa 4d41 505b 5a41 4806 1041 3556 1042
00000160: 7f61 f541 52a5 6941 5f7c cb41 62cb 9641
00000170: b17d 9b41 be24 0042 7c93 f342 39fb c741
00000180: f97a d341 663d 6641 20f9 6041 d739 3041
00000190: cdb3 a141 488f 8d42 ef01 ce41 c00a 3a41
000001a0: f7d2 8642 1b58 6641 00e1 5d41 b741 f041
000001b0: f6f5 3241 2e16 9a42 04c4 df41 7ff1 1242
000001c0: 4179 9841 a128 3641 b409 6041 8d4d 9c41
000001d0: fa62 1941 94ef d041 c713 6e41 8ab2 f741
000001e0: c8c3 0e42 59c1 6741 ce49 9941 cf8c 0842
000001f0: 0d6c 8341 3be8 b241 f3c4 3741 c542 9941
00000200: 2fbf 8841 b704 8341 fc1d ad41 12a5 b341
00000210: e467 fd41 9aca a141 5d0f b741 515a ef41
00000220: 94b6 9841 a0f0 8b41 58d7 ba41 087b 4a41
00000230: fceb 3541 80d9 0242 8a29 9b41 219f c941
00000240: b965 e541 1bb5 2841 cb57 3c41 acad 9741
00000250: a670 8f41 bd9b ca41 93c7 b241 1eac c741
00000260: 60dc ba41 fb3b 3042 6d11 9841 fd6d 7641
00000270: 8041 ca41 4a3b 8541 6ee5 b541 0581 cf41
00000280: 2e6c fc41 be0a ab41 70a6 1942 30bb bc41
00000290: 7847 b341 3885 9e41 ae5d 0f42 c358 8a41
000002a0: d0bf 8c41 d342 9f41 fbd9 ea41 967a 8841
000002b0: 1448 8741 6c73 9d41 9222 0d42 ccfd 8141
000002c0: 2c51 e041 c2dc a741 0b6b 8d41 847e c041
000002d0: 3618 de41 adbe 5f41 ed82 1242 4b81 9441
000002e0: 855b 6341 4127 8741 5fd5 d641 8166 e141
000002f0: 67f8 6142 c7bc b041 ef10 ce41 5d6d b641
00000300: ebf8 7c41 b2a4 3541 f142 1a42 33d3 6741
00000310: 17ba e741 e018 9141 c046 c541 685c f541
00000320: adda b541 acdd c441 24e6 fe41 8fc7 a841
00000330: 9966 b541 fafc 1b41 3fe4 6f41 09e2 f341
00000340: d278 bb41 5478 8742 dc4d 4441 6af1 1241
00000350: 1e17 6241 ae6d 7941 14f0 bd41 19e3 4741
00000360: 014f e441 125e b341 1b11 3e42 eb3b af41
00000370: c3d5 8141 ca79 9241 6ac2 e141 c618 8841
00000380: 27af bd41 d558 c041 f05d b841 6c02 7e41
00000390: c572 af41 bad0 8c41 2869 c741 dd16 e641
000003a0: 17db 8441 7a05 6041 b6ef d141 d0e7 ab41
000003b0: a559 ae41 fcf3 8e41 f6aa 9941 37c2 8541
000003c0: 5f1b 8241 6152 5841 e64f 4e42 62ee c441
000003d0: 2d6c f941 f135 d041 18cb c441 306e 8541
000003e0: 330b 9a41 f52a 6b41 993e 7141 88dc 3741
000003f0: 0550 8e41 3858 2641 a537 b441 1eb3 9b41
20.466253 18.825598 27.93386 10.457852 15.85827 31.554647 18.349482 24.605068
28.488523 10.975142 19.559753 23.431334 20.730448 18.316425 18.949202 11.999913
14.227031 38.71651 19.652184 43.747593 12.59251 35.298862 15.686195 26.291832
36.879025 13.405639 31.416365 17.037386 15.539428 28.670881 9.181338 25.025537
14.227007 15.435334 11.459684 23.650766 15.914528 19.530014 19.746555 14.56347
34.95857 32.250946 19.227827 18.032585 18.229273 29.568819 25.183498 37.563988
15.414553 28.036707 16.435772 11.093371 42.826366 17.45655 15.366275 26.298065
36.622215 15.055065 14.683656 22.334288 47.512436 27.571175 12.32563 31.118353
14.412495 16.028505 31.841839 19.06482 18.860598 30.460104 19.609682 42.139618
27.257545 24.305994 17.598259 14.770647 19.354368 9.024105 22.20936 16.545193
36.106995 19.490568 30.909388 11.818339 12.854159 13.647293 9.0015335 36.084187
30.672606 14.602861 25.435728 18.849308 19.436373 32.03588 121.788055 24.997667
26.435045 14.38999 14.060822 11.014121 20.212793 70.77985 25.750944 11.6276245
67.41204 14.39651 13.867432 30.032087 11.185049 77.04332 27.97071 36.735836
19.059206 11.384919 14.002369 19.537867 9.586664 26.116982 14.879828 30.962177
35.691193 14.484704 19.161037 34.13751 16.42776 22.363394 11.485583 19.157602
17.093351 16.377302 21.63964 22.4556 31.675728 20.223927 22.882502 29.9191
19.08915 17.492493 23.355148 12.655037 11.370113 32.712402 19.395283 25.2027
28.67467 10.544215 11.771434 18.9598 17.930004 25.326044 22.347448 24.959042
23.357605 44.058575 19.008509 15.401853 25.281982 16.65395 22.737026 25.937998
31.552822 21.380245 38.412537 23.5914 22.409897 19.815048 35.841484 17.29334
17.593658 19.907629 29.356436 17.059856 16.910194 19.681358 35.28376 16.248924
28.039635 20.982792 17.677267 24.061775 27.761822 13.984052 36.627857 18.563131
14.209844 16.894167 26.854185 28.17505 56.49258 22.092176 25.758268 22.8034
15.810771 11.352709 38.565372 14.489062 28.965864 18.137146 24.659546 30.67012
22.731775 24.608238 31.862373 21.09744 22.675097 9.749262 14.993224 30.485369
23.433994 67.735016 12.269009 9.183939 14.130644 15.589277 23.742226 12.492944
28.538576 22.420933 47.516705 21.904257 16.229376 18.309467 28.219929 17.012096
23.710524 24.043375 23.045868 15.875591 21.93104 17.601917 24.926346 28.761164
16.606977 14.001337 26.242046 21.48819 21.793772 17.869133 19.208477 16.719831
16.263365 13.520112 51.578026 24.616398 31.17782 26.026339 24.599167 16.678802
19.255468 14.697988 15.077783 11.491341 17.789072 10.396538 22.52717 19.46246

fc2.weight f4 [128, 256]
00000000: a5cd 76bf de7f 873e 42a3 acbe ee1b 253e
00000010: 44f8 c43f f044 38bf de61 babe 727c 6bbf
00000020: 8776 013e 44b6 503d ae63 353e 56de 12bf
00000030: da32 e73e beae c2be 3232 413d c014 19bf
00000040: 7aeb c03e a6fa 03bf 6ad5 703f ccb3 9fbe
00000050: ea98 593e 7398 90be f32a 5b3f 5cd0 293f
00000060: bae5 91bf 9f0d 843e 7a03 7fbf 52ce fcbe
00000070: 41cb 4b3e 944f 25bf 3ae6 06bd da68 cbbe
00000080: 33d4 17bf 0b26 6fbe c038 c83e 97b5 533d
00000090: 3c86 5e3f 1c46 d5bf f9e0 efbe 6131 823f
000000a0: d8bb d4bd 1edc 26bf 7d1f 0cbe 1bb8 4f3e
000000b0: 2f68 173f f9e2 a03d 798a 35bf 1b84 90bf
000000c0: 2495 573f 457a 073d 1cde 16bf cb8e 183f
000000d0: 923b a9be 5e27 21bf 8ee9 2d3f 99b9 d43c
000000e0: 9eb5 4fbe 4fdf bebf cee5 373f c3fe ea3e
000000f0: 255b 25bf 6555 083f fa40 1bbf 9015 24be
00000100: 2043 cfbd 320f eebe 41a1 913e 3dd0 0cbe
00000110: 0d0c 53bf a5c1 173f 7a86 25bf f388 2fbe
00000120: 446e e23e 1e49 a13f b89f f7be 68a0 cebd
00000130: 6c2a ee3d c452 0ebf feb5 073f a91b 923e
00000140: e415 6dbf 8e6a 373f 644a 363f dac0 cb3d
00000150: 546c f23e 30e6 073d 3756 4dbe 3f06 1a3f
00000160: 6a31 a4bf 0d1f 89bf e81d bdbe 1171 b2be
00000170: 4045 81bd f178 74be 4d6a 673e 35ee 9ebf
00000180: b8aa 97bd 6ace 7d3f 8d3f 1c3f 54c5 13bf
00000190: c996 9f3f 6198 1e3f 9e24 ddbe 26a3 123e
000001a0: f8e0 3b3f 7167 263e b4df 4d3e 22f7 4dbf
000001b0: 73ff 243f 81d2 82be 27ee 6a3c 3fa4 9ebf
000001c0: d324 db3c a809 c4bf 7253 c6bf e0d5 673c
000001d0: 19b9 9bbf e19a 4cbf ee7c 5dbf cdec 2a3f
000001e0: 008c aebe 2661 233f aea3 f4be 6793 d5bd
000001f0: 4f64 4abf 9511 24bd 2e81 8ebf d88d 61bf
00000200: 7248 9cbe 4ddf 6abf a09a b6bf 1e3c 55bf
00000210: 9581 803e d32d 87bf d152 0a3f 9127 f73e
00000220: 8b6b 07be b625 e03e e86c d03d 2763 833f
00000230: d374 7bbf 9b94 97be 9ee2 42bf b2ee 2fbf
00000240: 9bd3 50bf da77 913e a71a a8bd 6970 2dbf
00000250: 9a52 a93e 69b8 50c0 c219 c03d 6ff9 58bf
00000260: 3452 92bd 6ec8 d03e a864 4a3f 1818 913e
00000270: 4bcb debe 5a51 30bd 0f81 003f 8e51 3e3f
00000280: e18d f73e c5ed 94bf 33e3 6c3e ce07 613e
00000290: 86ae d9be f934 c7be 768f 543f e111 323e
000002a0: cee7 8a3f 25fb 0d3f 8827 4b3f dca1 a63e
000002b0: 5116 3fbe 4e86 c33d f214 253f 3ca0 813e
000002c0: 6d12 e73e b98e d3be 7225 093f 28fa 3fbf
000002d0: a5d0 0a3f c808 463f c713 633f 1d67 983e
000002e0: b61d a1bd 6419 373f 3f59 5dbe 5efd 1c3f
000002f0: 28df 91be 72f6 38bf 7a38 893f 6848 a4bd
00000300: edb8 213f 34fb 16bf 0d77 58be 1e4b 0ebf
00000310: 3c58 cebe 2b40 92bf a1ad 82bf bc6c 68bd
00000320: 5c17 48bd 9394 873e 7bab 1d3f 6b74 7fbe
00000330: f739 9cbe a57e 20bf 546c 3c3f b457 c3be
00000340: 04b6 443d 4cd2 04bd 7909 9dbf 113c a23d
00000350: 3594 a9bd 468d 073e 1f21 723e e0f5 183f
00000360: dc2a 71bf 33a7 ee3e d4ac 1cbf 2051 04c0
00000370: 090b ab3d 2072 e43d ed4e 0e3f 1674 d73d
00000380: 5b4d 24bd 0d82 703e 212e 483f c691 643f
00000390: 1619 a13e 1a6c 063f 51e8 c8bd ed71 cbbf
000003a0: 31a8 3a3e 6f28 cc3e a27a 30bf a6f1 13bf
000003b0: dd3a 263f 2713 273f 02f9 7cbe 8464 4bbf
000003c0: 9642 773f 954d ffbf db09 493e 5db3 1fbd
000003d0: 8f5d 4d3f 3f86 d63e 820e 523e d6e5 853f
000003e0: 43fb fa3e 4fd6 03bf f5ea 483e 313f 02bf
000003f0: 4637 6fbf 9f01 2dbf d640 36bf 12e3 bfbe
-0.9640754 0.26464742 -0.33718306 0.16123936 1.5388265 -0.7198019 -0.36402792 -0.91986763
0.12642871 0.050955072 0.17713806 -0.5737051 0.45155984 -0.38023943 0.04716701 -0.59797287
0.37679654 -0.51554334 0.94075644 -0.31191862 0.21249738 -0.2824131 0.8561241 0.66333556
-1.1398232 0.25791642 -0.9961468 -0.4937616 0.19901754 -0.6457455 -0.032934405 -0.39728433
-0.59308165 -0.23354356 0.39105797 0.05168685 0.86923575 -1.6662021 -0.46851328 1.0171319
-0.10387391 -0.6517962 -0.13683887 0.20285074 0.59143347 0.078557916 -0.7091442 -1.1290315
0.84211946 0.03307559 -0.5893266 0.59592885 -0.3305326 -0.62950695 0.679345 0.025967406
-0.20284125 -1.4911898 0.7183503 0.45897493 -0.645922 0.532553 -0.6064602 -0.1602385
-0.10120225 -0.46495968 0.2844334 -0.13751312 -0.82440263 0.59279853 -0.6465832 -0.17142086
0.4422475 1.2600439 -0.48364043 -0.10089189 0.11629185 -0.5559504 0.53012073 0.28536728
-0.9261153 0.71646965 0.7120726 0.09948893 0.47348273 0.03317851 -0.2005242 0.6016578
-1.282758 -1.0712601 -0.3693688 -0.34851888 -0.063120365 -0.2387426 0.22599144 -1.2416445
-0.07405609 0.9914309 0.6103447 -0.57722974 1.2467891 0.6195126 -0.43192 0.14320049
0.7339015 0.16250397 0.20104867 -0.8045522 0.64452285 -0.25551227 0.0143390065 -1.2393874
0.026750958 -1.5315447 -1.5494215 0.014150113 -1.2165862 -0.79923826 -0.8651875 0.6676758
-0.34091187 0.6382011 -0.47781128 -0.104285054 -0.7905931 -0.04005583 -1.1133173 -0.8810706
-0.3052402 -0.9174698 -1.4265938 -0.83294857 0.25098863 -1.056086 0.5403262 0.48272374
-0.13224618 0.4377877 0.10177022 1.0264634 -0.98225135 -0.29605564 -0.7612704 -0.68723595
-0.81572884 0.28411752 -0.082082085 -0.6774965 0.33070832 -3.2612555 0.09379913 -0.84755605
-0.07144585 0.40777916 0.7905984 0.28338695 -0.43514475 -0.043046333 0.5019693 0.7434319
0.48350433 -1.1635062 0.23133545 0.21975634 -0.42515963 -0.38907602 0.83031404 0.17389633
1.0851991 0.5546134 0.79357195 0.32545364 -0.18660857 0.09547101 0.64485085 0.25317562
0.45131245 -0.41319826 0.5357276 -0.74991083 0.54224616 0.7735715 0.8870205 0.2976617
-0.07866995 0.7152312 -0.21616076 0.6132411 -0.28490567 -0.72251046 1.072036 -0.08021623
0.631728 -0.58977056 -0.21139164 -0.5558337 -0.40301692 -1.1425833 -1.0209237 -0.056744322
-0.048850402 0.2648054 0.61589783 -0.24946754 -0.30512974 -0.62693244 0.73602796 -0.3815285
0.048025146 -0.032427117 -1.2268516 0.07921613 -0.082802214 0.13237485 0.23645447 0.59750175
-0.94206023 0.46611938 -0.61201215 -2.0674515 0.08351714 0.1115458 0.5558918 0.105201885
-0.040112834 0.2348711 0.7819539 0.8928493 0.31464452 0.525087 -0.09809936 -1.5894142
0.18228222 0.39874598 -0.6893712 -0.577906 0.6493357 0.652636 -0.24704364 -0.7945025
0.9658598 -1.9945551 0.19632666 -0.038989414 0.80220884 0.41899297 0.20513347 1.0460765
0.49019822 -0.51498884 0.19620879 -0.5087767 -0.93443716 -0.675806 -0.7119268 -0.37477928

fc2.bias f4 [128]
00000000: 8ed1 5e3b e308 2e3c e428 243d 6098 a93d
00000010: 6198 aa3d 9476 873d c491 16bd 86b8 2bbc
00000020: 2ea0 4e3d 060b f53d 8b95 ca3c 79c7 313e
00000030: a0e3 19bd c22a 6e3d 86dc 643d e938 b5bb
00000040: 3229 91bb 78ab 063d d416 833c d9e6 edbc
00000050: 8adf 06bc 16d9 0f3d f3c5 89bc 4907 25bb
00000060: c4fb 153d e726 8f3d 47aa 9abd 3b2f 573d
00000070: a9f5 793d dea0 87ba 5dcf 343d 09c6 a6bc
00000080: 2fa8 903c f587 743d be25 ca3d 95e0 b83b
00000090: 4e5a d73c 104a 5c3d c1b5 213b f7f9 c83c
000000a0: aaa6 5abd 6c3a 4ebd 3da6 febc 75d8 a9bb
000000b0: 73c9 8c3d 7908 113d 2204 933d 04d3 633d
000000c0: e8d0 783d 2748 1c3d 3306 1fbd 2874 ce3d
000000d0: 7ce5 d1bb 293a 083d 7c54 c4bc 8aae 6f3c
000000e0: c7d1 88bd 12a2 853d 82a1 5cbc f15b 973c
000000f0: bca5 e63c cfc5 27bd c4ba 513d 539a 51bd
00000100: 0198 d5bc 8111 bf3d ca8b 96bd b151 153d
00000110: e093 fd3b 6e7a 7e3d 6fe7 a7bc 1603 543c
00000120: d50d 793c 0693 283d 403d e1bc 1ea0 e6bc
00000130: ebc8 013d 2539 083a 7aff 9e3c 36ae 8d3c
00000140: ce51 353d e177 30bc 9d12 a13d 14f9 d23d
00000150: 8258 fcbb 4fe7 2b3d 495f 933c c060 303c
00000160: 4d7b 793d a990 cf3d 8b4b 77bd eac4 1cbd
00000170: f471 313d 1ec1 9a3d 6812 e43c 4348 013d
00000180: ea56 00bd 5b05 803d b0bf b5bc 8392 b4bc
00000190: 8f6e 1dbd 52e0 933b d3b7 19bd 19a9 033c
000001a0: 59e2 38bd a724 8abc 0bed 173e 47ef a53d
000001b0: 1c5f 7abc f59e 8e3d 79de 6fbc 1ad8 e63c
000001c0: c9f9 233c a83a cf3c 3152 1f3c d97f 0c3e
000001d0: 0ca7 d43d 2aa6 893c 2ad7 35bd b5cc c53d
000001e0: bd69 1e3d 4490 bdbc 0600 b1bc 6fcf 0e3e
000001f0: 6f57 75bd 12f6 f5bc 27af 5a3d 5a2e 403c
0.0033999416 0.010622236 0.04007806 0.08281016 0.08329845 0.06614414 -0.036760107 -0.010481006
0.050445728 0.11964993 0.02472951 0.17361249 -0.037570596 0.058146246 0.05587437 -0.005530466
-0.0044299597 0.03287837 0.016002096 -0.02904074 -0.008232007 0.03511914 -0.016818022 -0.0025181344
0.036617056 0.06989842 -0.07552009 0.052535277 0.061025295 -0.0010347625 0.04414307 -0.020358102
0.017658321 0.05969997 0.0987048 0.0056420066 0.026288178 0.05378157 0.0024674984 0.024533255
-0.0533816 -0.050348684 -0.031085128 -0.0051832744 0.06874361 0.03540847 0.07178523 0.055621162
0.060746104 0.038154747 -0.03882427 0.10080749 -0.0064055305 0.03325859 -0.023966067 0.014629016
-0.06680637 0.06525053 -0.013466241 0.018476458 0.0281552 -0.04096013 0.051203504 -0.051172566
-0.026073458 0.093295105 -0.073508814 0.03645486 0.0077385753 0.062128477 -0.020496098 0.012940189
0.015201052 0.041155837 -0.027495027 -0.028152522 0.03168575 0.00051965035 0.01940893 0.017294984
0.04426747 -0.010770769 0.07864878 0.10301414 -0.0077009806 0.04196864 0.017989771 0.0107652545
0.060908604 0.101350136 -0.060374778 -0.03827373 0.043321565 0.075563654 0.027840808 0.031563055
-0.031332888 0.062510215 -0.02218613 -0.022042518 -0.038435515 0.004512825 -0.037528824 0.0080359215
-0.045137737 -0.01686318 0.14836518 0.08102279 -0.015281465 0.069639124 -0.014640444 0.028179217
0.010008284 0.025296524 0.009724186 0.13720645 0.10383424 0.016802866 -0.04439465 0.096581854
0.03867506 -0.02314008 -0.021606456 0.13946317 -0.059897836 -0.030024562 0.053389695 0.011729801

bn2.weight f4 [128]
00000000: 1b40 883f 8b7d 913f a53f 1f40 590a 9b3f
00000010: b0ab 823f 2ed0 8d3f 8ca1 963f 5f00 9f3f
00000020: 19d2 d93f 2b79 9e3f 55fc 9f3f 75c9 913f
00000030: c61f 873f 9fee 943f 538d 8d3f 021a 763f
00000040: c304 8c3f e9d8 883f 4a57 823f adf8 973f
00000050: 3d84 c33f 2393 a73f 6cf7 913f 8d75 973f
00000060: d071 9a3f df74 963f 0e15 9b3f 5c6a af3f
00000070: e320 903f 0548 c73f 85e8 963f bdb7 8e3f
00000080: 0116 a43f aed0 893f 2f48 903f aa14 b03f
00000090: 204c 973f 2f54 7b3f 9b21 b53f 735f a93f
000000a0: 0970 913f b7f7 c93f e4f6 8d3f 89e6 803f
000000b0: 7bfa b03f 3965 d33f a011 a13f d6ac f13f
000000c0: c216 973f 70a0 c93f 375a a03f 21b8 9e3f
000000d0: 6c2e c63f baeb 923f e122 973f 90c8 883f
000000e0: 3a52 933f 24cc 8e3f 85e8 903f 3df0 9f3f
000000f0: cf09 843f d2bb 953f 99a1 b03f 651c 8e3f
00000100: d2e0 783f 8fa7 7f3f 356f 8a3f 4e86 8e3f
00000110: 7508 a93f 3b19 7f3f d2f9 d23f 013c 0a40
00000120: 0df6 b53f afac 9a3f e5f6 b03f e20d 9f3f
00000130: 3bb1 e43f 913c 983f 3706 953f 7548 8c3f
00000140: 1e21 d93f 740e ba3f 88ce b53f fd88 a23f
00000150: 011a 993f 2b0a 903f 9c68 a13f a4a3 b23f
00000160: 5e9b a83f fbb1 953f acf6 873f 4442 b13f
00000170: 1de3 863f 58e9 ac3f e259 9a3f 7b71 cc3f
00000180: 7b65 863f b66d 5c3f 3cbe 9a3f 5a8b 9c3f
00000190: d985 873f 271c ab3f 5ee6 893f 55ee 9d3f
000001a0: 9d5e 963f 4eb4 473f 5fe5 8e3f 0701 973f
000001b0: d10e c13f 71fd 963f 0a1c 8e3f c3fe 983f
000001c0: b7ff 963f d2da 8f3f 56be 1a40 ecee ac3f
000001d0: 6b77 783f 5d44 aa3f a9e7 f23f aa09 803f
000001e0: 4239 873f 5779 823f 1c0a 8e3f 8d6d 833f
000001f0: 9e5d 8e3f 5338 a53f f3fb 8b3f 80a9 443f
1.0644563 1.1366438 2.4882596 1.2112533 1.0208645 1.1079156 1.176805 1.2421988
1.7017242 1.2380728 1.2498881 1.1389605 1.0556571 1.1635321 1.1058754 0.96133435
1.0938953 1.0691196 1.0182889 1.1872765 1.5274731 1.3091778 1.1403632 1.1832749
1.2065983 1.1754416 1.21158 1.3704333 1.1260036 1.5568854 1.1789709 1.1149822
1.2819215 1.0766809 1.1272029 1.3756306 1.1820107 0.9817533 1.415088 1.3232254
1.1362315 1.5778722 1.109097 1.0070354 1.382644 1.6515266 1.2583504 1.888087
1.180382 1.5752087 1.2527531 1.2399942 1.5482917 1.1478188 1.1807519 1.0686207
1.1509469 1.1156049 1.1320959 1.249519 1.0315493 1.1697943 1.3799316 1.1102415
0.9721805 0.9986505 1.0815188 1.1134737 1.3205706 0.99647874 1.6482489 2.1599123
1.4215714 1.2083949 1.3825346 1.2426112 1.7866586 1.1893483 1.1642522 1.0959612
1.6963232 1.4535661 1.4203653 1.2698056 1.1961061 1.1253103 1.2610049 1.3956189
1.3172414 1.169494 1.0622153 1.3848348 1.053806 1.3508711 1.205868 1.5972131
1.0499719 0.86104906 1.2089305 1.2230027 1.0587722 1.3367966 1.0773427 1.2338358
1.1747624 0.780095 1.1163749 1.1797189 1.5082647 1.1796094 1.1102307 1.1952747
1.1796788 1.1238654 2.4178672 1.3510413 0.9705722 1.3302113 1.8976947 1.0002949
1.0564349 1.019328 1.1096835 1.0267807 1.112232 1.2907814 1.0936264 0.76821136
