feedforward_nn/model_saves/fnn_(256, 256)_8.pth (torch, 229892 bytes, 19 tensors)

fc1.weight f4 [256, 48]
-0.03916702 -0.17713024 0.0009320552 0.0764635 0.20312881 0.025456153 0.21629287 -0.008475522
-0.11749704 0.0071213073 0.042975586 -0.0122254435 -0.060949944 -0.02520816 -0.06933811 -0.12401368
0.064562574 -0.030484943 0.017443852 0.10446396 -0.031895142 -0.06302919 0.00010918266 0.0022270235
0.08451623 -0.039995745 0.10278008 -0.013076689 -0.019120088 -0.021926116 0.008714388 -0.116499074
0.065076694 -0.05842857 0.11009124 -0.026449861 -0.10034634 -0.07999019 0.03360429 0.085302904
-0.072928414 0.07888723 0.0810693 -0.056561846 0.01827106 -0.009637503 0.0063699605 0.05801315
-0.020045327 -0.046814505 0.0009818404 -0.0029296821 -0.051788144 0.09151892 0.016941266 -0.020641182
-0.10673541 0.04752422 -0.024922008 0.0042494736 -0.07575584 0.06338359 0.14326027 0.09869491
0.06296409 0.17161599 0.008414397 -0.026998993 -0.033385593 0.0619044 -0.021286495 0.02477452
-0.15009364 0.0712445 0.073152184 0.026157588 -0.06863431 -0.022750063 0.035336047 -0.101888776
0.051518593 -0.12934615 -0.02635379 -0.039290834 0.034826156 -0.028561195 0.10601985 0.10440642
0.046999685 -0.102753684 0.051347908 -0.06761141 -0.056346707 -0.065609455 -0.12103462 0.022382705
-0.23220241 -0.14644992 -0.041786738 0.0418404 0.10259797 0.04249717 0.041503724 -0.033534937
0.07437271 0.16500536 0.100689605 -0.009631279 -0.069459155 -0.08585352 -0.034406964 -0.11122114
-0.1328519 -0.08940949 0.11119755 0.048992604 0.08043832 -0.1433569 0.086738534 0.027378147
0.15374014 -0.006248371 -0.004955659 -0.14633113 0.032081585 0.00791596 -0.045054987 0.046042036
-0.016614806 0.0053335736 -0.03337257 -0.018151255 -0.045366988 0.0502277 -0.019324994 0.011614814
-0.089185946 -0.08813072 -0.086327076 0.110930845 0.04612103 -0.035338964 -0.104264796 0.057877615
-0.15131381 0.13105527 0.078354605 0.17737618 -0.0772935 -0.063940816 0.19879521 0.0403719
-0.195582 0.12020141 -0.05565695 0.076022215 0.048345994 -0.048162587 -0.09218946 0.061643943
0.12182389 -0.055452056 0.02617677 0.029956467 -0.13689612 0.008296548 0.016130496 0.032697733
-0.030225873 -0.054426387 -0.03353575 -0.0825975 0.007434444 0.0011349062 0.016590023 -0.085114375
-0.09462048 -0.009566905 -0.078763396 0.0966703 -0.07654063 -0.06440261 0.008038744 -0.022379184
0.101488665 0.10377177 -0.12522087 -0.10483563 0.064820915 0.08420605 0.028375743 0.050424617
0.07625539 0.042153798 0.012555111 0.07008385 -0.1428596 -0.046490084 0.057526607 0.08081299
-0.04065092 0.04319975 0.056447916 0.01681428 -0.08486818 0.042446673 0.06337833 0.039755754
-0.03383023 0.1812 0.08774956 -0.059237126 0.10878437 0.009649554 0.09828695 -0.13728493
0.059577893 -0.077372946 0.109787144 -0.051024675 -0.07366094 0.09080622 -0.030011652 -0.01571133
-0.11209017 0.082350396 0.04358156 0.10414242 0.054383773 -0.050238322 0.113332875 0.041750412
0.093666 0.013047044 0.0016838602 0.076057106 -0.1532121 -0.095213845 -0.0825747 0.08326827
-0.09298794 0.10819148 -0.08017678 -0.12289519 -0.14078012 0.08209953 -0.1057509 0.03741887
0.11825094 0.07520416 0.07032642 -0.13791764 0.0054662763 0.07427124 -0.01858001 0.090795174
00000000: 996d 20bd a161 35be 2a55 743a e598 9c3d
00000010: 0001 503e 6c89 d03c e17b 5d3e eadc 0abc
00000020: 4aa2 f0bd db59 e93b 2b07 303d 3a4d 48bc
00000030: a6a6 79bd 5881 cebc 2401 8ebd e2fa fdbd
00000040: 6239 843d 8fbb f9bc 69e6 8e3c 33f1 d53d
00000050: 7ba4 02bd 7315 81bd fff8 e438 41f3 113b
00000060: d816 ad3d 94d2 23bd 5d7e d23d 9c3f 56bc
00000070: bba1 9cbc 669e b3bc cbc6 0e3c 1197 eebd
00000080: ee46 853d cc52 6fbd 8477 e13d 61ad d8bc
00000090: 6282 cdbd e6d1 a3bd a7a4 093d 4ab3 ae3d
000000a0: 7e5b 95bd a18f a13d a907 a63d 65ad 67bd
000000b0: 31ad 953c 9ee6 1dbc 1abb d03b 329f 6d3d
000000c0: 1936 a4bc 91c0 3fbd 19b1 803a e9ff 3fbb
000000d0: ce1f 54bd 466e bb3d 69c8 8a3c b217 a9bc
000000e0: 1898 dabd c2a8 423d 3d29 ccbc 2b3f 8b3b
000000f0: e125 9bbd 41cf 813d d2b2 123e 8f20 ca3d
00000100: 51f3 803d 1abc 2f3e 8adc 093c fe2c ddbc
00000110: 55bf 08bd 788f 7d3d 0461 aebc eff3 ca3c
00000120: 26b2 19be a3e8 913d d0d0 953d 7048 d63c
00000130: 2590 8cbd 575e babc 88bc 103d 10ab d0bd
00000140: 2905 533d 5173 04be e7e3 d7bc 6def 20bd
00000150: dfa5 0e3d 2bf9 e9bc ef20 d93d 08d3 d53d
00000160: be82 403d 8670 d2bd 2f52 523d da77 8abd
00000170: cecb 66bd 405e 86bd 00e1 f7bd ef5b b73c
00000180: 78c6 6dbe f8f6 15be 9228 2bbd d760 2b3d
00000190: e21e d23d 8311 2e3d cfff 293d ee5b 09bd
000001a0: b850 983d 2af7 283e 5a36 ce3d 83cc 1dbc
000001b0: 9a40 8ebd f8d3 afbd 51ee 0cbd e9c7 e3bd
000001c0: 540a 08be 531c b7bd 8bbb e33d 78ac 483d
000001d0: d9bc a43d 27cc 12be f9a3 b13d 2348 e03c
000001e0: 0e6e 1d3e 23bf ccbb 1563 a2bb d4d7 15be
000001f0: fb67 033d f1b1 013c 948b 38bd 9396 3c3d
00000200: c61b 88bc 42c5 ae3b adb1 08bd f1b1 94bc
00000210: bcd2 39bd 90bb 4d3d 734f 9ebc 104c 3e3c
00000220: 1fa7 b6bd e17d b4bd 40cc b0bd b62f e33d
00000230: 68e9 3c3d 97bf 10bd c888 d5bd 1411 6d3d
00000240: 02f2 1abe 5a33 063e 6178 a03d 1aa2 353e
00000250: 0e4c 9ebd 67f3 82bd f990 4b3e 015d 253d
00000260: a646 48be 282c f63d 8bf8 63bd 89b1 9b3d
00000270: 7306 463d 2246 45bd d4cd bcbd 5c7e 7c3d
00000280: ce7e f93d b221 63bd aa70 d63c 4467 f53c
00000290: 7f2e 0cbe 3fee 073c 1a24 843c 0fee 053d
000002a0: 409c f7bc 34ee 5ebd c85c 09bd e128 a9bd
000002b0: a39c f33b 22c1 943a cde7 873c 7250 aebd
000002c0: 62c8 c1bd 82be 1cbc b44e a1bd 14fb c53d
000002d0: 55c1 9cbd 84e5 83bd f0b4 033c 8d54 b7bc
000002e0: 4ad9 cf3d 4b86 d43d e639 00be 10b4 d6bd
000002f0: d4c0 843d 3974 ac3d 3f74 e83c 0b8a 4e3d
00000300: c92b 9c3d 76a9 2c3d f4b3 4d3c 1f88 8f3d
00000310: c949 12be 636c 3ebd 05a1 6b3d 4881 a53d
00000320: 9481 26bd 39f2 303d ee35 673d 1abe 893c
00000330: 5ecf adbd 90dc 2d3d 7fcc 813d eed6 223d
00000340: 9191 0abd 7e8c 393e 0bb6 b33d a1a2 72bd
00000350: 57ca de3d 2a19 1e3c ab4a c93d 6c94 0cbe
00000360: f307 743d b575 9ebd 15d8 e03d 40ff 50bd
00000370: 8cdb 96bd 9df8 b93d ffda f5bc 0cb5 80bc
00000380: 888f e5bd 53a7 a83d 9482 323d 9f48 d53d
00000390: 85c1 5e3d b3c6 4dbd 111b e83d 7b02 2b3d
000003a0: f6d3 bf3d 45c3 553c f9b4 dc3a d4c3 9b3d
000003b0: a2e3 1cbe 7aff c2bd ed1c a9bd 8e88 aa3d
000003c0: 7670 bebd 7f93 dd3d b933 a4bd 79b0 fbbd
000003d0: aa28 10be cc23 a83d ee93 d8bd 8744 193d
000003e0: 8d2d f23d a304 9a3d 4c07 903d 483a 0dbe
000003f0: 731e b33b 851b 983d 1b35 98bc d2f2 b93d

fc1.bias f4 [256]
-5.3146864e-06 1.7760456e-07 -4.5031397e-06 1.2666623e-06 7.7470605e-07 -2.042933e-06 -5.072087e-07 8.2507887e-07
2.3389555e-07 -1.520568e-06 -8.869209e-06 2.5889622e-06 5.7733325e-07 -2.4040585e-07 1.0531583e-06 -1.1131918e-06
-1.1311029e-07 -4.80609e-07 -4.5432012e-07 2.267327e-07 -2.2851102e-06 2.428384e-06 -2.6963141e-06 1.5254965e-06
7.9940895e-07 -1.3045811e-06 1.9707338e-06 -8.261241e-07 -8.968969e-07 -1.5793812e-06 -3.6461284e-07 9.536974e-07
-7.880996e-06 -3.046964e-07 -4.29963e-07 2.2706104e-07 4.0260613e-07 5.2044993e-06 -4.882227e-06 1.6261007e-06
7.0140135e-07 -6.544926e-07 9.772438e-07 -8.594153e-07 -1.9213533e-07 1.2849334e-06 -6.2557147e-06 -3.0688378e-07
-4.5074873e-07 9.727901e-08 -8.230382e-07 -2.5418012e-06 -8.910831e-07 -1.9182587e-06 2.3116154e-06 -1.0665393e-06
1.3013944e-06 -5.552752e-07 3.6833183e-07 4.040674e-06 2.464422e-07 2.7044946e-06 -2.1566298e-06 1.8758296e-06
2.6343233e-07 -5.154742e-07 2.5580155e-07 -3.6546385e-06 1.136924e-06 5.842677e-07 2.2252001e-07 2.0507737e-06
3.825049e-06 2.3269854e-07 -6.0291825e-07 -8.832599e-07 2.2659365e-06 2.235369e-07 -2.6549678e-06 -3.0755285e-07
1.52845e-07 -3.8970907e-06 1.3982051e-06 -5.5161277e-06 -2.3620844e-06 1.6798095e-06 -9.275089e-06 -1.1478006e-06
3.6300596e-06 -5.586573e-06 2.7555113e-06 -2.5428697e-06 2.67182e-06 4.6204875e-07 2.3985713e-06 -1.6232107e-06
4.6196387e-06 2.529622e-07 1.2260791e-06 -1.2160889e-06 -3.9845318e-07 -1.0907283e-06 -5.719987e-08 1.5251662e-06
-2.2058646e-06 -9.3309424e-08 5.7971706e-06 1.2024849e-06 2.3837492e-06 -9.421648e-07 2.6624363e-07 1.1090984e-06
-1.4527923e-06 9.1183057e-07 -1.069149e-06 -3.1332568e-06 1.8743137e-06 -3.5394802e-07 5.1472523e-07 2.37906e-06
2.6434104e-06 -2.7175843e-06 2.560126e-07 1.4231033e-06 2.6180996e-06 -9.837738e-07 -4.87428e-07 -9.584165e-07
9.199976e-07 3.3798733e-06 -1.6262176e-07 1.9398567e-06 -4.0799282e-08 -2.2512304e-06 8.522013e-06 -1.5505668e-06
2.4564335e-06 2.234324e-06 -4.9645087e-07 -1.0888061e-06 -4.6238533e-06 -3.7490344e-07 -9.608084e-08 -1.466286e-06
1.809052e-06 -2.6668135e-06 1.0434338e-06 -2.621597e-06 -8.9771663e-07 9.30695e-07 -1.4167452e-07 8.850103e-09
1.2262608e-06 -1.247723e-07 -1.2001968e-06 -8.227473e-07 1.2483339e-05 -3.255369e-06 6.5895557e-07 -3.2134192e-06
3.1579127e-08 -2.0847372e-06 -4.5405995e-06 -3.0947845e-06 -1.54583e-06 8.7626063e-07 -1.9323282e-07 4.2173792e-06
1.2246923e-06 -1.6710111e-06 1.0351561e-05 6.5144525e-07 2.6141904e-06 1.7996015e-06 -2.3092157e-06 1.0751403e-06
2.3485472e-06 -2.2814747e-07 1.5241677e-06 2.2256731e-07 5.685719e-07 3.1478987e-06 1.1371794e-06 2.0855465e-07
8.7427925e-06 1.0700356e-06 2.2719448e-06 1.5477092e-07 9.79461e-07 -5.0913773e-06 5.256438e-07 1.18642866e-07
5.8052035e-07 5.1409845e-08 -1.7601535e-06 7.4467636e-07 7.274576e-07 -1.2951466e-06 1.8290181e-06 -1.3160184e-06
-1.2499523e-05 -2.6511193e-06 7.1220907e-06 4.7369135e-06 -2.7580686e-06 -1.29795e-06 2.8558968e-06 4.1894846e-06
-9.407529e-07 -6.107962e-07 -2.759717e-07 -1.0397237e-06 -2.729002e-07 -2.5735676e-06 -1.3463721e-06 1.8903644e-06
-1.6086386e-06 -1.5240086e-06 -2.7484166e-06 1.5579682e-06 1.7291802e-06 -9.3806113e-07 -1.2127593e-06 1.4859356e-06
2.4586916e-06 2.6476224e-07 -1.279611e-06 6.556217e-07 -1.4377445e-06 1.4155163e-06 1.7929503e-06 3.1372258e-06
1.9188367e-06 3.318049e-06 1.0503991e-06 2.5052051e-07 -2.1127405e-06 4.829703e-07 2.2653196e-06 -6.49208e-07
-3.3060162e-06 -1.3571448e-06 -2.01465e-06 1.9838565e-08 -4.550498e-07 -2.8451925e-07 -3.2723362e-06 -1.3269389e-06
1.1185392e-05 1.954591e-06 -3.8546577e-07 -3.3914257e-06 -1.3097151e-06 -1.2928025e-06 -3.2032835e-07 2.1230717e-06
00000000: cf54 b2b6 92b3 3e34 ad19 97b6 2f02 aa35
00000010: 65f5 4f35 5219 09b6 1e27 08b5 fd7a 5d35
00000020: b824 7b34 5216 ccb5 f6cc 14b7 08be 2d36
00000030: 0afa 1a35 2111 81b4 3e5a 8d35 fb68 95b5
00000040: 0ae7 f2b3 3303 01b5 48e9 f3b4 cf73 7334
00000050: e559 19b6 52f7 2236 53f2 34b6 a9bf cc35
00000060: f796 5635 1119 afb5 f340 0436 d1c2 5db5
00000070: 49c2 70b5 20fb d3b5 02c0 c3b4 cb00 8035
00000080: 9f38 04b7 2895 a3b4 aad5 e6b4 10ce 7334
00000090: c425 d834 4fa2 ae36 03d2 a3b6 6540 da35
000000a0: ef47 3c35 64b0 2fb5 d729 8335 92b2 66b5
000000b0: c24d 4eb4 fa75 ac35 2ee8 d1b6 c9c1 a4b4
000000c0: 6ffe f1b4 b4e7 d033 c1ee 5cb5 d093 2ab6
000000d0: c432 6fb5 6fbb 00b6 4021 1b36 0326 8fb5
000000e0: 92ab ae35 390e 15b5 24bf c534 2095 8736
000000f0: c24e 8434 dd7e 3536 9eba 10b6 04c5 fb35
00000100: dd6d 8d34 1e5f 0ab5 1955 8934 3642 75b6
00000110: 6998 9835 92d6 1c35 d6ed 6e34 06a0 0936
00000120: ec58 8036 b0db 7934 3ad8 21b5 2819 6db5
00000130: 7e10 1836 5b05 7034 002c 32b6 be1d a5b4
00000140: b71d 2434 c1c3 82b6 f6a9 bb35 2d17 b9b6
00000150: 4d84 1eb6 d175 e135 349c 1bb7 210e 9ab5
00000160: f39b 7336 4c74 bbb6 53eb 3836 2ba6 2ab6
00000170: 854d 3336 7f0f f834 24f7 2036 18dd d9b5
00000180: 6502 9b36 dcce 8734 c28f a435 7f38 a3b5
00000190: fdea d5b4 2465 92b5 ecab 75b3 50b4 cc35
000001a0: 7708 14b6 6661 c8b3 5185 c236 1165 a135
000001b0: 80f8 1f36 12e9 7cb5 3ff0 8e34 55dc 9435
000001c0: 90fd c2b5 85c4 7435 ae7f 8fb5 f144 52b6
000001d0: ee90 fb35 3f06 beb4 a62b 0a35 f1a7 1f36
000001e0: 7265 3136 be5f 36b6 1b72 8934 7501 bf35
000001f0: 9cb2 2f36 360a 84b5 ccd7 02b5 f1a2 80b5
00000200: c1f5 7635 c8d1 6236 219d 2eb4 7c2e 0236
00000210: 493b 2fb3 d813 17b6 c4f9 0e37 121d d0b5
00000220: 35d9 2436 65f1 1536 d843 05b5 1823 92b5
00000230: 9926 9bb6 5646 c9b4 0055 ceb3 34cd c4b5
00000240: 8ece f235 82f7 32b6 1d0c 8c35 b2ee 2fb6
00000250: 9efa 70b5 e0d4 7935 321f 18b4 2a0b 1832
00000260: 0096 a435 26f9 05b4 7316 a1b5 c4da 5cb5
00000270: 886f 5137 d076 5ab6 15e3 3035 1fa6 57b6
00000280: 9ea1 0733 83e7 0bb6 745b 98b6 feaf 4fb6
00000290: 507a cfb5 2c38 6b35 6f7b 4fb4 0383 8d36
000002a0: 1b60 a435 8147 e0b5 9eab 2d37 fade 2e35
000002b0: 736f 2f36 d689 f135 06f8 1ab6 8a4d 9035
000002c0: bc9b 1d36 b3f8 74b4 0192 cc35 d6fa 6e34
000002d0: f79f 1835 7d40 5336 30a1 9835 11ef 5f34
000002e0: 02ae 1237 259e 8f35 b777 1836 1b2f 2634
000002f0: 0676 8335 99d6 aab6 f819 0d35 9bc8 fe33
00000300: 0ed5 1b35 b9cd 5c33 6a3e ecb5 c5e5 4735
00000310: 8146 4335 e6d4 adb5 957c f535 0ca2 b0b5
00000320: 0bb5 51b7 e2e9 31b6 4bfa ee36 c7f1 9e36
00000330: 4217 39b6 3935 aeb5 efa7 3f36 6693 8c36
00000340: 0c88 7cb5 98f5 23b5 4329 94b4 a28c 8bb5
00000350: 1e83 92b4 8eb5 2cb6 feb4 b4b5 6db8 fd35
00000360: 67e8 d7b5 898c ccb5 7071 38b6 611b d135
00000370: 2e16 e835 12cf 7bb5 18c6 a2b5 5c70 c735
00000380: 0000 2536 a524 8e34 19bf abb5 fbfd 2f35
00000390: 86f8 c0b5 c5fc bd35 4ea5 f035 2189 5236
000003a0: 5dc5 0036 a6ab 5e36 70fb 8c35 477f 8634
000003b0: 9bc8 0db6 77a5 0135 e505 1836 3c45 2eb5
000003c0: eddc 5db6 2427 b6b5 6c33 07b6 7769 aa32
000003d0: 914d f4b4 07c0 98b4 4f9a 5bb6 4619 b2b5
000003e0: e5a8 3b37 9e2b 0336 03f2 ceb4 4098 63b6
000003f0: 78c9 afb5 5b84 adb5 98f9 abb4 187a 0e36

bn1.weight f4 [256]
0.50447786 0.50575054 0.66623116 0.69103587 0.5672121 0.61497873 0.46572083 0.566113
0.55237025 0.5056275 0.6215831 0.54841876 0.6186331 0.56379753 0.40889192 0.5465161
0.67542 0.4894555 0.6178239 0.58301353 0.5553687 0.602918 0.5689621 0.72225916
0.5918318 0.5436883 0.520842 0.6202931 0.7132517 0.6106008 0.6921056 0.5084508
0.6525811 0.63138133 0.71724033 0.52579635 0.67053354 0.5683683 0.6321425 0.5263228
0.56214195 0.53748417 0.5503179 0.58868563 0.5479736 0.65845865 0.5780641 0.5942758
0.46640414 0.5119741 0.5157665 0.6158546 0.45837906 0.52114093 0.59508294 0.5086151
0.55781907 0.58084774 0.4847715 0.5718576 0.5296895 0.59321886 0.49222896 0.52322185
0.5068744 0.46327743 0.4826559 0.6873211 0.59821624 0.5164976 0.5668115 0.5474463
0.53684497 0.48463956 0.645186 0.5369225 0.555296 0.42461577 0.5211914 0.63730055
0.6296792 0.74206007 0.569875 0.5408091 0.5315332 0.5529873 0.6093858 0.53901017
0.60661286 0.5946221 0.5746017 0.7574504 0.49233115 0.5910119 0.6264518 0.54583573
0.7316334 0.44732705 0.46769136 0.5515555 0.5710877 0.584446 0.61399424 0.6224964
0.6444812 0.6385291 0.5401757 0.56401044 0.5505245 0.55445147 0.54223543 0.59894776
0.4013507 0.7015268 0.643895 0.54995793 0.59717345 0.45619127 0.5083876 0.5945652
0.6018426 0.49253127 0.49565646 0.6200788 0.56778604 0.6098988 0.5208806 0.47366738
0.57663536 0.62959784 0.53695256 0.55188596 0.5025658 0.57609814 0.5800972 0.5773517
0.6250326 0.60253567 0.5587337 0.55472744 0.6216272 0.5109826 0.61325693 0.56295747
0.4893712 0.58308566 0.6014391 0.5240781 0.66426426 0.6594204 0.59487826 0.52109885
0.52809364 0.8092372 0.6136211 0.58717483 0.6786841 0.46922988 0.49002492 0.70873874
0.6000021 0.5883997 0.47781923 0.616213 0.56447804 0.46805534 0.6574139 0.51355624
0.55667967 0.5963483 0.6329205 0.4983573 0.5648346 0.5855358 0.5307774 0.56639296
0.6152583 0.69477266 0.61337507 0.67209417 0.48809788 0.56568825 0.61056787 0.5571311
0.5880327 0.5751091 0.5971931 0.5883481 0.5924503 0.6697066 0.64371544 0.6289943
0.56031424 0.5644561 0.58690643 0.62171775 0.5029858 0.5825558 0.5147368 0.5985413
0.65588254 0.59324235 0.6703709 0.63118446 0.5517284 0.51647884 0.61073506 0.6826284
0.7509726 0.48274794 0.5112755 0.52286524 0.6834562 0.56442475 0.5845162 0.64613914
0.54538816 0.47367218 0.65335476 0.5721065 0.55101126 0.55362105 0.7057765 0.6243782
0.60221297 0.6293469 0.5672197 0.51342595 0.5741306 0.5677006 0.6054105 0.6026798
0.5364007 0.56725353 0.69026643 0.5108667 0.5190519 0.49286455 0.5756762 0.5371705
0.72585964 0.6509014 0.55460864 0.54375476 0.6723212 0.6410261 0.5708492 0.6854056
0.7888775 0.57788706 0.51428086 0.6037082 0.50555086 0.5231517 0.5674426 0.5076939
00000000: 7625 013f de78 013f 208e 2a3f bae7 303f
00000010: d034 113f 3f6f 1d3f f672 ee3e c8ec 103f
00000020: 2368 0d3f ce70 013f 1220 1f3f 2c65 0c3f
00000030: bd5e 1e3f 0955 103f 485a d13e 7be8 0b3f
00000040: 53e8 2c3f e999 fa3e b529 1e3f 6040 153f
00000050: a52c 0e3f d658 1a3f 80a7 113f fae5 383f
00000060: 4a82 173f 282f 0b3f e755 053f 87cb 1e3f
00000070: aa97 363f 5650 1c3f d52d 313f d529 023f
00000080: 8e0f 273f 35a2 213f 109d 373f 979a 063f
00000090: 16a8 2b3f 9680 113f 17d4 213f 17bd 063f
000000a0: 89e8 0f3f 9098 093f a2e1 0c3f 1ab4 163f
000000b0: ff47 0c3f bf90 283f 02fc 133f 7522 183f
000000c0: 86cc ee3e bc10 033f 4609 043f a6a8 1d3f
000000d0: a9b0 ea3e 7e69 053f 5b57 183f 9934 023f
000000e0: 3bcd 0e3f 70b2 143f f833 f83e 4265 123f
000000f0: bb99 073f 31dd 173f 6f05 fc3e def1 053f
00000100: 85c2 013f b332 ed3e ad1e f73e 47f4 2f3f
00000110: b324 193f 3039 043f 8f1a 113f 7125 0c3f
00000120: ac6e 093f ad22 f83e e92a 253f c173 093f
00000130: e127 0e3f 3d67 d93e cd6c 053f 2126 233f
00000140: a832 213f a6f7 3d3f 54e3 113f 7772 0a3f
00000150: 8f12 083f 9390 0d3f b500 1c3f 92fc 093f
00000160: fb4a 1b3f 2739 183f 1919 133f 45e8 413f
00000170: d412 fc3e 8e4c 173f 255f 203f e4bb 0b3f
00000180: 544c 3b3f 0d08 e53e 3e75 ef3e be32 0d3f
00000190: ce32 123f 419e 153f ba2e 1d3f ed5b 1f3f
000001a0: b8fc 243f a576 233f f448 0a3f fd62 103f
000001b0: 2cef 0c3f 88f0 0d3f f1cf 0a3f a454 193f
000001c0: d77d cd3e 4397 333f 4dd6 243f 0bca 0c3f
000001d0: 5ce0 183f e791 e93e b125 023f 6d35 183f
000001e0: 5b12 1a3f 0f2d fc3e afc6 fd3e 7cbd 1e3f
000001f0: 6d5a 113f 5422 1c3f 6e58 053f 8884 f23e
00000200: 609e 133f 532d 213f b975 093f 6648 0d3f
00000210: 27a8 003f 2b7b 133f 4081 143f 52cd 133f
00000220: 2302 203f c73f 1a3f 2c09 0f3f 9e02 0e3f
00000230: f622 1f3f c1cf 023f 68fe 1c3f fb1d 103f
00000240: dd8e fa3e 1a45 153f eaf7 193f fb29 063f
00000250: 390d 2a3f c6cf 283f f149 183f bc66 053f
00000260: 2531 073f 2b2a 4f3f 4616 1d3f 1751 163f
00000270: 3ebe 2d3f e63e f03e 8ce4 fa3e e76f 353f
00000280: bd99 193f 5da1 163f b9a4 f43e 23c0 1d3f
00000290: a281 103f f3a4 ef3e 474c 283f 6c78 033f
000002a0: 8f82 0e3f 48aa 183f 1407 223f b028 ff3e
000002b0: 0099 103f ade5 153f 07e1 073f 21ff 103f
000002c0: 9181 1d3f 9fdc 313f 2606 1d3f 5d0e 2c3f
000002d0: f7e7 f93e f2d0 103f 2d4e 1c3f 25a0 0e3f
000002e0: 5089 163f 5a3a 133f a6e1 183f fb9d 163f
000002f0: d3aa 173f e471 2b3f 89ca 243f c505 213f
00000300: c170 0f3f 3280 103f 803f 163f e528 1f3f
00000310: adc3 003f 6022 153f cac5 033f 013a 193f
00000320: ebe7 273f bbde 173f 6d9d 2b3f 4e95 213f
00000330: 133e 0d3f f537 043f 2259 1c3f bcc0 2e3f
00000340: be3f 403f bd2a f73e f3e2 023f 7fda 053f
00000350: fcf6 2e3f 247e 103f dba2 153f 6069 253f
00000360: 8f9e 0b3f 2985 f23e 4242 273f 9275 123f
00000370: 130f 0d3f 1cba 0d3f c5ad 343f 40d7 1f3f
00000380: a12a 1a3f e11c 213f 4f35 113f e26f 033f
00000390: 39fa 123f d454 113f 2ffc 1a3f 3949 1a3f
000003a0: 8e51 093f 8737 113f 4db5 303f 29c8 023f
000003b0: 96e0 043f be58 fc3e 845f 133f 0284 093f
000003c0: f0d1 393f 79a1 263f d5fa 0d3f 8333 0b3f
000003d0: 3e1d 2c3f 491a 243f 2c23 123f be76 2f3f
000003e0: e0f3 493f 68f0 133f e9a7 033f 9f8c 1a3f
000003f0: c86b 013f 45ed 053f eb43 113f 3af8 013f

bn1.bias f4 [256]
-0.18275918 -0.3208723 -0.2599155 -0.19876407 -0.46760854 -0.3925543 -0.30658978 -0.27123627
-0.34327596 -0.28911194 -0.34427917 -0.34610745 -0.24255577 -0.27792394 -0.23094214 -0.3169837
-0.32854733 -0.30195603 -0.25499207 -0.19698544 -0.3398398 -0.24602254 -0.3315482 -0.3707612
-0.25705332 -0.27542138 -0.23241013 -0.22996746 -0.19803184 -0.1683136 -0.31712267 -0.17252026
-0.40968275 -0.27389553 -0.25540677 -0.35476142 -0.15958966 -0.3053503 -0.3747442 -0.38452798
-0.17854649 -0.29274228 -0.2810851 -0.15311134 -0.26735526 -0.29903758 -0.34891164 -0.30607355
-0.13755305 -0.2233565 -0.42177498 -0.35064578 -0.17252736 -0.15538238 -0.13563798 -0.37098223
-0.22095454 -0.32018927 -0.20789194 -0.19380724 -0.3860171 -0.31819484 -0.09952449 -0.28195202
-0.17416163 -0.23049672 -0.22738208 -0.08302916 -0.296475 -0.10614541 -0.540224 -0.29747036
-0.13795802 -0.33752093 -0.29232445 -0.29866594 -0.23235586 -0.25326884 -0.2710908 -0.22059074
-0.22029664 -0.46635613 -0.39331356 -0.29221004 -0.25779775 -0.17721382 -0.4945918 -0.22994363
-0.30362785 -0.31453648 -0.26109493 -0.31441075 -0.31014886 -0.3253239 -0.36949152 -0.3470083
-0.3666822 -0.124425635 -0.21245672 -0.4029847 -0.31907615 -0.29644024 -0.33344012 -0.25124308
-0.18235107 -0.26724145 -0.42498347 -0.3144743 -0.2867653 -0.21751752 -0.21418147 -0.33069438
-0.24268566 -0.12361344 -0.31488344 -0.3414447 -0.28703237 -0.24851714 -0.37310567 -0.16210938
-0.34789938 -0.1797408 -0.23980407 -0.27993762 -0.18729857 -0.23039052 -0.243429 -0.083548434
-0.3214469 -0.340955 -0.44291896 -0.28736892 -0.35371035 -0.4200434 -0.4037116 -0.35389698
-0.22881608 -0.21685588 -0.2724309 -0.2271103 -0.23283659 -0.3942672 -0.33128127 -0.35743672
-0.26645422 -0.3801724 -0.2751386 -0.34055543 -0.29580417 -0.35830018 -0.2920872 -0.2935404
-0.20224713 -0.48011407 -0.4016379 -0.19836275 -0.3450667 -0.00084719213 -0.37530473 -0.41146278
-0.2700784 -0.20298104 -0.20257966 -0.115830906 -0.19217585 -0.14691086 -0.3306732 -0.25937915
-0.24926855 -0.31042325 -0.28225544 -0.40744162 -0.30730405 -0.22334363 -0.28418854 -0.30788893
-0.2530183 -0.28278652 -0.36076885 -0.17406306 -0.3023604 -0.31653523 -0.2367067 -0.43871897
-0.32449135 -0.41826066 -0.47410646 -0.25759357 -0.29096073 -0.24209833 -0.24717404 -0.18222515
-0.35566977 -0.31717035 -0.19726801 -0.23307422 -0.15279926 -0.3588071 -0.3906377 -0.3111661
-0.288071 -0.29183695 -0.2894833 -0.32302275 -0.30784783 -0.32507226 -0.28655064 -0.29303256
-0.30497006 -0.4155231 -0.39905235 -0.4005105 -0.2279719 -0.17178065 -0.45704013 -0.5074772
-0.20640989 -0.25440484 -0.23988079 -0.20617567 -0.50659055 -0.2952384 -0.29639515 -0.23059702
-0.36393884 -0.31680933 -0.3165517 -0.38775247 -0.13585564 -0.34301728 -0.28641757 -0.28207818
-0.15370658 -0.15681036 -0.18282849 -0.25318334 -0.085017346 -0.21416397 -0.24028443 -0.10395122
-0.33228844 -0.34742856 -0.2375626 -0.15485395 -0.3384746 -0.24327645 -0.37489578 -0.39095742
-0.33015877 -0.190295 -0.3308559 -0.31347513 -0.32665548 -0.18334629 -0.27691767 -0.29582864
00000000: 3925 3bbe 6049 a4be a513 85be cf88 4bbe
00000010: 636a efbe e1fc c8be 56f9 9cbe 7bdf 8abe
00000020: dec1 afbe 7b06 94be 5c45 b0be ff34 b1be
00000030: 8a60 78be 0c4c 8ebe 197c 6cbe b04b a2be
00000040: 5b37 a8be fb99 9abe 528e 82be 8db6 49be
00000050: 7bff adbe 55ed 7bbe b0c0 a9be 69d4 bdbe
00000060: 7e9c 83be 0804 8dbe ecfc 6dbe 977c 6bbe
00000070: dcc8 4abe 665a 2cbe e75d a2be 27a9 30be
00000080: f0c1 d1be 093c 8cbe adc4 82be 4aa3 b5be
00000090: 796b 23be e056 9cbe 79de bfbe dae0 c4be
000000a0: e4d4 36be 51e2 95be 63ea 8fbe 38c9 1cbe
000000b0: cae2 88be 741b 99be 8ca4 b2be acb5 9cbe
000000c0: b5da 0cbe 91b7 64be e4f2 d7be d887 b3be
000000d0: 03ab 30be 8f1c 1fbe afe4 0abe 62f1 bdbe
000000e0: e841 62be d9ef a3be a0e1 54be 6875 46be
000000f0: 09a4 c5be 6fea a2be 7fd3 cbbd 045c 90be
00000100: 6d57 32be 5507 6cbe d9d6 68be 310b aabd
00000110: 92cb 97be c462 d9bd 1f4c 0abf 094e 98be
00000120: de44 0dbe 8bcf acbe 8dab 95be beea 98be
00000130: b2ee 6dbe 74ac 81be 6acc 8abe 8ae2 61be
00000140: 7195 61be 3bc6 eebe 6560 c9be 8e9c 95be
00000150: 11fe 83be 8a77 35be 233b fdbe 5876 6bbe
00000160: 1c75 9bbe ed0a a1be 3cae 85be 72fa a0be
00000170: d5cb 9ebe db90 a6be fe2d bdbe 12ab b1be
00000180: c5bd bbbe ded2 febd 418e 59be 0354 cebe
00000190: f35d a3be 04c7 97be aab8 aabe efa2 80be
000001a0: 3dba 3abe dfd3 88be 6f97 d9be c702 a1be
000001b0: e7d2 92be eabc 5ebe 6352 5bbe c650 a9be
000001c0: 9782 78be 0b29 fdbd 6738 a1be d7d1 aebe
000001d0: e8f5 92be 477b 7ebe b507 bfbe 0000 26be
000001e0: de1f b2be f90d 38be 338f 75be fc53 8fbe
000001f0: 32cb 3fbe 7eeb 6bbe 7445 79be 711b abbd
00000200: b094 a4be a791 aebe 46c6 e2be 0522 93be
00000210: 8619 b5be ee0f d7be 49b3 cebe fc31 b5be
00000220: c34e 6abe 780f 5ebe 107c 8bbe 9a8f 68be
00000230: b76c 6ebe 64dd c9be b39d a9be f201 b7be
00000240: b06c 88be f5a5 c2be f7de 8cbe 485d aebe
00000250: a573 97be 1f73 b7be 748c 95be ed4a 96be
00000260: df19 4fbe 83d1 f5be 7ca3 cdbe 9b1f 4bbe
00000270: 95ac b0be 1a16 5eba f127 c0be 40ab d2be
00000280: b747 8abe 43da 4fbe 0b71 4fbe c138 edbd
00000290: bfc9 44be cd6f 16be ff4d a9be 58cd 84be
000002a0: 4140 7fbe ccef 9ebe c983 90be 309c d0be
000002b0: f556 9dbe 31b4 64be 2981 91be 9ea3 9dbe
000002c0: 9d8b 81be 65c9 90be b2b6 b8be 963d 32be
000002d0: fbce 9abe e810 a2be 3e63 72be c69f e0be
000002e0: bb23 a6be 4326 d6be 15be f2be 4ee3 83be
000002f0: cef8 94be a0e8 77be 311b 7dbe 3b99 3abe
00000300: 591a b6be 2764 a2be a000 4abe 02ab 6ebe
00000310: 6977 1cbe 90b5 b7be aa01 c8be 2a51 9fbe
00000320: 0b7e 93be a76b 95be 2837 94be 3d63 a5be
00000330: 3b9e 9dbe df6f a6be c4b6 92be 5d08 96be
00000340: 0925 9cbe 72bf d4be 9750 ccbe b60f cdbe
00000350: 7771 69be 44e7 2fbe 2a01 eabe 07ea 01bf
00000360: 1d5d 53be 5a41 82be 4fa3 75be b71f 53be
00000370: ebaf 01bf 7d29 97be 1bc1 97be a021 6cbe
00000380: 3156 babe d534 a2be 1013 a2be 7e87 c6be
00000390: be1d 0bbe f69f afbe 53a5 92be 8d6c 90be
000003a0: 4265 1dbe e592 20be 6437 3bbe 3fa1 81be
000003b0: 931d aebd cd4d 5bbe 1f0d 76be 61e4 d4bd
000003c0: b621 aabe 28e2 b1be 9c43 73be 0992 1ebe
000003d0: 8b4c adbe 761d 79be 57f2 bfbe 922b c8be
000003e0: 920a a9be b1dc 42be f265 a9be d07f a0be
000003f0: 633f a7be 21bf 3bbe 27c8 8dbe da76 97be

bn1.running_mean f4 [256]
0.0016939031 -0.0043749297 -0.0026039695 0.0011221884 -0.001201592 0.0030495676 -0.00089254155 -0.0018728955
0.005182267 -0.0020074795 0.001116816 -0.0015357446 0.0024499032 -0.005687607 -0.0034578375 -0.004629453
-0.0015642795 0.0048554745 -0.0006276534 -0.00023422763 -0.0054424005 0.00034487766 0.00083757174 -0.0029404552
0.0134785455 -0.002242908 -0.0013500442 -0.0023012643 0.00087841006 -0.0070796194 0.0018496928 0.0074075786
-0.0016267985 -0.006093522 0.0025685688 -0.0044295485 0.0053650187 -0.0023645477 -0.0045524905 0.00084664876
-0.0003227721 -0.002874817 0.0032290837 0.0045501646 0.0052019176 -0.0034133254 -0.0038659417 0.002419589
-0.002161392 -0.0018407598 -0.0015718165 0.0049384222 -0.0036372957 0.0032520327 -0.00096879405 -0.0064112
0.0011102416 -0.0038845558 -0.0053098495 -0.0030556081 -0.008246883 -0.0029613576 0.0074938233 0.0024918676
-0.006766663 -0.0073655015 -0.005328077 -0.0012137853 0.001869892 -0.0023799117 0.00027226313 -0.0073128017
-0.0032157851 -0.0032836625 0.004113792 0.0016108862 -0.004111873 -0.0036555938 0.003404945 0.0019768297
-8.196804e-05 -0.0015669958 -0.006813721 0.0007989225 0.0097295 -0.005563621 -0.000433838 -0.005376905
-0.0071465145 0.0037613206 2.4525774e-05 -0.0058556134 0.00844173 -0.0021977045 -0.0016974115 -0.001430616
-0.0028527845 -0.0022552388 -0.0022102962 -0.002304032 -0.005030788 -0.008837552 0.0018717282 -0.00048125215
-0.0007635473 -0.006066304 -0.0010138779 0.0023796367 -0.0025527752 -0.00040889022 -0.0011933759 0.0031936956
0.0021795041 -0.0016719492 0.0037666296 0.0024666844 0.002530818 -0.0069767814 -0.00022837578 0.0037685495
-0.0017463355 -0.0061672977 -0.00402664 0.0009750983 -0.0023101037 -0.0001162368 -0.0014274719 0.0016194347
0.001075763 -0.0007280278 -0.0016324776 0.00048379347 -0.003310347 0.0010899602 -0.00049130927 -0.001461103
-0.0019484174 0.0022882356 -0.007753506 -0.0022264125 -0.0035514766 -0.0033099297 0.0042138635 0.0020234925
0.0027549784 -0.0014225511 -0.001625946 0.0025162396 -0.006443622 -0.0023955663 -5.3497126e-05 -0.00756819
-0.006037385 -0.0015356804 0.0003779583 -0.0001822422 0.0069308667 -9.143819e-05 0.0010851724 -0.0020589118
0.0034058322 0.00155979 6.53863e-05 -0.002880551 -0.0030571774 -0.0022672021 -0.003787256 0.00070764904
0.0015305799 0.0046565593 -0.00031018176 -0.003296857 -0.0071807676 -0.0053033754 -0.00012469332 -0.0018550123
-0.0023746442 -0.005185997 -0.003932433 0.0015070885 -0.006703842 0.0074315006 0.0038537267 0.0019555616
-0.0003405503 -0.0028537537 0.0015981768 -0.0022010794 -0.0017107493 -0.00026215104 -0.0047838343 0.0019244686
0.005789092 -0.002724422 0.0048287166 0.0016978643 0.0030554987 -0.0005920743 0.001167255 0.0049712528
0.0010952855 0.00042661873 -0.0041849446 -0.0013845878 -0.0004664574 -0.0011137008 0.0013052132 -0.002920952
-0.0034092148 -0.0021231505 0.0007708862 -0.0042088185 -0.0040984266 -0.0026059165 -7.995433e-05 -0.0013021694
0.005850867 -0.0009287989 0.0047811354 0.0033928512 -0.0043152403 -0.0006124791 -0.0012278169 0.0036214457
-0.00042449232 0.00225804 0.005492752 -0.0056000645 0.0056202323 0.0042103394 -0.0014429184 0.00078526646
-0.0029843843 0.0048569986 0.0021743458 -0.0010344769 -0.002310334 0.0012600827 -7.567495e-05 -0.0051564067
-0.0046551167 -3.4057641e-06 -0.0023848382 0.0017880044 0.0036984577 -0.0015777701 -0.006778028 -0.0061960556
-0.0033002517 0.005049561 0.004980617 -0.0025569126 0.00086508616 -0.0030159138 -0.00086015434 0.0043038605
00000000: f505 de3a 925b 8fbb 5ca7 2abb 6516 933a
00000010: bd7e 9dba 41db 473b 73f9 69ba f27b f5ba
00000020: 02d0 a93b eb8f 03bb 2062 923a 0a4b c9ba
00000030: 8e8e 203b 1b5f babb e39c 62bb abb2 97bb
00000040: 8308 cdba ac1a 9f3b 1b89 24ba 009b 75b9
00000050: 2a56 b2bb b2d0 b439 7d90 5b3a a7b4 40bb
00000060: 1ed5 5c3c c1fd 12bb f7f3 b0ba cfd0 16bb
00000070: 1a45 663a 27fc e7bb 6471 f23a 46bb f23b
00000080: 4d3a d5ba 2bac c7bb 6f55 283b bf25 91bb
00000090: 0acd af3b 87f6 1abb 0f2d 95bb a3f1 5d3a
000000a0: bd39 a9b9 6d67 3cbb 099f 533b 8c19 953b
000000b0: d974 aa3b 19b2 5fbb bd5b 7dbb f891 1e3b
000000c0: 24a6 0dbb a645 f1ba 6905 ceba 7dd2 a13b
000000d0: b25f 6ebb 0e20 553b abf6 7dba 0b15 d2bb
000000e0: 8785 913a 0894 7ebb 3ffe adbb 9940 48bb
000000f0: ef1d 07bc 5613 42bb bf8e f53b 9a4e 233b
00000100: e2ba ddbb 4e5a f1bb 2697 aebb e017 9fba
00000110: 2a17 f53a 4bf8 1bbb 8abe 8e39 3aa0 efbb
00000120: ecbf 52bb b732 57bb fdcc 863b 5f24 d33a
00000130: e4bc 86bb b092 6fbb 7f25 5f3b b38d 013b
00000140: 42e6 abb8 a763 cdba a245 dfbb c86e 513a
00000150: 7b68 1f3c 094f b6bb c074 e3b9 c030 b0bb
00000160: 4f2d eabb 7d80 763b b3bc cd37 72e0 bfbb
00000170: 2f4f 0a3c 5d07 10bb ae7b deba 8283 bbba
00000180: c8f5 3abb a1cc 13bb 9eda 10bb 3eff 16bb
00000190: 4fd9 a4bb 61cb 10bc c754 f53a 9250 fcb9
000001a0: cb28 48ba d9c7 c6bb 19e4 84ba aef3 1b3b
000001b0: 764c 27bb 5160 d6b9 0d6b 9cba 524d 513b
000001c0: 03d6 0e3b 4e25 dbba 8fd9 763b 19a8 213b
000001d0: 15dc 253b 7c9d e4bb 2878 6fb9 c5f9 763b
000001e0: 4ce5 e4ba 0b17 cabb e8f1 83bb bd9d 7f3a
000001f0: 1c65 17bb 28c4 f3b8 021a bbba 3643 d43a
00000200: 9e00 8d3a 1ed9 3eba dcf8 d5ba a9a5 fd39
00000210: 68f2 58bb ffdc 8e3a 35cb 00ba 7b82 bfba
00000220: 0a62 ffba 39f6 153b 1f11 febb 01e9 11bb
00000230: e4bf 68bb 68eb 58bb 7314 8a3b 929c 043b
00000240: de8c 343b e574 baba b21d d5ba 7fe7 243b
00000250: 0525 d3bb effe 1cbb 1a62 60b8 94fe f7bb
00000260: 42d5 c5bb e248 c9ba b428 c639 4518 3fb9
00000270: 531c e33b 81c2 bfb8 583c 8e3a cfee 06bb
00000280: 6234 5f3b de71 cc3a 0120 8938 a0c7 3cbb
00000290: ed5a 48bb 5795 14bb 9d33 78bb 8681 393a
000002a0: bd9d c83a 0d96 983b e49f a2b9 1510 58bb
000002b0: a54c ebbb f0c7 adbb 1cc0 02b9 e223 f3ba
000002c0: eb9f 1bbb 4cef a9bb a4db 80bb 8089 c53a
000002d0: e7ab dbbb f283 f33b ce8e 7c3b e128 003b
000002e0: e38b b2b9 0b06 3bbb ea79 d13a fc3f 10bb
000002f0: 393b e0ba 5171 89b9 b6c1 9cbb 733e fc3a
00000300: 6cb2 bd3b 378c 32bb 363a 9e3b df8a de3a
00000310: c33e 483b 6f35 1bba 94fe 983a e4e5 a23b
00000320: af8f 8f3a ccab df39 dc21 89bb 0f7b b5ba
00000330: da8e f4b9 99f9 91ba b013 ab3a 716d 3fbb
00000340: 226d 5fbb 8e24 0bbb 4c15 4a3a 21ea 89bb
00000350: 184c 86bb 06c8 2abb 27ad a7b8 8ead aaba
00000360: a1b8 bf3b a47a 73ba 12ab 9c3b 995a 5e3b
00000370: dc66 8dbb c78e 20ba b3ee a0ba c755 6d3b
00000380: 658e deb9 a0fb 133b 8bfc b33b bf80 b7bb
00000390: ed29 b83b e3f6 893b 4f20 bdba 57da 4d3a
000003a0: a995 43bb 7527 9f3b 787f 0e3b 4997 87ba
000003b0: f968 17bb 5c29 a53a aeb3 9eb8 13f7 a8bb
000003c0: f389 98bb 958e 64b6 f24a 1cbb 795b ea3a
000003d0: d361 723b 2ecd ceba 381a debb 4808 cbbb
000003e0: 0949 58bb ca76 a53b 7234 a33b e091 27bb
000003f0: f3c6 623a a3a6 45bb fb7b 61ba 6607 8d3b

bn1.running_var f4 [256]
0.29946333 0.23953834 0.17371657 0.16118394 0.08913951 0.40128908 0.1640939 0.131916
0.1625183 0.23040876 0.17794088 0.18731566 0.21702784 0.2639046 0.23041081 0.17455055
0.110015884 0.15843761 0.10641698 0.23762566 0.21564642 0.21930303 0.109266706 0.20856144
0.27447528 0.13900709 0.1962071 0.27188662 0.20638616 0.1747689 0.21395673 0.21531558
0.08620771 0.19548896 0.14630273 0.23306662 0.112433225 0.15249619 0.38894355 0.24842355
0.24044596 0.16921043 0.16055429 0.19259654 0.34966668 0.29529387 0.18915403 0.1245712
0.26158804 0.15972137 0.21963395 0.15682058 0.23484963 0.24967661 0.19825412 0.18631165
0.24626207 0.20049028 0.19340953 0.13751456 0.26870224 0.123292334 0.23028669 0.13172221
0.21758763 0.13133079 0.2711182 0.23123372 0.15378463 0.15785302 0.117779024 0.19751197
0.16163464 0.16428779 0.1594794 0.12565231 0.19511801 0.31811148 0.21483177 0.16958295
0.27408412 0.34602585 0.14032061 0.13402463 0.2611199 0.26444653 0.1298604 0.2570774
0.17084827 0.08843131 0.1904311 0.36821523 0.15499984 0.18406165 0.3318541 0.19799627
0.24876457 0.2192463 0.20733157 0.20706962 0.110263556 0.23999852 0.12650283 0.1524029
0.20254126 0.1262697 0.2005121 0.15616277 0.19658507 0.17619811 0.24038997 0.24872175
0.20595701 0.21043889 0.20251703 0.20072174 0.21161565 0.24894932 0.14269888 0.3602626
0.15685758 0.2382844 0.2603145 0.13584532 0.17246266 0.13441645 0.36168763 0.43636924
0.27649954 0.17561209 0.18538438 0.30810258 0.22564436 0.090152174 0.09625677 0.257164
0.1110105 0.3050304 0.22696401 0.16447496 0.21996504 0.23562175 0.17326155 0.06373918
0.118473694 0.21386397 0.1923598 0.19711909 0.5610531 0.2908459 0.15032475 0.22278512
0.27569783 0.35777265 0.1697461 0.17842814 0.21214649 0.20506482 0.19234277 0.30832726
0.14105125 0.13138038 0.27845156 0.3208944 0.17062135 0.18540259 0.14458065 0.2741456
0.22975318 0.09224908 0.13355225 0.23897836 0.18611228 0.1733741 0.24101147 0.30143818
0.2669868 0.18811062 0.2105977 0.22824758 0.33905625 0.16933924 0.13675378 0.3429729
0.1660709 0.25703323 0.17404181 0.22360924 0.1745607 0.16781129 0.22477955 0.26166207
0.16052867 0.21529672 0.31085983 0.104088515 0.1286605 0.17116603 0.18715656 0.12881057
0.18495537 0.2626078 0.347953 0.119890235 0.1252295 0.32301348 0.29582056 0.1983051
0.2161408 0.26873618 0.14453249 0.31832966 0.20382945 0.17254762 0.2728715 0.1603995
0.24038266 0.2393904 0.16693163 0.17795822 0.24293709 0.14697772 0.11872116 0.2075543
0.26343068 0.09839292 0.25790814 0.27972668 0.345199 0.15292531 0.11055124 0.21783037
0.20469736 0.12068738 0.13950235 0.19591919 0.16265969 0.16708481 0.1290604 0.19848901
0.38857985 0.20612064 0.14628969 0.10918435 0.13563418 0.19444084 0.20454901 0.48375708
0.21499185 0.178155 0.3172998 0.13051048 0.16760017 0.20746933 0.1687119 0.21872433
00000000: 4253 993e 8a49 753e c2e2 313e 670d 253e
00000010: c78e b63d c375 cd3e 3b08 283e fd14 073e
00000020: 326b 263e 46f0 6b3e 2236 363e adcf 3f3e
00000030: 8c3c 5e3e 811e 873e d0f0 6b3e 61bd 323e
00000040: 0250 e13d 783d 223e 25f1 d93d 2454 733e
00000050: 6ad2 5c3e f990 603e 39c7 df3d 2191 553e
00000060: 0688 8c3e e057 0e3e 84ea 483e b934 8b3e
00000070: e556 533e 9ef6 323e 7917 5b3e b07b 5c3e
00000080: ab8d b03d 422e 483e 62d0 153e 04a9 6e3e
00000090: 6443 e63d f627 1c3e 9c23 c73e be62 7e3e
000000a0: 7737 763e 8045 2d3e 5868 243e 0738 453e
000000b0: 8307 b33e c230 973e 98b1 413e 2f1f ff3d
000000c0: deee 853e 008e 233e b9e7 603e 9395 203e
000000d0: 6c7c 703e 3aab 7f3e 2103 4b3e 7bc8 3e3e
000000e0: 202c 7c3e 534d 4d3e 260d 463e 9ed0 0c3e
000000f0: 5793 893e b180 fc3d 46d0 6b3e 30e2 063e
00000100: 4bcf 5e3e 947b 063e 01d0 8a3e 88c8 6c3e
00000110: b879 1d3e 39a4 213e 2136 f13d 9440 4a3e
00000120: 8d83 253e 0f3b 283e 914e 233e 00ab 003e
00000130: 04cd 473e 82df a23e dcfc 5b3e 27a7 2d3e
00000140: c154 8c3e 4d2a b13e 35b0 0f3e c13d 093e
00000150: 82b1 853e 8965 873e 20fa 043e a69f 833e
00000160: d9f2 2e3e 7a1b b53d 5f00 433e b586 bc3e
00000170: 47b8 1e3e a87a 3c3e c8e8 a93e 89bf 4a3e
00000180: 24bc 7e3e 1a82 603e ba4e 543e 0f0a 543e
00000190: dcd1 e13d 2cc2 753e f589 013e 810f 1c3e
000001a0: fa66 4f3e d84c 013e 0b53 4d3e 22e9 1f3e
000001b0: 994d 493e 476d 343e ca28 763e eab0 7e3e
000001c0: 65e6 523e 4b7d 573e a060 4f3e 008a 4d3e
000001d0: c6b1 583e 92ec 7e3e a81f 123e 5774 b83e
000001e0: 469f 203e d300 743e f147 853e 091b 0b3e
000001f0: 0d9a 303e 77a4 093e 1f2f b93e ca6b df3e
00000200: 5991 8d3e a8d3 333e 67d5 3d3e 9fbf 9d3e
00000210: 510f 673e b4a1 b83d 4522 c53d 00ab 833e
00000220: 7959 e33d f22c 9c3e 4169 683e 206c 283e
00000230: 843e 613e d446 713e 7a6b 313e b089 823d
00000240: 56a2 f23d 28ff 5a3e f8f9 443e 96d9 493e
00000250: 2da1 0f3f c1e9 943e bbee 193e c821 643e
00000260: 4428 8d3e fa2d b73e ecd1 2d3e deb5 363e
00000270: ee3c 593e 83fc 513e 81f5 443e 12dd 9d3e
00000280: bd6f 103e 9488 063e 3491 8e3e 454c a43e
00000290: 5db7 2e3e 2dda 3d3e f30c 143e d05c 8c3e
000002a0: 6b44 6b3e 16ed bc3d ecc1 083e beb6 743e
000002b0: 3894 3e3e fb88 313e b6cb 763e 1b56 9a3e
000002c0: 7eb2 883e 12a0 403e eca6 573e bcb9 693e
000002d0: c898 ad3e 4467 2d3e 2f09 0c3e 259a af3e
000002e0: 7d0e 2a3e dc99 833e 0438 323e d2f9 643e
000002f0: 0ac0 323e b9d6 2b3e 9c2c 663e 92f8 853e
00000300: a161 243e be76 5c3e 0529 9f3e 5c2c d53d
00000310: 94bf 033e 2646 2f3e f8a5 3f3e ebe6 033e
00000320: f164 3d3e 8874 863e e526 b23e 0389 f53d
00000330: 293c 003e 0662 a53e cb75 973e 7e10 4b3e
00000340: 0454 5d3e ca97 893e 5300 143e 1bfc a23e
00000350: abb8 503e 53b0 303e d0b5 8b3e c43f 243e
00000360: df26 763e c222 753e 20f0 2a3e ae3a 363e
00000370: 80c4 783e 5481 163e 1424 f33d 1d89 543e
00000380: 63e0 863e 3a82 c93d 890c 843e 5638 8f3e
00000390: ecbd b03e 7498 1c3e b068 e23d ed0e 5f3e
000003a0: 2f9c 513e f22a f73d b4d9 0e3e 0a9f 483e
000003b0: 4390 263e 4818 2b3e 6928 043e b440 4b3e
000003c0: f0f3 c63e 4a11 533e f7cc 153e 0b9c df3d
000003d0: b0e3 0a3e 801b 473e 4c75 513e 02af f73e
000003e0: d326 5c3e 446e 363e 1f75 a23e 8aa4 053e
000003f0: 619f 2b3e d772 543e d0c2 2c3e 45f9 5f3e

fc2.weight f4 [128, 256]
0.00030337888 -0.018746901 -0.033266462 0.024623925 -0.013415832 -0.010759743 -0.03634619 0.0042588483
-0.018423824 -0.010085989 0.022320438 -0.10271638 0.016033541 -0.07763457 -0.010234983 -0.013397581
0.0114185875 0.033987258 0.014523183 0.050147098 -0.050811067 0.013297 -0.06226798 -0.039382983
-0.0072319643 -0.020162452 -0.079030156 0.020732036 -0.053196713 0.014634705 -0.030171545 -0.037008733
0.0076007536 0.021948189 0.018943284 0.0025718822 0.03211598 -0.018974917 -0.069489144 -0.0790588
0.0017629227 0.02865364 -0.019847041 -0.01760384 0.0011159229 0.024116574 0.0025577734 0.009173858
-0.007780724 0.01693706 0.020396551 -0.114463754 -0.015422577 0.023725642 -0.008453377 0.04174369
-0.010458062 -0.009568762 0.017115274 -0.0021986542 0.02295629 0.109653376 -0.0063221436 -0.0852613
0.062453397 0.027637731 0.031657606 0.053255748 0.026424013 0.0020099068 -0.023839934 -0.0041065747
0.026752783 0.009016215 -0.10849031 0.013727329 -0.043326024 -0.057450753 0.0032150361 -0.0094972355
-0.03667145 -0.04208019 -0.016319511 -0.09780024 -0.013699183 0.010601435 -0.029656231 0.059744723
-0.058152527 -0.11621654 0.03894535 -0.011505933 0.009693879 -0.0246606 -0.058052324 0.03055066
-0.048669767 -0.0037899357 -0.08118686 -0.011093655 -0.036623284 -0.012526172 0.073152296 -0.05064611
-0.04640622 -0.045106508 -0.05300263 0.04814686 -0.003050135 -0.061134797 0.05978427 0.0212508
-0.04576711 -0.00060225837 -0.00032947824 0.008581043 0.01706525 0.0227584 -0.000923599 -0.011757811
0.016760068 -0.07764119 -0.04591697 -0.0027962178 -0.024363132 -0.04323177 -0.00086944824 -0.019097056
-0.092645355 0.040672395 -0.022232277 -0.050986983 -0.025752567 -0.007330982 -0.0054786904 0.001123122
0.018737182 -0.01397361 -0.0028741576 0.023298215 -0.048379518 0.003515989 0.020257637 -0.0011049003
0.016949993 0.017927952 0.008146333 0.012803832 -0.04511902 0.016037155 -0.0417906 -0.05499118
-0.009278163 -0.09034259 0.018085161 0.04331654 0.0037782453 -0.008707885 0.017536229 -0.01524143
0.045239616 -0.0111705195 0.01727868 -0.0328008 -0.0076816664 0.00039376097 0.024055427 -0.074454255
0.011164815 -0.13011491 -0.006649439 -0.02024324 -0.041437145 0.021195738 0.053736474 0.0128329955
0.0003817001 -0.0024279137 -0.048614074 0.013424051 0.037796903 0.024334893 0.0040847724 0.05443178
0.0010742501 0.0021565186 0.031792965 0.022397289 -0.03689576 0.018072171 0.038021013 0.031961713
-0.0069429083 -0.08129376 -0.055997994 -0.01683797 -0.05831614 0.011127063 -0.033067904 -0.006530347
0.011784948 -0.05214636 -0.025541186 0.0073617008 -0.08109186 -0.010918823 -0.002870153 -0.007322517
0.0077874204 0.05979625 0.082858816 -0.074254796 -0.037065692 -0.053935736 -0.016472388 0.05158642
-0.014694796 -0.0030962646 0.046631116 -0.061336678 0.02734643 -0.13084866 0.016591305 -0.00017542487
0.0447425 0.023646343 0.008862371 0.058686517 0.030580757 -0.04904672 0.06440354 0.041803192
0.013175484 -0.12091126 -0.01889183 -0.00587455 0.016001467 -0.031597756 0.07831863 0.052357927
-0.014137097 -0.023387954 -0.028482659 -0.0036593194 0.009530202 -0.0037695707 0.034623973 -0.05576562
-0.024654752 0.010566241 0.023541937 0.0099073 -0.03403116 -0.020434601 0.022028275 -0.0034957104
00000000: d30e 9f39 1a93 99bc 6a42 08bd 1db8 c93c
00000010: 14ce 5bbc a249 30bc bedf 14bd cf8d 8b3b
00000020: 8fed 96bc b43f 25bc 5ad9 b63c f75c d2bd
00000030: c658 833c e0fe 9ebd a1b0 27bc 8781 5bbc
00000040: 0715 3b3c 3936 0b3d a5f2 6d3c 0b67 4d3d
00000050: 441f 50bd a9db 593c b60c 7fbd 0d50 21bd
00000060: 1dfa ecbb ba2b a5bc 90da a1bd 3bd6 a93c
00000070: cce4 59bd 67c6 6f3c 512a f7bc 7896 17bd
00000080: be0f f93b b0cc b33c f22e 9b3c 068d 283b
00000090: 0c8c 033d 4971 9bbc 5350 8ebd 95e9 a1bd
000000a0: df11 e73a 0abb ea3c 4396 a2bc ee35 90bc
000000b0: 2944 923a 1f90 c53c 51a0 273b f34d 163c
000000c0: 72f5 febb 97bf 8a3c ab16 a73c f96b eabd
000000d0: faae 7cbc 475c c23c 0880 0abc 6efb 2a3d
000000e0: 4b58 2bbc 4cc6 1cbc 5535 8c3c 4c17 10bb
000000f0: d40e bc3c f391 e03d fc29 cfbb 7a9d aebd
00000100: 22cf 7f3d 8668 e23c 68ab 013d b322 5a3d
00000110: 2c77 d83c a4b8 033b f74b c3bc 7290 86bb
00000120: a728 db3c bfb8 133c 2b30 debd 97e8 603c
00000130: a176 31bd 7b51 6bbd 5bb3 523b 4b9a 1bbc
00000140: cd34 16bd 475c 2cbd 7fb0 85bc 7e4b c8bd
00000150: 8a72 60bc a4b1 2d3c a0f1 f2bc e2b6 743d
00000160: 5831 6ebd f002 eebd 2985 1f3d 6183 3cbc
00000170: 13d3 1e3c 0705 cabc 46c8 6dbd 6145 fa3c
00000180: f359 47bd 9260 78bb 4c45 a6bd 29c2 35bc
00000190: 4c02 16bd 933a 4dbc dfd0 953d 4c72 4fbd
000001a0: 7314 3ebd 9ac1 38bd 4919 59bd a435 453d
000001b0: c6e4 47bb 7b68 7abd 5ae0 743d 2816 ae3c
000001c0: 4b76 3bbd e0e0 1dba d2bd acb9 8197 0c3c
000001d0: 6ccc 8b3c d36f ba3c ae1d 72ba d5a3 40bc
000001e0: 694c 893c 5802 9fbd 6f13 3cbd c040 37bb
000001f0: 3195 c7bc cc13 31bd afeb 63ba 6e71 9cbc
00000200: d9bc bdbd 1998 263d 7720 b6bc bad7 50bd
00000210: 0cf7 d2bc bc38 f0bb 9686 b3bb b935 933a
00000220: b87e 993c 91f1 64bc 5d5c 3cbb e6db be3c
00000230: 9a29 46bd 826c 663b 58f3 a53c 4dd2 90ba
00000240: b6da 8a3c a4dd 923c 3278 053c 2ac7 513c
00000250: b9ce 38bd 5a60 833c 9f2c 2bbd 6e3e 61bd
00000260: 7003 18bc 8905 b9bd 5527 943c af6c 313d
00000270: 709c 773b 84ab 0ebc 23a8 8f3c 31b7 79bc
00000280: 2d4d 393d 8e04 37bc 058c 8d3c 225a 06bd
00000290: 7db6 fbbb b471 ce39 e30f c53c 797b 98bd
000002a0: a1ec 363c d83c 05be 8ae3 d9bb 27d5 a5bc
000002b0: ffb9 29bd afa2 ad3c c71a 5c3d 7c41 523c
000002c0: ec1e c839 a21d 1fbb 8d1f 47bd 8df0 5b3c
000002d0: edd0 1a3d f859 c73c 8ed9 853b dcf3 5e3d
000002e0: dacd 8c3a 6154 0d3b 5739 023d 857a b73c
000002f0: 0220 17bd 170c 943c ecbb 1b3d 49ea 023d
00000300: 5681 e3bb 587d a6bd 275e 65bd c8ef 89bc
00000310: e8dc 6ebd 494e 363c 3672 07bd 85fc d5bb
00000320: a815 413c 6c97 55bd c03b d1bc 6c3a f13b
00000330: 7d13 a6bd dde4 32bc 2d19 3cbb baf1 efbb
00000340: 9e2d ff3b eaec 743d e2b1 a93d e612 98bd
00000350: 32d2 17bd b8eb 5cbd 1af1 86bc 484c 533d
00000360: 71c2 70bc b3ea 4abb 4500 3f3d 2b3c 7bbd
00000370: 9f05 e03c 31fd 05be 7dea 873c 41f2 37b9
00000380: e943 373d fab5 c13c 7a33 113c 4661 703d
00000390: 7f84 fa3c 37e5 48bd 01e6 833d d339 2b3d
000003a0: fcdd 573c 53a0 f7bd 0ac3 9abc 4c7f c0bb
000003b0: 8215 833c a66c 01bd 8565 a03d 4475 563d
000003c0: 489f 67bc 1898 bfbc 7754 e9bc 31d1 6fbb
000003d0: 9024 1c3c e70a 77bb ded1 0d3d 7e6a 64bd
000003e0: c3f8 c9bc 071e 2d3c 05db c03c 3a52 223c
000003f0: 4264 0bbd 7766 a7bc a474 b43c 4a18 65bb

fc2.bias f4 [128]
2.149538e-06 -4.0528903e-06 -7.942741e-06 2.56233e-06 -8.661629e-06 -9.21089e-06 1.5498953e-06 5.6535177e-06
3.468941e-06 4.0134063e-07 1.6485881e-06 6.227639e-06 4.4339236e-06 -3.9278393e-06 3.545351e-06 3.7202321e-06
8.094932e-06 -3.1097059e-06 -4.3695095e-06 2.967325e-07 -8.829968e-06 -2.6240775e-07 2.1783483e-06 1.3862564e-06
4.12956e-06 -8.627634e-06 3.0760991e-06 2.9094522e-06 -6.171243e-06 -8.116061e-07 -4.952715e-07 -9.0667945e-06
3.6078882e-06 -7.6654754e-07 -4.7606336e-06 1.0612339e-06 5.179949e-06 -2.1004255e-06 -5.998689e-07 8.436902e-06
-1.1956688e-07 7.65433e-06 4.3032844e-07 5.6358026e-06 3.8643466e-06 -1.4963823e-07 -1.7613138e-07 2.4552987e-06
-5.619069e-06 -2.6227503e-06 7.5835087e-06 -8.82544e-06 -3.0946446e-06 -1.0986399e-06 3.8275334e-06 9.106355e-06
5.0802455e-06 7.751405e-07 -1.972087e-06 1.073284e-06 -9.202407e-07 -3.783014e-06 2.9725873e-06 7.8829447e-07
1.002243e-06 -4.2102208e-08 -1.8599821e-06 -3.8093979e-06 -9.072436e-06 8.694529e-06 -1.9642218e-06 -1.2169006e-05
2.1273616e-05 9.340942e-07 1.023452e-06 5.5297073e-06 4.7677154e-06 5.2188275e-06 1.1747067e-05 -3.3159663e-06
4.8353453e-08 -3.0618532e-05 -1.477997e-05 -2.5374723e-06 -4.788059e-06 1.3049789e-06 -1.0226058e-06 5.2275914e-06
-2.098312e-07 1.6020944e-05 4.8588927e-06 1.7910545e-06 -1.06828675e-05 -2.8353978e-07 -9.05496e-06 2.9690934e-06
-1.2280082e-06 2.4994306e-06 -1.135815e-05 -2.449385e-06 -2.693653e-07 4.90383e-06 2.0848358e-06 -8.689332e-06
1.3920384e-05 -3.009195e-06 -5.0939143e-06 1.5193347e-06 -5.658761e-06 8.5289554e-07 1.4272227e-06 8.4957055e-06
8.975903e-06 1.0718168e-07 2.5408428e-06 -7.595991e-06 4.623078e-06 -6.398986e-06 -9.914214e-06 1.0967445e-05
-1.865147e-06 -4.9560804e-06 4.5951483e-06 -1.7892414e-07 8.724325e-06 -2.7018572e-07 6.9249727e-06 -6.2591266e-06
00000000: c840 1036 10fe 87b6 d041 05b7 7ff4 2b36
00000010: 6a51 11b7 7988 1ab7 ff05 d035 59b3 bd36
00000020: f4cb 6836 d677 d734 0e45 dd35 03f7 d036
00000030: 1dc7 9436 e2cb 83b6 abec 6d36 1aa9 7936
00000040: 78cf 0737 57b0 50b6 cd9d 92b6 9b4e 9f34
00000050: 6c24 14b7 0ce1 8cb4 bd2f 1236 680f ba35
00000060: a690 8a36 68bf 10b7 fb6e 4e36 0240 4336
00000070: 9312 cfb6 26dd 59b5 ccf2 04b5 961d 18b7
00000080: 0c1f 7236 bfc4 4db5 88bd 9fb6 b86f 8e35
00000090: 6ccf ad36 09f5 0cb6 ad06 21b5 388c 0d37
000000a0: 4b62 00b4 196b 0037 e407 e734 2d1b bd36
000000b0: 7caa 8136 3eac 20b4 a01e 3db4 b6c5 2436
000000c0: 6f8b bcb6 8202 30b6 d875 fe36 fa10 14b7
000000d0: 97ad 4fb6 fb74 93b5 436e 8036 7fc7 1837
000000e0: fa76 aa36 4013 5035 3258 04b6 c20d 9035
000000f0: 7606 77b5 b0df 7db6 a97c 4736 2f9b 5335
00000100: cf84 8635 ded3 34b3 80a4 f9b5 f5a4 7fb6
00000110: d135 18b7 b8de 1137 13d1 03b6 7c29 4cb7
00000120: be74 b237 77be 7a35 8b5d 8935 d38b b936
00000130: 5dfa 9f36 631d af36 4515 4537 de87 5eb6
00000140: 2fad 4f33 666c 00b8 7df7 77b7 7149 2ab6
00000150: 1da9 a0b6 bc26 af35 7840 89b5 ab68 af36
00000160: f64d 61b4 b764 8637 9209 a336 2a64 f035
00000170: 913a 33b7 6939 98b4 c2ea 17b7 a340 4736
00000180: 0ad2 a4b5 e4bb 2736 e28e 3eb7 1d60 24b6
00000190: 499d 90b4 948b a436 35e9 0b36 66c8 11b7
000001a0: 988b 6937 94f1 49b6 64ec aab6 f1eb cb35
000001b0: 63e0 bdb6 89f2 6435 008f bf35 c788 0e37
000001c0: 3697 1637 c02b e633 5983 2a36 11e1 feb6
000001d0: f01f 9b36 dfb6 d6b6 3a55 26b7 d100 3837
000001e0: f755 fab5 684c a6b6 0630 9a36 4b1e 40b4
000001f0: b15e 1237 0b0e 91b4 105d e836 7d05 d2b6
