feedforward_nn/model_saves/fnn_(512, 512)_4.pth (torch, 229892 bytes, 19 tensors)

fc1.weight f4 [256, 48]
-0.007231452 0.005486975 -0.044532288 -0.551897 0.1755748 0.05087653 0.012696097 0.0036850367
-0.019430084 -0.036793504 0.020112162 0.039931096 -0.045039102 -0.017108312 0.0064501595 0.059584267
0.020938821 0.0011306976 0.048371207 0.026552035 0.040848956 0.023975194 -0.058235407 -0.04066091
0.006869014 -0.09407337 0.0904503 -0.0045683887 0.015711552 -0.009451586 0.05537338 -0.10742217
0.051835965 -0.00941824 0.022409186 0.0021553563 0.010108673 -0.05425874 0.040990256 -0.06010788
0.048739795 0.01405533 -0.012301365 0.073832855 -0.07002409 -0.011809579 0.08742938 -0.08087886
-0.19597793 -0.04087634 0.031077122 0.074542485 -0.081587456 0.0008197956 -0.030152872 -0.03612366
-0.0612491 0.043514162 -0.061158765 -0.00033987127 -0.034154937 0.05444869 -0.045315195 -0.022706006
0.07464236 -0.03597687 0.016646428 -0.089343674 -0.024524389 -0.025299456 0.029473636 -0.030874917
-0.22626059 -0.005267722 -0.032024473 -0.03366288 0.11932246 -0.021828154 0.08179722 0.007893316
-0.05834888 -0.008926111 -0.045567658 0.062531814 -0.054560285 0.0077843587 -0.03336781 -0.00012549435
0.04871931 0.0112791695 -0.06219765 0.060901716 0.0856538 0.046708997 0.07008004 0.07269174
-0.12757875 -0.047951337 0.09177234 -0.05040608 0.17982045 -0.09677796 0.011275661 0.03791379
-0.19362044 -0.12935032 -0.03986334 0.015619968 -0.08138563 0.014078313 -0.008664932 0.023108464
0.10759597 -0.005574711 0.11246403 0.010131098 0.021976728 0.038832925 -0.048801035 -0.055589244
-0.077732876 0.0374546 0.08399355 0.019737296 -0.057859667 0.1251403 0.0963417 -0.061684404
0.06257036 0.0042319116 -0.038360715 0.06827902 0.041604478 -0.0033086892 -0.008087099 -0.09650341
0.07969582 -0.055962246 0.026729485 0.007933631 0.043967266 -0.0011275614 -0.014720918 -0.10064513
-0.07763513 -0.0735798 0.026811395 -0.23640037 0.05276892 -0.008893823 -0.07250247 0.053856675
-0.02010256 -0.26124033 -0.0051922565 -0.018309377 0.025440088 -0.080074854 -0.0057076896 0.024049204
-0.014828738 -0.0070105693 0.012177209 0.09213477 0.020761184 0.015152267 0.009518751 -0.052757774
-0.12443855 0.06352057 -0.040612992 -0.03561645 0.07307245 -0.064079106 -0.02297364 0.01973265
-0.12276704 0.00019172089 0.001920728 -0.014385602 0.02859487 0.0032522928 0.0178043 0.015954554
0.072675906 0.016005555 -0.0046007987 -0.026175506 0.019742427 0.034216776 -0.049539108 0.034717645
0.0060827355 0.051357094 -0.03149155 -0.22403347 -0.35696262 0.040134467 0.01229056 -0.02879743
-0.043124788 -0.07602627 -0.083178714 -0.015323586 0.010141107 -0.030125579 0.019149872 -0.011787875
0.024141042 0.049885314 -0.018078113 0.038517684 0.009172799 -0.0053914674 -0.038013443 -0.098923475
-0.019588364 0.055051178 -0.02292614 0.015816495 0.062103916 -0.057167232 0.006599634 -0.075279474
-0.082745396 -0.020231105 0.1124962 -0.0974554 -0.034555215 -0.0862087 0.07402319 -0.011637129
0.04506623 0.12425726 0.022127897 -0.023651551 0.0045948597 -0.0028564208 -0.034032717 0.042382184
-0.07266421 -0.08303156 -0.01947109 0.35481527 0.14481567 0.029551096 0.009512417 0.008821966
0.110403985 0.014568798 0.044575248 -0.11908473 -0.034060378 -0.024194872 -0.028196068 -0.039685637
00000000: d1f5 ecbb 15cc b33b 7d67 36bd 1f49 0dbf
00000010: e1c9 333e e963 503d 4a03 503c a880 713b
00000020: d72b 9fbc c9b4 16bd 43c2 a43c ca8e 233d
00000030: ec7a 38bd bb26 8cbc dc5b d33b a20e 743d
00000040: e487 ab3c ea33 943a e320 463d a783 d93c
00000050: 3c51 273d a067 c43c 4088 6ebd 0e8c 26bd
00000060: 7715 e13b 8aa9 c0bd 023e b93d 6cb2 95bb
00000070: 83b5 803c d3da 1abc 33cf 623d 2800 dcbd
00000080: f351 543d f64e 1abc 7893 b73c e140 0d3b
00000090: d99e 253c 6a3e 5ebd 66e5 273d ae33 76bd
000000a0: 61a3 473d 5448 663c aa8b 49bc ae35 973d
000000b0: ca68 8fbd f77c 41bc 2d0e b33d d1a3 a5bd
000000c0: 70ae 48be f36d 27bd 7395 fe3c bba9 983d
000000d0: 5317 a7bd 8de7 563a 2803 f7bc 67f6 13bd
000000e0: 56e0 7abd e83b 323d 9d81 7abd c030 b2b9
000000f0: 0ce6 0bbd 9705 5f3d 6d9c 39bd f201 babc
00000100: 18de 983d 7c5c 13bd 175e 883c d1f9 b6bd
00000110: 5fe7 c8bc ce40 cfbc b272 f13c 65ed fcbc
00000120: dbb0 67be db9c acbb 182c 03bd 17e2 09bd
00000130: 555f f43d f5d0 b2bc 4d85 a73d f852 013c
00000140: 3cff 6ebd d33e 12bc 27a5 3abd ae10 803d
00000150: 9b7a 5fbd ef13 ff3b afac 08bd 2297 03b9
00000160: e68d 473d 44cc 383c f7c2 7ebd 1474 793d
00000170: 426b af3d ef51 3f3d 2086 8f3d 68df 943d
00000180: 01a4 02be 9f68 44bd 23f3 bb3d 9b76 4ebd
00000190: da22 383e 8633 c6bd 8dbd 383c 7e4b 1b3d
000001a0: 7044 46be 6974 04be be47 23bd e5ea 7f3c
000001b0: 82ad a6bd b9a8 663c 5cf7 0dbc f64d bd3c
000001c0: 475b dc3d 11ac b6bb 8b53 e63d e8fc 253c
000001d0: 8a08 b43c 460f 1f3d 98e3 47bd 8cb1 63bd
000001e0: 6a32 9fbd ff69 193d cf04 ac3d 1cb0 a13c
000001f0: 42fe 6cbd c724 003e cc4e c53d c9a8 7cbd
00000200: e424 803d d9ab 8a3b 2020 1dbd dfd5 8b3d
00000210: 7569 2a3d 98d6 58bb c07f 04bc 94a3 c5bd
00000220: 9037 a33d ab38 65bd cbf7 da3c 0ffc 013c
00000230: 0517 343d afca 93ba 0130 71bc 091f cebd
00000240: 2bff 9ebd 02b1 96bd 92a3 db3c f012 72be
00000250: 3924 583d 66b7 11bc 2d7c 94bd d198 5c3d
00000260: 20ae a4bc 4bc1 85be ce23 aabb 8cfd 95bc
00000270: bb67 d03c 49fe a3bd 9207 bbbb d602 c53c
00000280: 3cf4 72bc ebb8 e5bb eb82 473c 27b1 bc3d
00000290: 5c13 aa3c 3741 783c 89f4 1b3c 8918 58bd
000002a0: a3d9 febd 1317 823d cf59 26bd 8ee2 11bd
000002b0: 02a7 953d e83b 83bd 3733 bcbc 5ea6 a13c
000002c0: 496d fbbd af08 4939 f0c0 fb3a 97b1 6bbc
000002d0: ca3f ea3c 6b24 553b 53da 913c 20b3 823c
000002e0: 1bd7 943d 151e 833c 4cc2 96bb 046e d6bc
000002f0: dfba a13c e426 0c3d 85e9 4abd 1734 0e3d
00000300: af51 c73b d15b 523d 49fd 00bd 0869 65be
00000310: cec3 b6be 0a64 243d 585e 493c 97e8 ebbc
00000320: 9ea3 30bd a9b3 9bbd 9a59 aabd c70f 7bbc
00000330: e326 263c ebc9 f6bc 31e0 9c3c ee21 41bc
00000340: 6fc3 c53c 8b54 4c3d 8d18 94bc b8c4 1d3d
00000350: 8249 163c e8aa b0bb fcb3 1bbd 6498 cabd
00000360: c777 a0bc 587d 613d 9acf bbbc 9891 813c
00000370: ad60 7e3d 3028 6abd be41 d83b 202c 9abd
00000380: 6b76 a9bd b4bb a5bc 6864 e63d b296 c7bd
00000390: c589 0dbd 308e b0bd 7899 973d a8a9 3ebc
000003a0: 5e97 383d 977a fe3d 9045 b53c e6c0 c1bc
000003b0: 7a90 963b ca32 3bbb e465 0bbd f198 2d3d
000003c0: f9d0 94bd 730c aabd d681 9fbc 59aa b53e
000003d0: 8f4a 143e 2415 f23c f8d9 1b3c 028a 103c
000003e0: 7c1b e23d f8b1 6e3c 8994 363d b2e2 f3bd
000003f0: e582 0bbd 5334 c6bc 71fb e6bc 688d 22bd

fc1.bias f4 [256]
-2.1614047e-08 1.8438314e-07 -1.5527269e-06 1.4741754e-07 -8.0229415e-07 2.5676263e-07 6.285413e-07 -7.240379e-07
-2.1932259e-07 2.4870603e-06 -7.269208e-07 -1.8604314e-06 -3.0113907e-07 -4.081665e-07 -4.53349e-07 -1.0857126e-06
-4.4871836e-06 1.2559833e-06 3.259978e-07 -6.6233014e-07 -1.3909865e-07 1.5244794e-06 -4.6949438e-07 2.3961803e-07
-1.2053127e-07 3.800843e-09 2.1494293e-06 1.5109255e-06 7.05643e-07 1.2464711e-06 -3.0035967e-06 -3.7962508e-07
-5.417878e-07 1.6117964e-06 2.688768e-07 6.156305e-08 -2.6775829e-06 2.8815195e-06 8.4727156e-07 -6.1085143e-07
4.9519986e-07 2.2845556e-07 -4.7082594e-07 -2.0309774e-06 -4.2409755e-07 -7.795519e-07 -1.3853653e-06 -7.954842e-07
4.3003083e-06 1.94755e-06 8.0965793e-07 -9.5092815e-07 3.5004638e-07 -2.3029847e-07 -1.2629562e-06 4.0814697e-07
1.933409e-06 -4.200412e-07 6.282969e-07 -4.4600943e-06 -5.1567632e-08 -3.4201473e-06 -1.2407032e-06 5.1684247e-06
-3.530812e-07 -2.2479583e-07 -4.4435785e-07 -1.161481e-06 -4.2084977e-07 -6.3318055e-07 -3.197033e-07 1.992806e-06
5.7057764e-07 -9.4201084e-07 4.7897515e-07 -3.2205637e-08 -1.5443445e-06 -1.18336445e-07 6.41303e-07 2.3892542e-07
-1.2456101e-06 -3.6981905e-07 5.195214e-07 4.7109077e-07 3.962196e-07 4.4726144e-07 7.31809e-07 -6.0829854e-07
-6.578426e-07 2.5140602e-07 4.5915078e-07 5.0954696e-07 1.7349117e-07 1.3045245e-07 4.2490873e-07 -1.7685946e-06
-4.6737313e-07 2.5349716e-06 -1.2696008e-06 7.833121e-08 -3.9742272e-07 1.443094e-07 -1.8230784e-06 1.2263241e-06
1.7156769e-07 -2.6337048e-07 -8.443578e-07 -2.0431814e-07 -2.3881555e-06 -2.0224825e-06 3.392177e-06 -1.6896211e-06
-2.9126286e-07 1.7372512e-08 1.2149353e-06 1.0357644e-06 4.521958e-07 1.7208308e-07 8.030281e-07 1.4212357e-06
7.144629e-07 9.703429e-07 4.3730364e-07 1.4762692e-06 -2.2624145e-07 8.958983e-07 6.211492e-07 1.6588646e-07
6.27891e-07 -7.6412624e-07 -9.814897e-07 3.6420263e-07 -3.815134e-07 1.5879956e-06 -5.3156974e-08 4.1026777e-07
-7.004117e-07 4.1581748e-06 7.3862697e-07 5.8948572e-08 5.335314e-07 2.1066162e-06 4.5105503e-07 4.2938996e-07
1.0677192e-06 -1.7562557e-07 -1.7824195e-07 -5.13484e-07 1.5294823e-06 8.2014947e-07 -1.097939e-06 4.5642645e-07
1.6023746e-06 4.0208866e-07 3.4096934e-07 7.356222e-07 7.8082365e-07 4.141175e-07 8.374421e-07 -2.2954464e-07
2.9569782e-07 -1.692301e-06 1.6666457e-08 -5.823952e-07 3.02195e-07 3.884933e-06 2.4475392e-07 -8.9246066e-07
1.2772616e-06 -1.4694673e-06 -4.6191536e-07 -1.283878e-06 1.3013896e-06 6.085716e-07 6.437883e-08 4.2580643e-07
-2.769442e-06 -3.2911365e-07 -3.609934e-06 1.9924931e-07 -5.5775286e-07 -9.6659186e-08 -5.6132836e-07 5.2449644e-07
1.3005775e-06 -4.1511657e-07 -1.4584252e-07 -2.0381258e-07 4.8238365e-07 -7.9898274e-07 -8.4283823e-07 -8.3006785e-07
6.762571e-07 -5.5842014e-07 -1.3946965e-06 -3.627334e-06 4.7116092e-07 -7.628484e-07 1.8162349e-06 2.3252113e-07
-1.843372e-06 1.03102046e-07 2.8870105e-08 -1.0930453e-06 -2.657045e-07 -1.958142e-06 6.385152e-07 3.3211359e-06
2.073339e-06 -1.5116531e-07 1.9945522e-07 -6.4852586e-08 -3.2323493e-07 4.119163e-07 1.5209378e-06 1.0485363e-06
4.4457718e-07 3.1452194e-07 1.6779392e-08 -5.6549754e-07 1.0971235e-06 8.554713e-08 -2.8446889e-06 -9.755108e-07
-6.673349e-07 3.5070588e-07 8.887874e-07 -1.8841101e-06 2.4025708e-06 -8.037802e-07 -9.4689256e-08 1.5694674e-06
-2.8098376e-07 -3.8889723e-08 -5.2119356e-07 -1.5432224e-06 1.5225395e-07 -6.993447e-07 -6.2777724e-07 -2.1794567e-06
-3.131668e-07 -1.9545632e-06 3.2314213e-07 -1.8295502e-09 3.0821877e-07 -1.1748594e-06 -7.886398e-07 4.4015528e-07
6.1137763e-07 -4.5302076e-07 2.3065154e-06 -9.968131e-07 -1.0433368e-07 -1.7238415e-07 5.4233304e-08 -4.711667e-06
00000000: cba9 b9b2 dafa 4534 4a67 d0b5 d349 1e34
00000010: 3c5d 57b5 30d9 8934 07b9 2835 815b 42b5
00000020: ef7e 6bb4 5fe7 2636 9e21 43b5 f0b3 f9b5
00000030: 3dac a1b4 fa21 dbb4 d063 f3b4 cdb8 91b5
00000040: 9d90 96b6 4293 a835 cc04 af34 fbca 31b5
00000050: 255b 15b4 b79c cc35 d10e fcb4 daa4 8034
00000060: 626b 01b4 9298 8231 ea3e 1036 01cb ca35
00000070: 6b6b 3d35 6c4c a735 6691 49b6 46cf cbb4
00000080: 606f 11b5 e754 d835 255a 9034 a534 8433
00000090: 86b0 33b6 2160 4136 0f70 6335 64f9 23b5
000000a0: e0ed 0435 634d 7534 d3c5 fcb4 ed4b 08b6
000000b0: 86af e3b4 6642 51b5 caf0 b9b5 4289 55b5
000000c0: 5e4b 9036 a7b2 0236 4557 5935 4943 7fb5
000000d0: 02ee bb34 f647 77b4 d882 a9b5 4b1f db34
000000e0: b7bf 0136 0682 e1b4 3ca8 2835 eba7 95b6
000000f0: 367b 5db3 af85 65b6 3d86 a6b5 6e6c ad36
00000100: 1c8f bdb4 685f 71b4 1490 eeb4 2fe4 9bb5
00000110: 27f1 e1b4 d6f7 29b5 b0a3 abb4 25bc 0536
00000120: cc29 1935 7ede 7cb5 ec92 0035 7952 0ab3
00000130: 4647 cfb5 2620 feb3 0226 2c35 a945 8034
00000140: d62e a7b5 8b8b c6b4 3d75 0b35 39ea fc34
00000150: 02b8 d434 251f f034 8871 4435 f549 23b5
00000160: 9996 30b5 fbf8 8634 3481 f634 cdc7 0835
00000170: e448 3a34 7f12 0c34 031f e434 7360 edb5
00000180: 46eb fab4 7b1e 2a36 2767 aab5 0a37 a833
00000190: 5d5d d5b4 77f3 1a34 7fb0 f4b5 2d98 a435
000001a0: 2b38 3834 5d65 8db4 d4a7 62b5 8b62 5bb4
000001b0: 3344 20b6 fcb9 07b6 28a5 6336 f0c6 e2b5
000001c0: dd5e 9cb4 8f3a 9532 dc10 a335 9804 8b35
000001d0: 51c5 f234 d6c5 3834 ac8f 5735 49c1 be35
000001e0: 84c9 3f35 ba3c 8235 8ec6 ea34 3924 c635
000001f0: c7ec 72b4 aa7d 7035 0cbd 2635 861e 3234
00000200: 578c 2835 5b1e 4db5 bbbb 83b5 a187 c334
00000210: cdd2 ccb4 1d23 d535 b64e 64b3 c642 dc34
00000220: ed03 3cb5 7386 8b36 0f46 4635 a42e 7d33
00000230: 0038 0f35 645f 0d36 8828 f234 e886 e634
00000240: 8d4e 8f35 9793 3cb4 c662 3fb4 5ad6 09b5
00000250: 9d48 cd35 3e28 5c35 e65c 93b5 c60a f534
00000260: 2c11 d735 a5de d734 780e b734 9377 4535
00000270: cb99 5135 e053 de34 95cc 6035 c078 76b4
00000280: 66c0 9e34 0523 e3b5 ed29 8f32 e555 1cb5
00000290: 5d3d a234 525b 8236 b966 8334 6e91 6fb5
000002a0: 606e ab35 833a c5b5 2afd f7b4 b651 acb5
000002b0: 68ab ae35 b95c 2335 a340 8a33 649a e434
000002c0: a7da 39b6 09b1 b0b4 3242 72b6 3cf1 5534
000002d0: 7cb8 15b5 f392 cfb3 31ae 16b5 1fcb 0c35
000002e0: 818f ae35 30dd deb4 e398 1cb4 93d7 5ab4
000002f0: 277d 0135 ad79 56b5 673f 62b5 d4d1 5eb5
00000300: 0988 3535 57e6 15b5 6831 bbb5 206d 73b6
00000310: ddf3 fc34 8bc6 4cb5 5bc5 f335 ecaa 7934
00000320: c869 f7b5 f368 dd33 08fe f732 c0b4 92b5
00000330: 26a6 8eb4 a068 03b6 6e66 2b35 aee0 5e36
00000340: b123 0b36 0150 22b4 d529 5634 1645 8bb3
00000350: 1289 adb4 5825 dd34 0623 cc35 6fbb 8c35
00000360: 39ae ee34 91db a834 4622 9032 b2cc 17b5
00000370: e040 9335 08b6 b733 62e7 3eb6 4cee 82b5
00000380: e822 33b5 a648 bc34 0195 6e35 88e1 fcb5
00000390: da3b 2136 5bc3 57b5 f857 cbb3 7da6 d235
000003a0: 1dda 96b4 b407 27b3 26e8 0bb5 b820 cfb5
000003b0: 3f7b 2334 9aba 3bb5 8684 28b5 c842 12b6
000003c0: 5121 a8b4 242b 03b6 517c ad34 9373 fbb0
000003d0: 4479 a534 ddaf 9db5 eab2 53b5 7b4e ec34
000003e0: 8d1d 2435 b336 f3b4 a2c9 1a36 3dca 85b5
000003f0: 0c0e e0b3 9818 39b4 26ee 6833 e918 9eb6

bn1.weight f4 [256]
0.6746281 0.4200883 0.36544868 0.40446472 0.5330829 0.45379975 0.41976497 0.510746
0.41635278 0.39762503 0.5829377 0.33452222 0.4497515 0.4148676 0.5213307 0.49542361
0.5061658 0.39029238 0.44630206 0.4931503 0.3945586 0.3845102 0.32465112 0.51758564
0.5184042 0.43327597 0.2863033 0.50603056 0.44685334 0.6821585 0.7604281 0.37003326
0.531945 0.44731227 0.41480246 0.43782517 0.74538094 0.47540817 0.4040323 0.4173763
0.7272308 0.49782634 0.5751536 0.39833763 0.38152766 0.3941687 0.71111584 0.49767283
0.7643407 0.37856534 0.8037228 0.43828163 0.31925297 0.33291447 0.58354163 0.48148462
0.46113622 0.48425522 0.31388685 0.7497045 0.45379007 0.43102685 0.3529474 0.69829315
0.52022105 0.40152517 0.52322346 0.3503609 0.43777946 0.35937127 0.3698895 0.5181923
0.4201046 0.52621347 0.3590461 0.5057684 0.53298384 0.41411608 0.5233275 0.44184154
0.4384574 0.28216955 0.45158184 0.4389464 0.4123604 0.33074322 0.36399108 0.325155
0.46427038 0.33321545 0.41317445 0.5425145 0.3826172 0.4200475 0.33102357 0.3138523
0.40673378 0.5535145 0.47910616 0.31666222 0.34449178 0.3460703 0.6804725 0.5638245
0.5040791 0.50546426 0.3652629 0.5255662 0.4150412 0.48945615 0.47825277 0.36152628
0.5676407 0.5459714 0.48069096 0.54555994 0.46914962 0.5417482 0.48884588 0.41988125
0.32718313 0.6227415 0.3920506 0.349564 0.50548416 0.34321076 0.4129601 0.4092032
0.4551227 0.50549453 0.3364133 0.50363135 0.42935592 0.41962937 0.47866002 0.30053446
0.40567687 0.7680799 0.39677998 0.6186069 0.43169096 0.30996308 0.38570562 0.53456235
0.41786006 0.43130842 0.4478685 0.7205474 0.8172829 0.48739257 0.45033884 0.5564867
0.46649957 0.36090878 0.441528 0.44141743 0.37390763 0.35178867 0.7615251 0.4067823
0.48735005 0.47080207 0.33622095 0.56974393 0.37347314 0.4370441 0.552993 0.55662084
0.43917236 0.46694264 0.3273344 0.38533276 0.36589724 0.5732602 0.40266696 0.4892371
0.43295413 0.5008989 0.4074004 0.32385078 0.51117367 0.31801692 0.49518707 0.3597615
0.43753722 0.38280424 0.3206858 0.38928542 0.38557386 0.42608786 0.40940076 0.6304391
0.47405133 0.65864664 0.63843405 0.52701014 0.43547878 0.42753333 0.36764935 0.38105375
0.35682768 0.6919704 0.50454056 0.39357367 0.46594727 0.31730917 0.33219096 0.46287027
0.37627697 0.49685693 0.45616695 0.36064655 0.39907855 0.46463457 0.7497372 0.49083367
0.42111063 0.3262026 0.50870353 0.6419257 0.3738028 0.42376763 0.508849 0.45868447
0.31243956 0.42978856 0.40156513 0.44648373 0.7087177 0.34741503 0.426707 0.45292947
0.29737294 0.48177978 0.394647 0.58984655 0.32726085 0.32233545 0.34772602 0.48960012
0.42185715 0.8178157 0.60264117 0.5306962 0.40588102 0.78092575 0.5009912 0.4410621
0.38347992 0.45767212 0.45014337 0.4176874 0.48403785 0.41278246 0.53859097 0.69038236
00000000: 6db4 2c3f d015 d73e 171c bb3e 0016 cf3e
00000010: 1f78 083f 7158 e83e 6feb d63e 40c0 023f
00000020: 312c d53e 8295 cb3e 683b 153f 7f46 ab3e
00000030: d445 e63e 8769 d43e ee75 053f 2aa8 fd3e
00000040: 1594 013f 67d4 c73e b481 e43e 327e fc3e
00000050: 9603 ca3e 85de c43e ac38 a63e 7e80 043f
00000060: 23b6 043f 59d6 dd3e 5996 923e 388b 013f
00000070: f6c9 e43e f1a1 2e3f 6aab 423f 0075 bd3e
00000080: 8c2d 083f 1d06 e53e fd60 d43e 9f2a e03e
00000090: 49d1 3e3f b368 f33e 52dd ce3e 59b2 d53e
000000a0: cc2b 3a3f 18e3 fe3e 443d 133f e9f2 cb3e
000000b0: 9857 c33e 7bd0 c93e b00b 363f f9ce fe3e
000000c0: d5ab 433f 51d3 c13e c7c0 4d3f 7366 e03e
000000d0: 2075 a33e c473 aa3e fc62 153f 2785 f63e
000000e0: 0c1a ec3e 4df0 f73e c7b5 a03e a2ec 3f3f
000000f0: 2c57 e83e 8daf dc3e 86b5 b43e 57c3 323f
00000100: 352d 053f b594 cd3e f9f1 053f 8162 b33e
00000110: a124 e03e 83ff b73e 2862 bd3e 40a8 043f
00000120: f317 d73e edb5 063f e4d4 b73e 0a7a 013f
00000130: a171 083f 0607 d43e cbf8 053f 0e39 e23e
00000140: 7d7d e03e 8778 903e bc35 e73e 95bd e03e
00000150: e720 d33e 2d57 a93e 0a5d ba3e b77a a63e
00000160: d9b4 ed3e 379b aa3e 9a8b d33e 3be2 0a3f
00000170: 67e6 c33e 7710 d73e ec7b a93e 40b1 a03e
00000180: 693f d03e 20b3 0d3f 674d f53e 8d21 a23e
00000190: 3a61 b03e 2030 b13e 7233 2e3f cd56 103f
000001a0: 540b 013f 1b66 013f bd03 bb3e 828b 063f
000001b0: 4880 d43e ff99 fa3e 8cdd f43e f919 b93e
000001c0: e750 113f c8c4 0b3f 201d f63e d1a9 0b3f
000001d0: 6134 f03e 03b0 0a3f 024a fa3e adfa d63e
000001e0: 8c84 a73e fd6b 1f3f dbba c83e 0dfa b23e
000001f0: 6967 013f 52b9 af3e 826f d33e 1583 d13e
00000200: d805 e93e 1768 013f 5d3e ac3e fced 003f
00000210: 8ad4 db3e a9d9 d63e ed12 f53e a7df 993e
00000220: e1b4 cf3e e2a0 443f bf26 cb3e 065d 1e3f
00000230: 9906 dd3e 7bb3 9e3e 357b c53e 14d9 083f
00000240: c1f1 d53e 75d4 dc3e 054f e53e cb75 383f
00000250: 7439 513f 858b f93e d092 e63e ea75 0e3f
00000260: 08d9 ee3e 09c9 b83e f50f e23e 7701 e23e
00000270: d270 bf3e a51d b43e 4ff3 423f c545 d03e
00000280: f285 f93e f80c f13e 2725 ac3e bdda 113f
00000290: df37 bf3e 3fc4 df3e f390 0d3f b47e 0e3f
000002a0: 33db e03e 1b13 ef3e 6098 a73e 564a c53e
000002b0: e256 bb3e 2ec1 123f 5d2a ce3e 497d fa3e
000002c0: 2aac dd3e e93a 003f c996 d03e c5cf a53e
000002d0: 47dc 023f 1dd3 a23e 2989 fd3e a932 b83e
000002e0: e104 e03e ebfe c33e ee30 a43e 6b50 c73e
000002f0: f069 c53e 3028 da3e fa9c d13e 7564 213f
00000300: dbb6 f23e 119d 283f 6a70 233f 23ea 063f
00000310: 13f7 de3e a6e5 da3e 893c bc3e 7a19 c33e
00000320: 1eb2 b63e f924 313f 9229 013f 7d82 c93e
00000330: a490 ee3e 5976 a23e ef14 aa3e 55fd ec3e
00000340: 60a7 c03e 0864 fe3e b78e e93e aaa6 b83e
00000350: 0654 cc3e 95e4 ed3e c7ee 3f3f 8d4e fb3e
00000360: d09b d73e 0704 a73e 653a 023f 3e55 243f
00000370: 1563 bf3e 12f8 d83e ee43 023f b1d8 ea3e
00000380: 14f8 9f3e 3f0d dc3e f299 cd3e 8499 e43e
00000390: 866e 353f 62e0 b13e 5779 da3e 5fe6 e73e
000003a0: 4441 983e d7ab f63e 2c0f ca3e 2f00 173f
000003b0: bc8e a73e 2709 a53e 2509 b23e deac fa3e
000003c0: a9fd d73e 5f5c 513f b146 1a3f b5db 073f
000003d0: a3cf cf3e c0ea 473f f640 003f e4d2 e13e
000003e0: 7b57 c43e 0054 ea3e 3179 e63e 1fdb d53e
000003f0: cfd3 f73e 3958 d33e 19e1 093f e6bc 303f

bn1.bias f4 [256]
-0.39965585 -0.13622789 -0.12788813 -0.2926499 -0.4466556 0.00297073 -0.23510598 -0.1736028
-0.45182416 -0.28286886 -0.08022691 -0.2432215 -0.2441189 -0.36180314 -0.19673842 -0.11756486
-0.18298005 -0.23375319 -0.16538636 -0.21633571 -0.12328222 -0.168329 -0.24269977 -0.27333784
-0.15064181 -0.27084807 -0.08285251 -0.21188574 -0.37034005 -0.39896068 -0.38565552 -0.15896851
-0.30420864 -0.23237342 -0.23508923 -0.23758157 -0.47798556 -0.2618887 -0.1767577 -0.35183054
-0.4166152 -0.41290763 -0.41552448 -0.097036704 -0.18945105 -0.32317784 -0.47669026 -0.17069593
-0.5164733 -0.34690827 -0.4937019 -0.26446265 -0.22688472 -0.14197879 -0.5520131 -0.3297423
-0.27240172 -0.16923745 -0.19054396 -0.33220944 -0.11284382 -0.21197721 -0.1400798 -0.031180577
-0.20706546 -0.2192297 -0.39917508 -0.11599208 -0.14548486 -0.18515664 -0.19575234 -0.3619471
-0.4023901 -0.60020167 -0.13397174 -0.13814235 -0.33773062 -0.30594176 -0.19443116 -0.18177627
-0.299595 -0.26780292 -0.17816103 -0.36250365 -0.30484 -0.15533972 -0.23295671 -0.37277445
-0.36471117 -0.25112915 -0.3254443 -0.18674515 -0.3369569 -0.30395937 -0.21100734 -0.10345887
-0.36108628 -0.10981846 -0.18261953 -0.18896493 -0.34662417 -0.10542924 -0.43994886 -0.55114627
-0.079172246 -0.510704 -0.09057379 -0.30974987 -0.027261756 -0.1813155 -0.31959173 -0.09435128
-0.09128659 -0.25251997 -0.4186132 -0.20320328 -0.3906195 -0.12421323 -0.46875533 -0.24489217
-0.14986692 -0.43358633 -0.2790407 -0.21769579 -0.25079542 -0.15189667 -0.1138032 -0.15405975
-0.358028 -0.16422749 -0.19614188 -0.11164444 -0.15349516 -0.30651876 -0.30824146 -0.20345575
-0.11657916 -0.33959365 -0.1959065 -0.143528 -0.41467738 -0.23563655 -0.27792227 -0.31853497
-0.20632015 -0.34596762 -0.38741645 -0.10475734 -0.46256724 -0.1440082 -0.44889516 -0.07804219
-0.13192572 -0.3036222 -0.39421052 -0.29515976 -0.30135247 -0.3224035 -0.43683252 -0.19549909
-0.1139351 -0.26008192 -0.15582205 -0.2092797 -0.29603514 -0.20065323 -0.42285877 -0.093973234
-0.18384016 -0.25829914 -0.18053 -0.15666889 -0.07236669 -0.25316864 -0.15524165 -0.41221097
-0.35114938 -0.46932614 -0.04794499 -0.065082945 -0.3151926 -0.17036533 -0.09762346 -0.33619735
-0.20377317 -0.1308668 -0.2227537 -0.2516902 -0.25262436 -0.28847834 -0.16088596 -0.43580225
-0.1428105 -0.29457653 -0.50678873 -0.15444987 -0.24146235 -0.30383322 -0.22682819 -0.27179962
-0.16886324 0.108605266 0.055562947 -0.18727306 -0.43504786 -0.23166464 -0.14651497 -0.07943952
-0.09174287 -0.11898184 -0.2230069 -0.25540438 -0.22296733 -0.29855874 -0.5214002 -0.0895879
-0.14341362 -0.16942307 0.019092456 -0.34964198 -0.24244764 -0.20819479 -0.27548665 -0.4361057
-0.25588095 -0.29883954 -0.3520813 -0.05857421 -0.4853559 -0.19660044 -0.36781558 -0.36408308
-0.16623484 -0.25664964 -0.28420824 -0.26024675 -0.22378859 -0.2256393 -0.2150617 -0.017673463
-0.14595841 -0.5710833 -0.1404735 -0.26655445 -0.22074781 -0.5237154 -0.487494 -0.33419922
-0.26372442 -0.4578504 -0.46044084 -0.054204673 -0.15654905 -0.1212624 -0.44563627 -0.30703542
00000000: b19f ccbe 537f 0bbe 1bf5 02be 35d6 95be
00000010: 0bb0 e4be 94b0 423b 9fbf 70be efc4 31be
00000020: 7f55 e7be 30d4 90be 024e a4bd 0f0f 79be
00000030: 4efa 79be 433e b9be cc75 49be d8c5 f0bd
00000040: 1f5f 3bbe ff5c 6fbe 0b5b 29be 1c87 5dbe
00000050: 637b fcbd 705e 2cbe 4a86 78be f0f2 8bbe
00000060: d941 1abe 99ac 8abe 94ae a9bd 93f8 58be
00000070: 369d bdbe 9344 ccbe a474 c5be a4c8 22be
00000080: 3cc1 9bbe 4cf3 6dbe 3bbb 70be 9548 73be
00000090: 86ba f4be 4716 86be f8ff 34be 2223 b4be
000000a0: 964e d5be a168 d3be a0bf d4be 2ebb c6bd
000000b0: 75ff 41be 9177 a5be bf10 f4be eaca 2ebe
000000c0: 9837 04bf f69d b1be 7fc6 fcbe a667 87be
000000d0: 7854 68be e362 11be bb50 0dbf fcd3 a8be
000000e0: 3d78 8bbe 954c 2dbe f51d 43be 5b17 aabe
000000f0: a91a e7bd 8e10 59be 1471 0fbe 696e ffbc
00000100: f808 54be c07d 60be ad60 ccbe 418d edbd
00000110: fcf9 14be b499 3dbe 4d73 48be 2151 b9be
00000120: 1306 cebe d1a6 19bf e32f 09be 3075 0dbe
00000130: 07eb acbe 66a4 9cbe f618 47be 8f23 3abe
00000140: 8464 99be 771d 89be d86f 36be 149a b9be
00000150: fd13 9cbe 6011 1fbe 348c 6ebe 4bdc bebe
00000160: 6cbb babe 0094 80be a3a0 a6be 1f3a 3fbe
00000170: 9d85 acbe 90a0 9bbe 4f12 58be 3ee2 d3bd
00000180: 4de0 b8be 80e8 e0bd 9d00 3bbe 0680 41be
00000190: b978 b1be 49eb d7bd fa40 e1be ec17 0dbf
000001a0: 0f25 a2bd 7fbd 02bf c07e b9bd 8997 9ebe
000001b0: 0c54 dfbc c5aa 39be 87a1 a3be 3e3b c1bd
000001c0: 77f4 babd 4c4a 81be 7854 d6be 8514 50be
000001d0: 47ff c7be 8263 febd b300 f0be 03c5 7abe
000001e0: b776 19be 07ff ddbe 6cde 8ebe a5eb 5ebe
000001f0: 4268 80be cd8a 1bbe a711 e9bd d7c1 1dbe
00000200: 724f b7be 402b 28be 6bd9 48be d7a5 e4bd
00000210: d62d 1dbe 07f0 9cbe d3d1 9dbe b456 50be
00000220: 0ec1 eebd 38df adbe b79b 48be 01f9 12be
00000230: 9850 d4be b54a 71be d44b 8ebe 0417 a3be
00000240: 9745 53be ab22 b1be 735b c6be 048b d6bd
00000250: 9dd5 ecbe e376 13be 96d5 e5be 95d4 9fbd
00000260: 8917 07be 5e74 9bbe f6d5 c9be 2e1f 97be
00000270: df4a 9abe 1212 a5be 83a8 dfbe ea30 48be
00000280: ce56 e9bd 7529 85be d18f 1fbe 6b4d 56be
00000290: eb91 97be 0a78 4dbe f280 d8be 0a75 c0bd
000002a0: 9840 3cbe c93f 84be dbdc 38be cf6d 20be
000002b0: fd34 94bd 529f 81be abf7 1ebe 510d d3be
000002c0: dac9 b3be 844b f0be f761 44bd 354a 85bd
000002d0: ed60 a1be 4074 2ebe cfee c7bd 0f22 acbe
000002e0: eaa9 50be f201 06be 8c19 64be 8add 80be
000002f0: fb57 81be 6fb3 93be 4abf 24be 7921 dfbe
00000300: ea3c 12be bcd2 96be e8bc 01bf 1b28 1ebe
00000310: e841 77be 0790 9bbe a645 68be 5229 8bbe
00000320: 7cea 2cbe 706c de3d f995 633d 82c4 3fbe
00000330: 98be debe 7f39 6dbe 0508 16be 30b1 a2bd
00000340: b0e3 bbbd c0ac f3bd ec5b 64be 5dc4 82be
00000350: 8c51 64be b1dc 98be 7c7a 05bf dc79 b7bd
00000360: 05db 12be 3e7d 2dbe c867 9c3c 4604 b3be
00000370: 3244 78be 0431 55be 960c 8dbe 3f49 dfbe
00000380: d402 83be 7f01 99be 0044 b4be 83eb 6fbd
00000390: 9280 f8be a051 49be 5352 bcbe 1969 babe
000003a0: 7739 2abe 9567 83be be83 91be 103f 85be
000003b0: d628 65be fd0d 67be 2239 5cbe f0c7 90bc
000003c0: 1f76 15be 8432 12bf 49d8 0fbe d379 88be
000003d0: b70b 62be 3612 06bf d098 f9be 291c abbe
000003e0: e306 87be 5e6b eabe e7be ebbe b805 5ebd
000003f0: 654e 20be 6c58 f8bd 702a e4be bf33 9dbe

bn1.running_mean f4 [256]
0.0017034191 -0.0002133769 0.0038128048 0.0020911912 -0.003639866 0.0013408477 -0.0029080648 0.00054208795
0.004170131 0.004677565 0.001588665 0.0009470118 0.00079264824 0.0022135722 -0.0012498469 0.0021405944
0.00097226567 0.0022619148 -0.00020673402 0.0014882133 -0.00061076094 -0.0015666992 0.0022572344 -0.0039093974
-0.00023338752 0.00043446905 -0.00085273833 -0.0006408172 -0.002649978 -0.001170802 0.00019283652 -0.0013079928
0.0003902907 -0.00065223966 -0.002089523 0.0038521055 0.00065150985 -0.0005387119 -0.0004289826 7.042514e-05
-0.0016524947 0.004699115 0.0023690092 -0.00025389774 -0.0006306672 0.003074315 0.00012821643 0.001544261
-0.0002957968 -0.0032127725 -5.5412493e-05 -0.0032589382 -0.0014489285 -0.00035654317 0.0012827985 0.0037465305
-0.0013119397 -0.00065468246 0.002335051 -3.5485427e-06 0.0034291132 0.000830186 -0.00066906156 -0.00039757643
-0.00084362924 0.002961968 -0.0024397569 0.0010769477 -0.003102906 0.001747512 0.0019020407 -0.0016406697
-0.0043895785 0.0014576778 -0.0012406758 0.0033413644 0.0011222155 -0.0004728552 -0.0011854784 -0.00012659137
-0.0035560257 0.0008742516 0.0007203372 -0.004953032 -0.0013794936 -0.0010119395 0.00029975473 -0.004606755
-0.0016777134 0.00029727217 -0.0044204947 -0.0019469388 -0.00013758907 0.00018282112 -0.002220546 0.0012043209
-0.00363656 0.00078451895 0.00041695606 0.0006641983 0.0007652957 0.0010658173 -0.0008904426 -0.00059684954
0.0012853355 0.00087553007 -0.0019746455 -0.0025984356 -0.0019526335 -0.00040512008 0.00275094 0.0020420495
-0.00066389673 0.0020277472 0.002551565 0.00068612443 0.00084518123 -0.0016892294 0.004560674 0.00093600363
0.0027750582 0.001704388 -0.00047658064 -0.0028134526 0.002993356 0.0033508637 0.0021299117 2.4662419e-05
0.0042714863 -0.0019626499 0.0016290061 0.0021296788 0.00052993454 0.0003149325 -0.0023711158 0.0009043255
-0.00024937573 -7.4631775e-05 -0.00061010825 -0.0014722139 -0.0033401959 0.0024140505 0.0035165076 0.004814596
-0.0007245178 0.0020097669 0.002435475 0.0012297836 -0.0007567877 0.0018035227 -0.0040402706 0.000944905
9.4686424e-05 0.0011419076 -0.0046413504 -0.000665831 0.0034386718 0.00088506314 -0.00033091256 0.0029735484
-0.00082849833 -0.0026696576 -0.00093146897 -0.0015658473 -0.0016246361 0.0027965603 -0.0030808037 -0.00013211889
-0.0013675388 0.000633137 -0.0030493345 -0.00038653493 -0.003679031 -0.00030836606 -0.0004416465 -0.004969713
0.00077533105 0.0015202177 -0.0009266744 -0.0025101732 -0.0036583631 -0.0028122202 -0.00046068005 -0.00063210796
-0.0008199246 -0.0032375448 0.00083221594 0.0015243565 6.547389e-05 0.0018340229 0.004434179 -0.002089624
0.0041413084 -0.0007143327 0.002118437 -0.0011449934 -0.001991602 0.004388112 -0.0023807911 0.0009225801
-0.0018354313 -4.1679723e-05 0.0018763244 -0.0022684115 -0.0039359466 0.0020983252 -0.00034876194 0.00045215205
-0.0029862013 -0.0020411748 -0.003280744 0.0014499519 -0.0025203505 -0.0028392428 -0.0015630753 0.002979151
0.0006281756 0.0025209207 0.0012904967 0.0020710947 -0.00048106938 -0.0035725576 -0.0025127733 0.00068960595
0.00044631728 0.00031864492 -0.0018715778 -0.0015535776 -0.0017396577 -0.0016826189 -0.0003831173 -0.005124863
0.0005195168 -0.00013081219 -0.0029666815 -2.582543e-05 0.00060117437 0.0012190535 0.00084696076 0.0028027392
0.0014331243 -0.0006260267 -0.0005405665 -0.0037817783 0.00027988412 6.056086e-05 -0.002202211 -0.0003681875
0.0006195771 0.00059385295 -0.0019764774 0.0029396534 -0.0007247809 0.002096642 -0.0040335557 0.00042065568
00000000: 4345 df3a edbd 5fb9 40e0 793b 5e0c 093b
00000010: d18a 6ebb 62bf af3a 3b95 3ebb e81a 0e3a
00000020: 98a5 883b 4246 993b c03a d03a e340 783a
00000030: b9c9 4f3a 9411 113b e7d1 a3ba 3749 0c3b
00000040: a5df 7e3a a23c 143b bec6 58b9 2710 c33a
00000050: 791b 20ba b459 cdba 1cee 133b 671a 80bb
00000060: 7cb9 74b9 73c9 e339 4d8a 5fba 84fc 27ba
00000070: 41ab 2dbb 9975 99ba 2934 4a39 f570 abba
00000080: ee9f cc39 10fb 2aba 61f0 08bb 9b73 7c3b
00000090: 16ca 2a3a 5838 0dba 12e9 e0b9 36b1 9338
000000a0: 8598 d8ba 09fb 993b 6141 1b3b 941d 85b9
000000b0: 5c53 25ba 727a 493b d671 0639 cd68 ca3a
000000c0: 2d15 9bb9 618d 52bb b66a 68b8 e993 55bb
000000d0: f9e9 bdba 6aee bab9 9323 a83a 5a88 753b
000000e0: 64f5 abba ff9e 2bba a807 193b 8023 6eb6
000000f0: f9ba 603b d7a0 593a f663 2fba ce71 d0b9
00000100: 0027 5dba 941d 423b 54e4 1fbb 5e28 8d3a
00000110: 205a 4bbb c60c e53a e54d f93a bd0b d7ba
00000120: 74d6 8fbb 8d0f bf3a 2c9e a2ba cbfa 5a3b
00000130: 4e17 933a 8de9 f7b9 0e62 9bba 9dbd 04b9
00000140: 360c 69bb 082e 653a 03d5 3c3a 0b4d a2bb
00000150: 20d0 b4ba 0ea3 84ba 6628 9d39 43f4 96bb
00000160: b8e6 dbba 32db 9b39 ccd9 90bb 6d30 ffba
00000170: c945 10b9 acb3 3f39 9486 11bb 4eda 9d3a
00000180: 5a53 6ebb 2da8 4d3a e59a da39 981d 2e3a
00000190: 209e 483a e5b2 8b3a 976c 69ba e575 1cba
000001a0: b478 a83a d483 653a 0e69 01bb 844a 2abb
000001b0: 82ef ffba 4c66 d4b9 1d49 343b e8d3 053b
000001c0: 5b09 2eba f4e3 043b 2838 273b 08dd 333a
000001d0: 278f 5d3a 2269 ddba b571 953b 245e 753a
000001e0: c0dd 353b c565 df3a 92dd f9b9 e761 38bb
000001f0: 2e2c 443b 2a9a 5b3b fd95 0b3b 24e2 ce37
00000200: d3f7 8b3b cd9f 00bb 6084 d53a 1592 0b3b
00000210: 4eeb 0a3a 861d a539 b964 1bbb 4210 6d3a
00000220: a5be 82b9 a183 9cb8 acef 1fba 4df7 c0ba
00000230: 30e7 5abb 0c35 1e3b 3575 663b c2c3 9d3b
00000240: 91ed 3dba 4bb6 033b 7d9c 1f3b b130 a13a
00000250: 2a63 46ba 2e64 ec3a 3f64 84bb 80b3 773a
00000260: 6392 c638 10ac 953a 7816 98bb 298b 2eba
00000270: 575b 613b 9503 683a 557e adb9 dddf 423b
00000280: 952f 59ba 6cf5 2ebb d32d 74ba 1e3d cdba
00000290: bef1 d4ba 7f46 373b 4fe7 49bb 6589 0ab9
000002a0: fd3e b3ba 1bf9 253a 58d7 47bb d7a7 cab9
000002b0: e61b 71bb 31ac a1b9 ca8c e7b9 f9d8 a2bb
000002c0: 963f 4b3a 0b42 c73a 11ec 72ba b881 24bb
000002d0: 26c1 6fbb 3a4d 38bb 6e87 f1b9 0cb4 25ba
000002e0: 35f0 56ba fd2c 54bb 1129 5a3a ebcc c73a
000002f0: 074f 8938 9963 f03a 974c 913b 13f2 08bb
00000300: d0b3 873b 0e42 3bba 7ad5 0a3b 9a13 96ba
00000310: 8985 02bb 27ca 8f3b 0c07 1cbb 4dd9 713a
00000320: db92 f0ba 43d1 2eb8 00ef f53a a1a9 14bb
00000330: 1df9 80bb 0e84 093b 09da b6b9 d20e ed39
00000340: 25b4 43bb 3bc5 05bb c001 57bb 500c be3a
00000350: 772c 25bb 9712 3abb 1be0 ccba dc3d 433b
00000360: 27ac 243a 0836 253b e225 a93a 34bb 073b
00000370: 0a38 fcb9 9221 6abb 57ad 24bb acc6 343a
00000380: b1ff e939 cc0f a739 bb4f f5ba 6aa1 cbba
00000390: 3a05 e4ba 528b dcba 22dd c8b9 77ee a7bb
000003a0: 2f30 083a a12a 09b9 a86c 42bb b0a3 d8b7
000003b0: 2198 1d3a a6c8 9f3a 9306 5e3a 29ae 373b
000003c0: acd7 bb3a f11b 24ba ceb4 0dba b6d7 77bb
000003d0: 69bd 9239 ba02 7e38 f852 10bb 4a09 c1b9
000003e0: 1e6b 223a ccac 1b3a ca87 01bb 33a7 403b
000003f0: 39ff 3dba d167 093b eb2b 84bb 738b dc39

bn1.running_var f4 [256]
0.31103534 0.185503 0.119678296 0.12508853 0.21080948 0.21675222 0.14505263 0.25688952
0.14702885 0.119615644 0.1865208 0.095803455 0.17726663 0.15191157 0.1838513 0.1469251
0.14330359 0.11235896 0.2312696 0.1871872 0.15483426 0.14881146 0.12281331 0.18109702
0.12253487 0.16744718 0.17879386 0.16749653 0.18006377 0.3904626 0.36958298 0.10509645
0.2221395 0.124436766 0.16104272 0.13027059 0.35190642 0.16943109 0.10399058 0.14382432
0.34912077 0.09693932 0.23141068 0.1243772 0.16532148 0.1074765 0.33963066 0.13606626
0.39353868 0.21165948 0.31046018 0.13062862 0.17823789 0.10699741 0.25489184 0.16562508
0.1286253 0.18699268 0.092831515 0.3136319 0.17896385 0.11054055 0.14330555 0.20122069
0.23358098 0.09727568 0.2546039 0.090740725 0.20278096 0.12786542 0.12036705 0.2468252
0.14297722 0.18046464 0.080640525 0.15537539 0.18436499 0.077268414 0.16289529 0.09900545
0.17125492 0.10339346 0.115169935 0.17693429 0.1451041 0.15436834 0.14847443 0.14585522
0.12109759 0.08850763 0.1416513 0.11206311 0.19534716 0.1722067 0.13047442 0.09058274
0.15445642 0.20779634 0.21215911 0.08023368 0.12868667 0.0737779 0.3297894 0.29338372
0.1489538 0.23096538 0.171919 0.09578698 0.13477322 0.14299685 0.17302252 0.09179401
0.09747099 0.23002346 0.154221 0.16437678 0.08848615 0.10966015 0.21118407 0.17647618
0.23303239 0.20298107 0.1474449 0.15162727 0.22859958 0.14594658 0.13359821 0.14336564
0.1995736 0.11482128 0.0935283 0.12286455 0.1610483 0.13847977 0.20130427 0.10476193
0.10226046 0.33238992 0.16115555 0.1581165 0.139735 0.11135081 0.11792588 0.15792193
0.16951585 0.17473854 0.107089624 0.17153409 0.40610808 0.111734286 0.21921974 0.1580383
0.09946387 0.15642165 0.1522176 0.20451337 0.16009986 0.07482481 0.3909312 0.16432983
0.13802832 0.1279112 0.13872159 0.17511733 0.12838043 0.2042008 0.3573754 0.1171828
0.13158375 0.13200964 0.10581791 0.1048455 0.15271921 0.19811128 0.13623138 0.19321553
0.13756531 0.14828597 0.09456448 0.100102216 0.121441945 0.11123299 0.20642725 0.14176293
0.17755535 0.17653336 0.09416687 0.19184917 0.1887913 0.1588285 0.16225336 0.35066968
0.15433687 0.25909263 0.3320254 0.10605184 0.11300285 0.14524451 0.1344756 0.16684306
0.081834264 0.19984664 0.18912905 0.12846175 0.15874006 0.08913183 0.11379983 0.084872335
0.16878906 0.15375826 0.22324993 0.15994802 0.1454353 0.14518677 0.37752578 0.17854317
0.12992364 0.11518782 0.16340393 0.24925204 0.124255925 0.15489745 0.24555297 0.16908021
0.09584183 0.1337691 0.124258935 0.1856526 0.33955118 0.1460094 0.12038269 0.15259646
0.17003357 0.16391952 0.15626031 0.36411792 0.10837575 0.12045394 0.12304306 0.17640914
0.15951358 0.37452486 0.21276267 0.19946152 0.22503257 0.3390857 0.4167811 0.21249665
0.091315895 0.18874498 0.20178933 0.17342734 0.09614474 0.15229665 0.15343808 0.36653677
00000000: 0640 9f3e 80f4 3d3e e519 f53d 3517 003e
00000010: 71de 573e 4bf4 5d3e ad88 143e 0687 833e
00000020: bb8e 163e 0cf9 f43d 4fff 3e3e 9a34 c43d
00000030: 6285 353e b58e 1b3e 8443 3c3e 8973 163e
00000040: 2dbe 123e 741c e63d f0d1 6c3e 00ae 3f3e
00000050: df8c 1e3e 0862 183e 8b85 fb3d 7f71 393e
00000060: 90f3 fa3d 4677 2b3e bd15 373e 3684 2b3e
00000070: a362 383e b7ea c73e fb39 bd3e cf3c d73d
00000080: 8978 633e b4d8 fe3d 62e8 243e a765 053e
00000090: 142d b43e 587f 2d3e 03f9 d43d af46 133e
000000a0: f5bf b23e 1f88 c63d ecf6 6c3e 79b9 fe3d
000000b0: 094a 293e a41c dc3d 12e4 ad3e f454 0b3e
000000c0: e77d c93e 43bd 583e a3f4 9e3e 82c3 053e
000000d0: fe83 363e 7521 db3d 2f81 823e 9f99 293e
000000e0: 5ab6 033e 027b 3f3e 731e be3d 5c94 a03e
000000f0: 4d42 373e 1563 e23d b1be 123e cc0c 4e3e
00000100: da2f 6f3e 7938 c73d 715b 823e 46d6 b93d
00000110: d0a5 4f3e 27ef 023e 0083 f63d bfbf 7c3e
00000120: 9f68 123e b9cb 383e dc26 a53d ba1a 1f3e
00000130: 2dca 3c3e e73e 9e3d 06ce 263e 5fc3 ca3d
00000140: 735d 2f3e f3bf d33d 37de eb3d 432e 353e
00000150: 2b96 143e bc12 1e3e ae09 183e 125b 153e
00000160: 0302 f83d 7d43 b53d 0a0d 113e 5881 e53d
00000170: 1609 483e f456 303e 169b 053e 7283 b93d
00000180: d329 1e3e 90c8 543e 3d40 593e 8e51 a43d
00000190: 70c6 033e de18 973d 28da a83e 6436 963e
000001a0: 5887 183e 3082 6c3e 890b 303e f72b c43d
000001b0: fe01 0a3e c46d 123e d12c 313e 7ffe bb3d
000001c0: df9e c73d 458b 6b3e 1cec 1d3e 6352 283e
000001d0: 3a38 b53d 8095 e03d a340 583e 2cb6 343e
000001e0: 0ba0 6e3e 45da 4f3e ccfb 163e 2e44 1b3e
000001f0: 0216 6a3e 0573 153e f8cd 083e 71ce 123e
00000200: 065d 4c3e 6b27 eb3d c48b bf3d 69a0 fb3d
00000210: d8e9 243e a4cd 0d3e b522 4e3e 6c8d d63d
00000220: ef6d d13d 032f aa3e f605 253e 4be9 213e
00000230: b116 0f3e e50b e43d 2083 f13d 49b6 213e
00000240: 9095 2d3e a9ee 323e ce51 db3d a2a6 2f3e
00000250: 66ed cf3e f2d4 e43d 247b 603e cbd4 213e
00000260: b7b3 cb3d ff2c 203e eede 1b3e f46b 513e
00000270: 38f1 233e c03d 993d 2228 c83e 1446 283e
00000280: 4c57 0d3e 27fb 023e 080d 0e3e f551 333e
00000290: 2976 033e 041a 513e e9f9 b63e 89fd ef3d
000002a0: e4bd 063e 892d 073e 0fb7 d83d 3db9 d63d
000002b0: 6d62 1c3e afdd 4a3e 3d80 0b3e 4bda 453e
000002c0: ecdd 0c3e 47d8 173e 06ab c13d 6402 cd3d
000002d0: 8eb6 f83d 1fce e33d aa61 533e 4d2a 113e
000002e0: 12d1 353e 29c5 343e 8fda c03d 1c74 443e
000002f0: 8252 413e f0a3 223e bf25 263e fa8a b33e
00000300: 7c0a 1e3e caa7 843e 3cff a93e b531 d93d
00000310: 0a6e e73d faba 143e f9b3 093e e8d8 2a3e
00000320: b998 a73d 99a4 4c3e 0cab 413e 7a8b 033e
00000330: c18c 223e c08a b63d e30f e93d 8cd1 ad3d
00000340: 0ad7 2c3e ce72 1d3e a19b 643e 6ac9 233e
00000350: feec 143e d7ab 143e 0f4b c13e 05d4 363e
00000360: b40a 053e 97e7 eb3d 5c53 273e ed3b 7f3e
00000370: e479 fe3d 709d 1e3e 3d72 7b3e 5d23 2d3e
00000380: b948 c43d c4fa 083e 787b fe3d b71b 3e3e
00000390: a7d9 ad3e 7d83 153e 338b f63d 3f42 1c3e
000003a0: 481d 2e3e 85da 273e b402 203e aa6d ba3e
000003b0: 1bf4 dd3d 8eb0 f63d 00fe fb3d 99a4 343e
000003c0: 8757 233e b9c1 bf3e 75de 593e a43f 4c3e
000003d0: f06e 663e a49c ad3e 5564 d53e b998 593e
000003e0: d403 bb3d 5d46 413e dda1 4e3e f096 313e
000003f0: 89e7 c43d a7f3 1b3e df1e 1d3e b5aa bb3e

fc2.weight f4 [128, 256]
-0.006672996 -0.03751326 0.012291907 -0.0118159475 -0.0023050914 -0.10824701 0.006703311 -0.013759711
0.020032126 0.010900397 0.003626771 -0.031720653 -0.105228916 -0.020633673 0.0002473041 -0.0035883675
0.016907338 0.019321881 -0.05906287 -0.07360431 -0.0028076982 -0.008079529 0.037086066 0.019188773
0.002911569 0.0028261305 0.00084813964 -0.06653152 -0.010007912 -0.06915477 -0.0073372484 0.01998389
-0.10624952 -0.11233876 -0.0015576073 0.0134297 0.014056235 0.0054256213 0.012319549 -0.06355439
-0.020739095 -0.0012963732 0.006152058 0.008794674 0.012624198 0.0474487 -0.091280624 0.030796377
-0.018009512 0.014828698 -0.036403798 0.031091513 0.008181636 0.02696328 0.0034991042 -0.019891283
0.0057402155 -0.019152395 -0.0004485143 -0.005926763 0.013871394 -0.022022784 -0.026171729 0.0021103623
-0.061440013 0.0124028865 -0.034003794 -0.0060864505 -0.05793705 0.010480813 -0.0028767174 -0.0060096816
0.02773955 -0.013980868 0.0026572975 0.0015809209 -0.04946224 0.065652594 0.0030302505 -0.003294764
-0.03863394 0.014466133 -0.00338166 0.028592978 -0.008231631 -0.0418652 -0.00037241768 0.01348406
-0.020340713 -0.014824551 -0.055538107 0.011898789 0.00024463222 0.0075937132 0.0043670987 0.008962732
0.055849306 0.002460512 -0.039558966 -0.066313945 0.006210009 0.004858872 -0.024488542 -0.0065366332
-0.023251317 0.0031380022 -0.010940381 0.007146474 -0.082304195 -0.07648506 0.0036783244 -0.012053499
-0.07585684 0.004198834 0.00037983962 -0.14372046 -0.061001733 0.014640734 0.010971052 0.022675905
0.0067165797 0.0025611392 -0.0215428 -0.03488837 0.007518918 0.008202633 -0.0805114 0.0025234013
0.012334352 0.0033931497 -0.014301973 0.04089182 -0.092092946 -0.0010969143 -0.006869223 0.002396784
-0.0001734603 -0.0154380575 -0.04913368 0.0038840706 0.011396754 -0.0122346515 -0.0062518623 -0.004867447
0.009262444 0.01592519 0.006362042 -0.08435365 -0.08208444 -0.04774923 0.008243378 -0.117173396
-0.09056393 0.016781695 0.067528196 0.02415924 0.029830322 -0.0051946016 -0.03496772 -0.023674471
-0.012028943 0.011303168 0.025476987 -0.012619717 -0.0058606677 0.019527048 -0.011359861 -0.09099078
-0.0930736 0.011633881 -0.009350667 -0.0036864283 0.01869685 -0.0024903622 0.0069945566 0.015060173
-0.042141594 -0.00378424 -0.10064261 0.0057934434 0.004532149 0.0007014172 -0.008617121 0.0015045813
-0.007929254 -0.019476295 0.028461564 0.012126211 -0.00083946786 0.030459683 -0.008158234 -0.02319763
0.016905166 -0.028411599 0.018457137 -0.09040477 -0.004146292 0.048071977 -0.017913401 0.0008401777
-0.013265346 -0.009808246 0.01536851 0.002217534 0.012298439 -0.008824304 -0.007297356 -0.02524653
-0.0064539826 -0.035837412 0.0042201225 -0.010668026 -0.052200366 0.008866339 -0.03501111 -0.07551189
-0.00571033 0.024333492 -0.17967023 0.0021127523 -0.00034849026 -0.023065627 0.0042110025 0.0026646487
0.0050230576 0.013000115 0.01355581 0.009667221 -0.015275949 0.02819693 -0.05742087 0.0059085945
0.0067890305 -0.047848064 0.07221831 0.0054348605 0.017290896 0.030776074 -0.004681803 -0.0081616575
0.013712425 -0.081645854 -0.084267005 -0.0052023395 -0.06297099 -0.036166623 -0.034044355 0.017312698
-0.019562514 -0.007016366 0.0019006524 -0.004796039 0.010594077 -0.02854152 0.014895366 -0.007255892
00000000: 26a9 dabb 81a7 19bd ff63 493c ad97 41bc
00000010: 0411 17bb 9cb0 ddbd 73a7 db3b 6970 61bc
00000020: 6a1a a43c 9497 323c 1faf 6d3b 84ed 01bd
00000030: 4282 d7bd f307 a9bc 98a8 8139 d12a 6bbb
00000040: 4281 8a3c ec48 9e3c e8eb 71bd dbbd 96bd
00000050: 5c01 38bb 0060 04bc 8fe7 173d c631 9d3c
00000060: 06d0 3e3b 9a36 393b b055 5e3a ad41 88bd
00000070: 3af8 23bc 04a1 8dbd 4d6d f0bb 41b5 a33c
00000080: 5999 d9bd dd11 e6bd a128 ccba 3f08 5c3c
00000090: 1f4c 663c 69c9 b13b efd7 493c ce28 82bd
000000a0: 09e5 a9bc 11eb a9ba 3497 c93b 8917 103c
000000b0: b9d5 4e3c 9159 423d 56f1 babd af48 fc3c
000000c0: af88 93bc 11f4 723c 261c 15bd a1b3 fe3c
000000d0: 450c 063c 19e2 dc3c 3a51 653b 0bf3 a2bc
000000e0: 6b18 bc3b 7ce5 9cbc 9226 ebb9 4b35 c2bb
000000f0: d844 633c 2069 b4bc 1866 d6bc 014e 0a3b
00000100: 86a8 7bbd 7a35 4b3c 9047 0bbd d970 c7bb
00000110: 664f 6dbd b7b7 2b3c 4f87 3cbb ddec c4bb
00000120: 0e3e e33c 0310 65bc 0e26 2e3b e736 cf3a
00000130: eb98 4abd de74 863d 2b97 463b f8ec 57bb
00000140: 9f3e 1ebd 5c03 6d3c d79e 5dbb d23b ea3c
00000150: f6dd 06bc d87a 2bbd 0e41 c3b9 3fec 5c3c
00000160: 91a1 a6bc ace2 72bc ed7b 63bd 23f3 423c
00000170: fb41 8039 afd4 f83b e119 8f3b 6cd8 123c
00000180: 3ec2 643d 8b40 213b 9508 22bd 9bcf 87bd
00000190: 557d cb3b 2c37 9f3b 329c c8bc 4131 d6bb
000001a0: 8c79 bebc f1a6 4d3b 493f 33bc f82c ea3b
000001b0: 1a8f a8bd 33a4 9cbd 0b10 713b 0a7c 45bc
000001c0: d55a 9bbd 5f96 893b 3625 c739 752b 13be
000001d0: f4dc 79bd b0df 6f3c edbf 333c d2c2 b93c
000001e0: c116 dc3b c9d8 273b 877a b0bc 1ce7 0ebd
000001f0: 4161 f63b 5664 063c 29e3 a4bd a65f 253b
00000200: 0616 4a3c 9b5f 5e3b d352 6abc 2e7e 273d
00000210: 3a9b bcbd 56c6 8fba 3817 e1bb 5d13 1d3b
00000220: e5e2 35b9 e8ef 7cbc 6640 49bd e48b 7e3b
00000230: 73b9 3a3c d973 48bc 6cdc ccbb 1b7f 9fbb
00000240: 82c1 173c 8b75 823c ad78 d03b 9bc1 acbd
00000250: e31b a8bd b294 43bd 3c0f 073c 9bf8 efbd
00000260: 9579 b9bd c479 893c 394c 8a3d 99e9 c53c
00000270: b85e f43c 7a37 aabb 503a 0fbd f7f0 c1bc
00000280: 0b15 45bc ec30 393c 1db5 d03c eec2 4ebc
00000290: d80a c0bb 30f7 9f3c b61e 3abc 6059 babd
000002a0: 5f9d bebd 099c 3e3c 8a33 19bc 0198 71bb
000002b0: 232a 993c 5835 23bb 9832 e53b f2be 763c
000002c0: aa9c 2cbd 0301 78bb b61d cebd edd6 bd3b
000002d0: 6c82 943b 50df 373a d32e 0dbc 5f35 c53a
000002e0: b4e9 01bc c08c 9fbc 3a28 e93c 04ad 463c
000002f0: bc0f 5cba 9686 f93c 1daa 05bc f508 bebc
00000300: b47c 8a3c 71bf e8bc 6c33 973c 2326 b9bd
00000310: 9edd 87bb 1fe7 443d 20bf 92bc 5f3f 5c3a
00000320: e556 59bc c4b2 20bc 34cc 7b3c 0c54 113b
00000330: 647f 493c d093 10bc a91e efbb d0d1 cebc
00000340: ee7b d3bb 40ca 12bd f448 8a3b f2c8 2ebc
00000350: 0dd0 55bd 1f44 113c cf67 0fbd faa5 9abd
00000360: b81d bbbb 0857 c73c 79fb 37be 1a76 0a3b
00000370: 92b5 b6b9 20f4 bcbc 73fc 893b 63a1 2e3b
00000380: 7698 a43b 6ffe 543c 3019 5e3c 4463 1e3c
00000390: f947 7abc 40fd e63c 2532 6bbd e29c c13b
000003a0: 8476 de3b 55fc 43bd 31e7 933d ea16 b23b
000003b0: a3a5 8d3c 1b1e fc3c cf69 99bb 79b8 05bc
000003c0: 14aa 603c f135 a7bd 2e94 acbd 6378 aabb
000003d0: eff6 80bd 7423 14bd 1872 0bbd 5cd3 8d3c
000003e0: 9141 a0bc 8be9 e5bb 501f f93a 1728 9dbb
000003f0: c892 2d3c e8cf e9bc b10b 743c d5c2 edbb

fc2.bias f4 [128]
4.4711483e-06 -2.7995645e-06 9.78326e-07 -8.454467e-06 7.0530477e-06 -9.334505e-07 6.302924e-07 9.4791034e-07
3.4728382e-06 -3.2824184e-06 1.8883333e-05 2.7376575e-06 7.692636e-06 -1.5025203e-06 -1.1533597e-06 2.9360176e-06
-3.6036608e-06 2.444256e-06 3.4634704e-07 -3.6075996e-06 -7.734111e-06 4.6602245e-06 -2.6348098e-06 -2.5502843e-06
6.3366615e-06 5.4966135e-06 2.8586364e-06 -7.1102356e-08 -2.4190845e-06 1.2131858e-05 7.2988264e-06 -2.994129e-06
-6.1605137e-06 -7.5378807e-06 -9.278911e-07 -8.828357e-07 -2.2162728e-06 -3.405814e-06 1.6468139e-05 -1.484548e-06
-4.976703e-06 -3.7044074e-06 -3.8012238e-06 -5.5335903e-07 -2.7784235e-06 1.1444793e-06 1.2611174e-05 -2.0291486e-06
3.7725667e-06 1.738481e-05 -2.1043759e-06 2.1986764e-06 1.9532208e-06 -3.1942623e-06 1.2376853e-05 -3.707233e-06
2.3644172e-06 -3.087871e-07 -1.7156037e-07 1.5404898e-06 -1.2230637e-07 2.4453004e-07 2.118112e-06 -1.5962821e-06
2.4640158e-06 -1.8865605e-05 6.3649054e-06 8.811756e-06 1.104748e-05 -5.172873e-07 -2.1688486e-06 -1.1179533e-05
5.238715e-06 2.1694283e-05 9.441392e-06 3.6771517e-06 1.3071467e-06 6.579868e-06 -3.2942944e-06 1.651428e-06
-5.5016176e-06 -7.2733615e-06 3.338807e-06 -6.121565e-07 -2.9593868e-06 7.104033e-06 -8.469439e-06 -4.293438e-06
1.2738664e-06 -1.2363844e-05 -3.4241173e-06 6.168883e-06 -3.7953828e-06 -1.903912e-06 -1.2920343e-06 -6.8419818e-06
-6.2599383e-06 8.5940055e-06 3.2007244e-09 -6.537539e-06 -2.866971e-06 4.7676795e-06 -8.437934e-06 -1.1658074e-05
4.3669734e-06 3.4514267e-06 -1.0348257e-06 -5.7255244e-07 -2.5921258e-07 8.3001505e-06 1.2389604e-07 -1.1175817e-06
-5.428141e-06 -1.5093851e-05 -1.6163593e-06 -1.678139e-06 6.663795e-06 1.1439953e-06 4.2747783e-06 5.6243252e-06
7.971255e-06 -2.7635729e-06 4.4869893e-07 -7.4310816e-07 -7.3018336e-06 2.7629146e-06 2.2680667e-06 8.326846e-06
00000000: df06 9636 27e0 3bb6 074f 8335 a9d7 0db7
00000010: 38a9 ec36 3b92 7ab5 5d31 2935 e773 7e35
00000020: e80e 6936 8547 5cb6 a667 9e37 99b8 3736
00000030: 9f0f 0137 34aa c9b5 23cd 9ab5 6608 4536
00000040: 6cd6 71b6 0008 2436 93f1 b934 171a 72b6
00000050: c1c1 01b7 065f 9c36 b0d1 30b6 8d25 2bb6
00000060: 829f d436 8d6f b836 00d7 3f36 efb0 98b3
00000070: 8e57 22b6 ef89 4b37 71e8 f436 bfee 48b6
00000080: 69b6 ceb6 e7ed fcb6 3114 79b5 02fc 6cb5
00000090: 47bb 14b6 708f 64b6 0f25 8a37 ae40 c7b5
000000a0: 8efd a6b6 3c99 78b6 8718 7fb6 8b8a 14b5
000000b0: f474 3ab6 029c 9935 9494 5337 822c 08b6
000000c0: 342c 7d36 98d5 9137 e738 0db6 f98c 1336
000000d0: 1414 0336 025d 56b6 2ea6 4f37 c7c9 78b6
000000e0: 61ac 1e36 60c7 a5b4 2836 38b4 d4c2 ce35
000000f0: 5253 03b4 f447 8334 e324 0e36 d63f d6b5
00000100: 785b 2536 9441 9eb7 1f92 d536 34d6 1337
00000110: 9158 3937 b6db 0ab5 898c 11b6 bb8f 3bb7
00000120: 38c8 af36 1efc b537 7866 1e37 fcc4 7636
00000130: 3871 af35 a3c8 dc36 8c13 5db6 a2a6 dd35
00000140: 899a b8b6 b30d f4b6 4410 6036 1353 24b5
00000150: e199 46b6 2e5f ee36 f717 0eb7 5a10 90b6
00000160: b7f9 aa35 4e6e 4fb7 e3c9 65b6 4dfe ce36
00000170: 2eb4 7eb6 eb89 ffb5 f669 adb5 2d94 e5b6
00000180: 760c d2b6 f92e 1037 bdf3 5b31 085d dbb6
00000190: 3066 40b6 0efa 9f36 a790 0db7 0c97 43b7
000001a0: 0488 9236 0f9f 6736 57e4 8ab5 81b1 19b5
000001b0: e829 8bb4 e040 0b37 4908 0534 d1ff 95b5
000001c0: 6023 b6b6 993b 7db7 aff1 d8b5 6b3c e1b5
000001d0: 9099 df36 618b 9935 1170 8f36 96b8 bc36
000001e0: 48bc 0537 d275 39b6 b6e4 f034 017a 47b5
000001f0: 4602 f5b6 836a 3936 1735 1836 88b3 0b37
